amostras/resultados/discrimation-flow-dataset/3/fgsm/PyTorchClassifier.model (torch, 206184 bytes, 22 tensors)

linear_relu_stack.0.weight f4 [64, 20]
0	0x3f08d4ef	0.5344991
1	0xbe228f9c	-0.15875095
2	0xbee290ae	-0.44251007
3	0x3f3206e3	0.6954176
4	0xbf7e11f6	-0.99246156
5	0x3fc62ca2	1.5482371
6	0xbe9dc47b	-0.30813965
7	0xbd502b7a	-0.050822712
8	0x3e8418d6	0.25800198
9	0xbdc92b4d	-0.09822712
10	0x3e334d2f	0.17509912
11	0x3f00b457	0.50275177
12	0xbe17cb23	-0.14823584
13	0x3eae043c	0.33987606
14	0x3f0cb183	0.5495836
15	0xbd65594d	-0.055993367
16	0x3eaaf6f0	0.33391523
17	0xbe97f852	-0.2968164
18	0x3ddb5c53	0.10710969
19	0x3ebeb8e1	0.37250426
20	0xbff68ce5	-1.9261748
21	0xbe5b3f24	-0.21410805
22	0x3e061e79	0.13097562
23	0x3db29d06	0.08721356
24	0xbe34aeb5	-0.1764477
25	0xbf0ab905	-0.5418857
26	0xbea0228b	-0.31276354
27	0x3ea6ee35	0.32603613
28	0xbf4669c6	-0.7750515
29	0xbe398cd2	-0.18120125
30	0xbde4a3fe	-0.111640915
31	0xbdd22970	-0.1026181
32	0xbe308589	-0.1723844
33	0xbf498676	-0.78720796
34	0xbdf6c510	-0.120493054
35	0xbdd4c22d	-0.103885986
36	0x3e511b01	0.20420457
37	0xbd399314	-0.04530628
38	0xbec910b0	-0.39270544
39	0xbcdc1032	-0.026863191
40	0x3ea86899	0.32892302
41	0x3d5b0424	0.053470746
42	0xbf802fe7	-1.0014619
43	0xbed4d467	-0.415683
44	0x3f108011	0.56445414
45	0xbf948eb1	-1.1606046
46	0xbe17af9c	-0.14813083
47	0xbd854a8e	-0.06508361
48	0x3ed61967	0.41816255
49	0xbed80c3b	-0.4219683
50	0x3ef5dd6a	0.48020488
51	0x3e3fae0a	0.18718734
52	0xbf59dbaf	-0.85100836
53	0xc018200b	-2.3769557
54	0xbe7301b6	-0.23731121
55	0x3f2e3ad3	0.6805851
56	0xbb041844	-0.0020156065
57	0xbf8361c2	-1.0264208
58	0xc0157c60	-2.3357162
59	0xbd3a541c	-0.04549037
60	0x3e1a9f18	0.15099752
61	0xbc60b8b1	-0.013715909
62	0x3d78526e	0.060625486
63	0x3cd9ff97	0.026611133
64	0xbf22fcb4	-0.63666844
65	0xbf16927c	-0.5881727
66	0xbea06558	-0.3132732
67	0xbed359d6	-0.41279477
68	0xbf1fbd73	-0.6239845
69	0xbe7be419	-0.24598731
70	0xbf466b0b	-0.77507085
71	0xbf2df532	-0.67952263
72	0xbf7bca2a	-0.9835535
73	0xbf14c0fc	-0.5810697
74	0x3effee92	0.49986702
75	0xbf809d2b	-1.0047964
76	0xbec00af1	-0.37508348
77	0xbf694643	-0.91122836
78	0xbedd5e63	-0.43236074
79	0x3ee32c72	0.44369847
80	0xbe728935	-0.23685153
81	0x3b8f0e7c	0.0043657403
82	0xbe55193f	-0.20810412
83	0xbed45ae7	-0.41475603
84	0x3e7e45b9	0.24831285
85	0xbf1850d6	-0.59498346
86	0x3de9d30f	0.11417209
87	0x3c758455	0.014985164
88	0xbdd95f4e	-0.10613881
89	0xbdf8ad33	-0.1214241
90	0x3f14993d	0.58046323
91	0x39b3fd93	0.00034330468
92	0x3cdba2bc	0.026810996
93	0xbead2e6f	-0.3382449
94	0xbea77e72	-0.32713658
95	0x3f0e379b	0.555536
96	0xbb0335c4	-0.002002106
97	0xbd8dd5f4	-0.06925574
98	0xbec4a6fb	-0.38408646
99	0xbecaf3e5	-0.39639202
100	0xbe01ff1f	-0.12694977
101	0x3d8e0ed5	0.06936423
102	0xbecda649	-0.40165928
103	0xbd5c47b2	-0.05377931
104	0xbec7aff1	-0.3900142
105	0x3d979e63	0.07403257
106	0xbd8bf471	-0.06833733
107	0x3f933e12	1.1503317
108	0xbfaeb21d	-1.3648106
109	0xc036a81f	-2.8540113
110	0xbf332550	-0.6997881
111	0xbeabc8d1	-0.33551648
112	0xc01e999a	-2.478125
113	0x3fd7536e	1.6822336
114	0x3f74de1f	0.9565143
115	0xbf33e114	-0.70265317
116	0xbf0dba75	-0.55362636
117	0xc01ce560	-2.4515
118	0x3fd703a2	1.6797984
119	0x3f124775	0.57140285
120	0xc026c88a	-2.60599
121	0x3f24b26b	0.64334744
122	0x3c840125	0.016113827
123	0xbe985a9b	-0.29756626
124	0x3e814387	0.25246832
125	0xbf2e51cf	-0.6809358
126	0xbd527a09	-0.051385913
127	0x3e089edd	0.13341852
128	0xbf18622f	-0.59524816
129	0xbe39a069	-0.18127598
130	0xbf4a24cb	-0.7896239
131	0xbf744ea5	-0.954325
132	0xbf6bf317	-0.921678
133	0xbfcfe68c	-1.6242232
134	0xbe9a5ac3	-0.3014737
135	0xbf87a635	-1.0597597
136	0xbf8b163e	-1.0866163
137	0xbf83e6a8	-1.0304766
138	0xbfb1492a	-1.3850453
139	0xbf0b93e0	-0.54522514
140	0x3f189011	0.5959483
141	0x3d9505a3	0.07276466
142	0x3e923aec	0.2856058
143	0xbf40d538	-0.75325346
144	0xbecaeb93	-0.39632854
145	0x3f4e32ef	0.8054647
146	0xbf5880e0	-0.8457165
147	0xbd54ab53	-0.0519212
148	0xbf28e1a1	-0.6596928
149	0xbdfb11f1	-0.122592814
150	0xbf487ce8	-0.7831559
151	0xbfd2b62f	-1.6461848
152	0xbecf4351	-0.40481046
153	0x4065d30b	3.591006
154	0x3c58b927	0.0132277375
155	0xbf00d11b	-0.5031907
156	0xbfe08c72	-1.754286
157	0xbe4ff5cb	-0.20308606
158	0x407135d5	3.7689106
159	0x3d5a5d9a	0.05331192
160	0x3ec28aab	0.3799642
161	0x3d880c11	0.066429265
162	0xbd48da3a	-0.049036242
163	0x3df49972	0.1194333
164	0xbc1536db	-0.009107317
165	0x3e8cb984	0.27485287
166	0xba7c2e14	-0.0009619903
167	0xbd655bf3	-0.055995893
168	0x3e9b4911	0.30329183
169	0xbdd2e014	-0.10296646
170	0x3e0141d4	0.12622768
171	0xbe9f46ed	-0.311088
172	0xbffb28e0	-1.9621849
173	0x3f507e4e	0.81442726
174	0xbda405d4	-0.08008924
175	0x3e7e57f8	0.24838245
176	0xbf2fc786	-0.68663824
177	0xbff1b504	-1.8883367
178	0x3f8671f0	1.0503521
179	0xbe900820	-0.281312
180	0x3e99f21e	0.30067533
181	0x3e377821	0.1791692
182	0x3e056584	0.13027006
183	0xbe71875c	-0.23586792
184	0x3de04e20	0.10952401
185	0xbf111a7f	-0.56681055
186	0xbeae7da8	-0.34080243
187	0x3e1ca53a	0.15297404
188	0xbd798ccf	-0.0609253
189	0x3e51e996	0.20499262
190	0xbfedc681	-1.8576204
191	0x3e0a88e4	0.13528782
192	0xbf12c2cf	-0.57328504
193	0xbfa7d893	-1.3112968
194	0xbc375b5d	-0.011191216
195	0xbfca151b	-1.5787691
196	0x3eba6c05	0.36410537
197	0xbeadb965	-0.33930507
198	0xbfc3a721	-1.5285379
199	0x3e853410	0.26016283
200	0x3faedbe2	1.3660853
201	0xbee0deb2	-0.43919903
202	0xbe06261a	-0.13100472
203	0x3e12ebbe	0.14347741
204	0xbdc8c8e2	-0.0980394
205	0x3f31860d	0.6934517
206	0x3d08c017	0.033386316
207	0x3dffc4be	0.124886975
208	0x3f325b06	0.6967014
209	0xbee47f8d	-0.44628564
210	0x3e93e65d	0.2888669
211	0xbfa2df73	-1.2724441
212	0xbfe28bc8	-1.7698908
213	0x40ce8ed4	6.454935
214	0xbfd05900	-1.6277161
215	0x3eedcd09	0.46445492
216	0xbf8e93e3	-1.1138881
217	0xbfb766ae	-1.432821
218	0x40c81999	6.2531247
219	0xbfb437b2	-1.4079497
220	0xbec10880	-0.37701797
221	0x3da0cb69	0.078512974
222	0x3cc375a6	0.02385981
223	0x3e8a966b	0.27067885
224	0xbf01b989	-0.5067373
225	0xbd4426b6	-0.04788848
226	0xbd850819	-0.06495685
227	0x3e51c468	0.2048508
228	0xbe2bb3c2	-0.16767791
229	0x3e18cc15	0.14921601
230	0xbf043cb3	-0.5165512
231	0xbebfd612	-0.3746801
232	0x3e97a9e4	0.29621804
233	0xbf0296ad	-0.51011163
234	0xbf54c4f0	-0.83113
235	0xbf04cce1	-0.5187512
236	0xbec21be8	-0.37911916
237	0x3e29b2dc	0.16572136
238	0xbe7d1623	-0.24715476
239	0xbf104686	-0.5635761
240	0x3f379426	0.7171043
241	0x3dc0e30c	0.09418306
242	0xbd948792	-0.072524205
243	0x3cebc927	0.02878244
244	0xbdd3cab4	-0.10341397
245	0x3c99a040	0.018753171
246	0xbf0d27ba	-0.5513874
247	0xbf475031	-0.7785674
248	0x3dd10ddf	0.10207724
249	0x3d0f68f9	0.03501222
250	0xbe2f0057	-0.17089973
251	0x3ef92b01	0.48665622
252	0xbed338b4	-0.412542
253	0x3f34cc5f	0.70624346
254	0xbe89774d	-0.26848832
255	0xbeccc12e	-0.39991134

linear_relu_stack.0.bias f4 [64]
0	0x3ea8d3cd	0.3297409
1	0x3e0b554d	0.13606758
2	0xbf456164	-0.7710173
3	0xbe9ed646	-0.31022853
4	0xbf391e59	-0.7231193
5	0x3ed8339b	0.42226872
6	0xbebb6d3d	-0.3660678
7	0xbf8b5f3f	-1.0888442
8	0xbf26adc5	-0.651089
9	0xbde1437d	-0.109992005
10	0x3e836606	0.25663775
11	0xbdefa6c0	-0.11701727
12	0xbe384f85	-0.17999084
13	0x3dec15e1	0.115276106
14	0xbea783d9	-0.3271778
15	0xbeedcf90	-0.4644742
16	0xbf444560	-0.7666836
17	0xbf068edf	-0.52561754
18	0xbee44ce6	-0.4458992
19	0xbee8cd01	-0.45468906
20	0xbedeebba	-0.4353922
21	0x3edf7d7f	0.43650433
22	0xbeb2808e	-0.34863704
23	0xbe9ad5a2	-0.30241114
24	0xbedebab3	-0.43501815
25	0x3e2ad7c9	0.16683878
26	0xbf4d4d53	-0.8019611
27	0xbec0966a	-0.37614757
28	0x3ee49db2	0.44651562
29	0xbdc53167	-0.096285634
30	0xbe5d09bd	-0.21585746
31	0xbee9dc18	-0.4567573
32	0xbf83bf3e	-1.0292737
33	0x3f1baf1e	0.6081408
34	0x3ebdb44d	0.3705162
35	0xbf32cba1	-0.69841963
36	0x3f0895d9	0.5335365
37	0xbec23572	-0.379314
38	0xbec0089b	-0.37506565
39	0xbf7592ae	-0.9592694
40	0xbf4134fe	-0.75471485
41	0xbf196a3f	-0.59927744
42	0xbdb5d9de	-0.088794455
43	0xbdb03a0b	-0.08604821
44	0x3e95c209	0.292496
45	0x3ec51445	0.38492027
46	0x3e0103af	0.12599061
47	0xbed2a6ab	-0.41142783
48	0xbe80732b	-0.25087866
49	0xbd375a87	-0.044764068
50	0xbeb01789	-0.34392956
51	0x3eda7672	0.42668492
52	0x3daaad02	0.0833378
53	0xbe8e2e42	-0.27769667
54	0xbf67d0e6	-0.9055313
55	0xbf32b322	-0.69804585
56	0x3eac8e01	0.3370209
57	0xbeedff13	-0.4648367
58	0x3de92df1	0.11385716
59	0x3e916a08	0.28401208
60	0xbca65584	-0.020304449
61	0xbe027caa	-0.12742868
62	0xbeaf8ba6	-0.3428623
63	0x3e87fbc5	0.26559272

linear_relu_stack.2.weight f4 [128, 64]
0	0x3f31dfa1	0.69481856
1	0x3e0f93df	0.14021252
2	0xbd6d17e6	-0.05788412
3	0x3f12eac8	0.573895
4	0xbd022682	-0.031775005
5	0x3e50a3c6	0.20374975
6	0x3e54dbc3	0.20786957
7	0x3f0cec33	0.5504791
8	0x3df9771b	0.12180921
9	0x3d80c0f7	0.06286805
10	0xbeb72e9d	-0.3577775
11	0x3efcf5d7	0.4940631
12	0x3ed45496	0.41470784
13	0xbf594724	-0.84874177
14	0x3dde242b	0.10846742
15	0xbe0fc250	-0.14038968
16	0x3dc5a9eb	0.0965155
17	0x3a2ab1f2	0.0006511501
18	0x3e147b65	0.14500196
19	0xbe1b0b98	-0.15141141
20	0x3d8ed48b	0.06974133
21	0xbdf7c922	-0.1209891
22	0xbe0260cc	-0.12732238
23	0xbd8c5992	-0.06853022
24	0xbd8b1793	-0.06791606
25	0xbe95cc09	-0.2925723
26	0xbec0feb1	-0.37694314
27	0x3ecea264	0.4035827
28	0xbed44b92	-0.41463906
29	0xbc57036b	-0.0131233735
30	0x3eb74aa3	0.3579913
31	0xbd82a233	-0.06378593
32	0xbed8373c	-0.4222964
33	0x3d8595e4	0.0652273
34	0xbddf1dfe	-0.108943924
35	0xbe30336a	-0.17207113
36	0xbf25a727	-0.6470818
37	0xbe42eb35	-0.19035037
38	0xbc874874	-0.01651404
39	0x3edab2e8	0.4271462
40	0x3dd5c28b	0.10437497
41	0x3f000fcb	0.500241
42	0xbd932f20	-0.07186723
43	0xbeee7bc1	-0.46578792
44	0xbfae2243	-1.3604206
45	0x3f1e98e3	0.61952037
46	0xbebed4b6	-0.3727166
47	0x3f11cac3	0.56950015
48	0xbd21b77d	-0.03948163
49	0x3ef408a4	0.47662842
50	0x3e7e8a48	0.24857438
51	0xbe9650f5	-0.2935864
52	0xbf15f4ba	-0.5857655
53	0xbe1fa7f0	-0.15591407
54	0xbd1ab322	-0.03776849
55	0xbe00ae83	-0.12566571
56	0xbf2ef9e7	-0.6835007
57	0x3ecb8c64	0.39755547
58	0x3da4dd03	0.08049967
59	0x3f850476	1.0391986
60	0x3e902a23	0.28157148
61	0x3e5e616b	0.2171685
62	0x3e164808	0.14675915
63	0x40400e41	3.00087
64	0xbcc1b566	-0.023646068
65	0x3e0f7d50	0.14012647
66	0xbf3f713c	-0.74782157
67	0x3df15642	0.117840305
68	0xbec79947	-0.3898413
69	0xc0110945	-2.2661908
70	0xbd304324	-0.04303278
71	0x3f52f882	0.8241044
72	0xbf0371a4	-0.51345277
73	0x3da4d22c	0.080478996
74	0xc0027d34	-2.0388918
75	0x3ea37dd8	0.3193195
76	0xbf5a9c7b	-0.8539502
77	0xbf6df4d1	-0.92951685
78	0x3e922d50	0.28550196
79	0x3e055eb2	0.13024405
80	0xbe47b9ef	-0.19504522
81	0x3c492303	0.012276414
82	0xbe9c93c3	-0.30581483
83	0xbe732a0e	-0.23746511
84	0x3d47f195	0.048814375
85	0xbe4838cc	-0.19552916
86	0x3da24cf1	0.07924832
87	0xbd56abb0	-0.052409828
88	0xbf795206	-0.9739078
89	0x400064d6	2.0061545
90	0xbedc7d73	-0.4306446
91	0xbda69564	-0.08133963
92	0xbf88a36e	-1.0674875
93	0xbe46a154	-0.1939748
94	0xbf970bbb	-1.1800455
95	0xbf841b58	-1.0320845
96	0xbe8bfbe5	-0.27340618
97	0xbef34a5f	-0.47517678
98	0x3e449dea	0.19200864
99	0xbe6d13d6	-0.23152098
100	0x3ea30219	0.31837538
101	0x3f529409	0.82257134
102	0xbd570c1d	-0.052501787
103	0xbdb7e05d	-0.08978341
104	0x3f0026ec	0.5005939
105	0x3ed6fd17	0.41989967
106	0xbf230c0a	-0.63690245
107	0xbf370fe7	-0.7150864
108	0x3e62a36f	0.22132657
109	0xbf7d6be2	-0.9899274
110	0x3f49ebc4	0.78875375
111	0xbf6cd07a	-0.9250561
112	0x3db8ba3c	0.090198964
113	0xbf1e727c	-0.6189344
114	0xbdfa1adc	-0.12212154
115	0x3e7c3a25	0.24631555
116	0x3e3af90a	0.18259063
117	0xbcea35c9	-0.0285901
118	0xbf3bbb40	-0.73332596
119	0xbdacd3f7	-0.084388666
120	0x3f481dd5	0.7817052
121	0xbec1ea10	-0.37873888
122	0xbf2d12ec	-0.67607
123	0x3ececa26	0.40388602
124	0xbe513aab	-0.20432536
125	0x3e3dd2e4	0.1853748
126	0xbefcf349	-0.49404362
127	0xbdb45b1b	-0.088064395
128	0xc00b4a68	-2.1764164
129	0x3ed38681	0.41313556
130	0x3fd4b866	1.6618774
131	0xbedbb95b	-0.42914852
132	0x3efb72cd	0.49111024
133	0x3f90c9db	1.1311601
134	0x3e8ad3a1	0.27114585
135	0xbc574b4c	-0.013140511
136	0x3d26fd38	0.040768832
137	0x3dbafc11	0.09130109
138	0x3e57a94b	0.21060674
139	0xbf1942e9	-0.5986772
140	0x3e2de7cb	0.16982953
141	0x3ed4bf3f	0.4155216
142	0xbd6ff157	-0.05857977
143	0x3e0a6b29	0.13517441
144	0xbf208e6a	-0.62717307
145	0xbd8bbed8	-0.0682351
146	0xbf9c8398	-1.2227659
147	0xbdafa1fc	-0.08575818
148	0x3d7ab340	0.061206102
149	0x3f89d798	1.0768919
150	0xbe755d28	-0.23961318
151	0xbe8d1374	-0.27553904
152	0x3e9eb138	0.30994582
153	0x3f77109d	0.96509725
154	0x3f886410	1.0655537
155	0xbfd61a00	-1.6726685
156	0x3f1332ef	0.57499593
157	0x3de7771d	0.11302016
158	0xbf194a46	-0.5987896
159	0xbdf0ee3d	-0.1176419
160	0x3fbe7c9e	1.488178
161	0xbf0f5c63	-0.56000346
162	0xbfd40581	-1.656418
163	0x3f679168	0.9045625
164	0x3f9090a9	1.1294147
165	0xbf7576dc	-0.9588449
166	0xbf1c0a94	-0.6095364
167	0xbf42f540	-0.7615547
168	0xbc975462	-0.018472854
169	0x3ef0731a	0.46962816
170	0xbe363805	-0.17794807
171	0x3f933de1	1.1503259
172	0x3f6045a3	0.8760626
173	0x3f748165	0.9550994
174	0x3f5a5a90	0.8529444
175	0x3f2090e8	0.6272111
176	0x3e58b91e	0.21164367
177	0xbf533510	-0.8250284
178	0xbe812c13	-0.25228938
179	0x3db3cb2c	0.08778986
180	0xbe1b6572	-0.15175417
181	0xbdf5d239	-0.120029874
182	0x3e438c16	0.19096407
183	0x3e74f39c	0.23921055
184	0x3f9519de	1.1648519
185	0xbf7887e3	-0.97082347
186	0xbe490bd3	-0.19633417
187	0xbea5388d	-0.32269707
188	0x3f3f064a	0.7461897
189	0xbf75de6a	-0.960425
190	0x3e1b3f71	0.1516092
191	0x3f82d8ba	1.022239
192	0x3f49da7e	0.7884902
193	0xbf1b7d6d	-0.6073826
194	0xbe992212	-0.29908806
195	0xbe95ff88	-0.29296517
196	0xbe8286f0	-0.25493574
197	0xbfb93ed0	-1.4472294
198	0xc00d35be	-2.2064052
199	0x3e2c1d03	0.16807942
200	0x3e5c7c08	0.21531689
201	0x3ed2e2c2	0.41188627
202	0x3ee6d50b	0.45084414
203	0x3e05852c	0.13039082
204	0x3e6e1443	0.23249917
205	0xbed9b32b	-0.42519507
206	0xbd215c1a	-0.039394476
207	0xbf7dbcb9	-0.9911609
208	0x3dc5a972	0.0965146
209	0xbfdb2e73	-1.712355
210	0xbe7162ff	-0.2357292
211	0xbe37446d	-0.17897196
212	0x3eae880b	0.34088168
213	0xbd8ca689	-0.068677016
214	0xbe66535e	-0.2249274
215	0xbf84f9b0	-1.0388699
216	0x3f0274a7	0.5095925
217	0x3e816516	0.25272435
218	0xbbd5c946	-0.006524238
219	0xbe5c8ae5	-0.21537359
220	0xbfff3890	-1.9939137
221	0xbfa44088	-1.2832193
222	0x3f1f444d	0.62213594
223	0xbe663827	-0.22482358
224	0x3f573726	0.84068525
225	0xbd010ab0	-0.031504333
226	0x3edda06d	0.43286458
227	0xbf230d08	-0.6369176
228	0xbe252799	-0.16128387
229	0xbdc9961a	-0.09843083
230	0xbf935afa	-1.1512139
231	0x3dc79b25	0.09746388
232	0x3cf687b6	0.030094009
233	0xbef76508	-0.48319268
234	0xbda2f531	-0.07956923
235	0xbd36ac9e	-0.044598214
236	0xbed7f134	-0.4217621
237	0x3f17e9fa	0.59341395
238	0x3f62dbf1	0.88616854
239	0xbd450651	-0.048101727
240	0x3f225512	0.63411057
241	0x3f088091	0.53321177
242	0xbe846f10	-0.25865984
243	0xc0483a43	-3.128556
244	0x3ef4aa92	0.47786385
245	0xbe8e57d1	-0.27801374
246	0xbf3580aa	-0.7089945
247	0xbed53128	-0.41639066
248	0xc00f6e3c	-2.2411032
249	0x3ed55ab1	0.41670755
250	0xbe871dbb	-0.2638987
251	0xbe8518c4	-0.25995457
252	0x3f28859d	0.6582888
253	0x3f0811f0	0.5315237
254	0xbfe6fc28	-1.8045702
255	0xbfd2cfa5	-1.6469618

linear_relu_stack.2.bias f4 [128]
0	0x3e49393b	0.19650738
1	0x3c614745	0.013749902
2	0x3bf8ba8d	0.007590598
3	0x3c55259e	0.013009457
4	0x3e5b01e2	0.21387437
5	0xbe193779	-0.14962567
6	0xbe0f4c30	-0.13993907
7	0xbf09ea5c	-0.5387323
8	0xbe885477	-0.26626942
9	0xbc0ab04e	-0.008464886
10	0x3e0c7cb4	0.13719445
11	0xbf5d6b1f	-0.8649158
12	0x3d0fc47a	0.035099484
13	0x3e97800e	0.29589885
14	0x3ce3837a	0.027772654
15	0xbe9922b5	-0.29909292
16	0x3d22a953	0.03971226
17	0xbd4a20c6	-0.04934766
18	0x3e166afa	0.14689246
19	0x3c5e11a9	0.013554015
20	0xbedad344	-0.42739308
21	0x3c7d3802	0.015455248
22	0x3e5ce04f	0.21569942
23	0xbe08e2d4	-0.13367778
24	0x3ee270b6	0.44226617
25	0xbec6cef7	-0.38829777
26	0x3e3f096d	0.1865594
27	0x3da9d81f	0.08293175
28	0xbe0274b5	-0.12739833
29	0xbe486160	-0.19568396
30	0x3cdee281	0.027207615
31	0x3bd2ff89	0.0064391536
32	0xbe29e853	-0.16592531
33	0x3d227d9b	0.039670568
34	0xbe262d91	-0.1622832
35	0xbce497fb	-0.027904501
36	0x3c7d96fb	0.015477891
37	0x3e1cbbfc	0.15306085
38	0xbea67ee5	-0.32518688
39	0x3d50ef88	0.051009685
40	0x3e6102f8	0.21973789
41	0xbc41d5a5	-0.011830722
42	0xbdc31290	-0.09525025
43	0xbe268429	-0.16261353
44	0xbdbece6c	-0.093167156
45	0xbd444058	-0.047912925
46	0xbe8651b7	-0.26234218
47	0xbddd0258	-0.10791463
48	0x3ea6c2b2	0.32570416
49	0x3b8056b9	0.003916588
50	0x3d867e30	0.06567037
51	0xbce137f7	-0.027492506
52	0x3e2bd57d	0.16780658
53	0x3db3c29e	0.08777355
54	0xbdd2ff13	-0.10302558
55	0xbe81b3e2	-0.25332552
56	0xbdd1ff47	-0.102537684
57	0xbeb9d3ad	-0.36294308
58	0xbcb25ed3	-0.021773731
59	0x3d890393	0.06690135
60	0x3e456cb4	0.19279748
61	0xbb215ffc	-0.0024623862
62	0xbe349be6	-0.17637596
63	0xbd9e5358	-0.0773074
64	0xbe23988f	-0.15976165
65	0xbe1dd52c	-0.1541335
66	0x3e008e49	0.12554277
67	0xbdbb20f5	-0.091371454
68	0x3e11ccf1	0.14238335
69	0xbe2388b1	-0.15970112
70	0xbdb84733	-0.08997955
71	0xbe18840e	-0.14894125
72	0x3ea2979a	0.31756288
73	0x3d64679c	0.055762872
74	0xbbae8f51	-0.0053271432
75	0x3dd035bf	0.10166501
76	0x3dcedd27	0.10100775
77	0xbe38c3cb	-0.18043439
78	0x3e00bbd8	0.12571657
79	0xbdc96c90	-0.0983516
80	0x3dc1b7b3	0.09458866
81	0x3d152c11	0.036418978
82	0x3d39bb5b	0.04534469
83	0x3dbed2ca	0.093175486
84	0xbf27403f	-0.65332407
85	0xbccb5b25	-0.024823735
86	0x3c945061	0.018104734
87	0x3d891a3d	0.06694458
88	0x3d270596	0.04077681
89	0xbdd1fa30	-0.102527976
90	0xbe1f6191	-0.15564562
91	0xbe0c0598	-0.13674009
92	0xbe4a3ee6	-0.19750556
93	0x3ef70d05	0.4825212
94	0x3e47081f	0.19436692
95	0xbc59588f	-0.013265743
96	0x3d29d6f2	0.041464753
97	0xbe090d4a	-0.13383976
98	0x3d336231	0.043794814
99	0x3e6efdc5	0.23338993
100	0x3d26bcd0	0.04070741
101	0x3e21bedc	0.15795463
102	0x3ea27696	0.317311
103	0x3d364fc7	0.044509675
104	0x3e44e458	0.19227731
105	0x3e7dc220	0.24781084
106	0x3e66dbaa	0.22544733
107	0xbd7150ed	-0.058915067
108	0xbd9adfad	-0.07562194
109	0xbdf79cad	-0.120904304
110	0xbb8d3acc	-0.0043099876
111	0x3e100cb1	0.14067341
112	0x3d2d46a7	0.042303707
113	0x3e0dd4e6	0.13850746
114	0x3c27321c	0.010204818
115	0x3d9acf4b	0.07559069
116	0xbe776450	-0.2415936
117	0xbf06d64b	-0.52670735
118	0xbcf681d5	-0.030091206
119	0x3ec71cd8	0.38889194
120	0xbe588172	-0.2114313
121	0xbd28be41	-0.041197065
122	0xbdef066c	-0.11671147
123	0xbd050fc8	-0.032485753
124	0x3d21492f	0.039376434
125	0x3d03a413	0.032138895
126	0xbe6e82ff	-0.23292159
127	0xbe5d5b8b	-0.21616952

linear_relu_stack.3.weight f4 [128]
0	0x3f4f4bd6	0.8097509
1	0x3f6098c0	0.8773308
2	0x3fb01f8c	1.3759627
3	0x3fc92c96	1.5716732
4	0x3fabd1ed	1.3423439
5	0x3fd13eed	1.6347328
6	0x3fb6356c	1.4235053
7	0x40080b0a	2.1256738
8	0x3fb7f983	1.437302
9	0x3f65157b	0.894859
10	0x3e16425a	0.14673749
11	0x3fabe250	1.342844
12	0x3f868939	1.0510627
13	0x3fc28217	1.519595
14	0x3ff3db1d	1.9051243
15	0x3f4da44e	0.80328834
16	0x3ff5833c	1.9180675
17	0x3f3bfb5b	0.73430413
18	0x3fbf9b54	1.4969277
19	0x3f825a37	1.0183781
20	0x3fe6ba46	1.8025596
21	0x3ed88aa5	0.42293277
22	0x4018b1c8	2.385851
23	0x3fca91e7	1.5825776
24	0x3fb13a59	1.3845931
25	0x3f86e490	1.0538502
26	0x3f650210	0.8945627
27	0x3ed559dc	0.4167012
28	0x3d5c2557	0.053746548
29	0x3ea1e0d6	0.3161685
30	0x3f659e3f	0.8969459
31	0x3eb03c16	0.34420842
32	0x3f889875	1.0671526
33	0x3f34cf63	0.70628947
34	0x3f885a36	1.065253
35	0x3d9e664d	0.07734356
36	0x3f471dbe	0.7777976
37	0x3fb03109	1.3764964
38	0x3fcfdeca	1.6239865
39	0x3f07b755	0.5301412
40	0x3f730f8e	0.9494561
41	0x3fb89a9f	1.4422187
42	0x3e066d64	0.13127667
43	0x3e240744	0.16018397
44	0x3fb9ecae	1.4525354
45	0x3f6c0a14	0.9220288
46	0x3fd05d80	1.6278534
47	0x3fea4216	1.8301418
48	0x3f81b5e2	1.0133631
49	0x3f284292	0.6572658
50	0x3e57783b	0.21041958
51	0x3da7e142	0.081972614
52	0x3fae629b	1.3623842
53	0x400005b2	2.0003476
54	0x401e6932	2.4751706
55	0x400d390d	2.206607
56	0x3ed0b61d	0.4076394
57	0x3f9ebbac	1.2401023
58	0x3fa0c852	1.2561133
59	0x3e4a0173	0.19727115
60	0x400fadb6	2.2449775
61	0x3f320b5c	0.69548583
62	0x3f0f2e0a	0.55929625
63	0x3f712cbe	0.94208896
64	0x3f9ae1a7	1.2100114
65	0x3fa0deb5	1.2567965
66	0x3fdba67c	1.7160182
67	0x3f978a9f	1.1839179
68	0x3fbe91d8	1.4888258
69	0x3fabcca6	1.3421829
70	0x3fa63c78	1.2987204
71	0x3fe1401d	1.7597691
72	0x3faa5485	1.3307043
73	0x3f88ca8f	1.0686816
74	0x3bfd2f48	0.0077265836
75	0x3fdc25e7	1.7199067
76	0x3e692c39	0.22770776
77	0x3f2c8b35	0.67399913
78	0x3f65a6e1	0.8970776
79	0x3fc3f860	1.5310173
80	0x3f1c183b	0.6097447
81	0x3fe05c41	1.7528154
82	0x3fb21c86	1.3914955
83	0xbcad7a3e	-0.021176454
84	0x3f8f05a8	1.1173601
85	0x4004690d	2.0689118
86	0x3f2e6b38	0.6813235
87	0x3e09824f	0.13428615
88	0x402b7133	2.6787841
89	0x3ee4d0c5	0.4469053
90	0x3fe857a8	1.815175
91	0x3f7ebc3d	0.9950598
92	0x3f13110f	0.57447904
93	0x3fb9dc0f	1.4520282
94	0x3f085202	0.53250134
95	0x3fa196c4	1.2624135
96	0x3f279d89	0.65474755
97	0x3f0964b3	0.5366928
98	0x3ebf444c	0.37356794
99	0x3fb9d7e5	1.4519011
100	0x3f404f10	0.7512064
101	0x3e3851af	0.1799991
102	0x3f6b2bb6	0.9186357
103	0x3f8db052	1.1069434
104	0x3f8df193	1.1089348
105	0x3fd4a232	1.6611998
106	0x3fc08166	1.5039489
107	0x3f195246	0.59891164
108	0x3f8f3ed5	1.119105
109	0x3f910317	1.1329068
110	0x3ee8045b	0.45315823
111	0x3f4cc085	0.7998126
112	0x403adc6c	2.9197035
113	0x4016ab0e	2.3541903
114	0x3f2afa6b	0.6678836
115	0x3ed5d1f8	0.41761756
116	0x3eddd296	0.43324727
117	0x4027f952	2.6245923
118	0x3f85eb89	1.0462505
119	0x3fcbd953	1.5925697
120	0x3f97626c	1.1826911
121	0x3f85c635	1.0451113
122	0x3ec2b82a	0.3803113
123	0x3fd60bde	1.6722372
124	0x3fc7436d	1.5567452
125	0x3f734930	0.9503355
126	0x3facb53d	1.349281
127	0x3e2f8f55	0.1714452

linear_relu_stack.3.bias f4 [128]
0	0xbdaed788	-0.08537203
1	0xbdfb646d	-0.12275014
2	0xbfc9fcbd	-1.5780255
3	0xbf6179fb	-0.8807675
4	0xbf8ceeaa	-1.1010334
5	0xbde23238	-0.11044735
6	0xbf3e1fae	-0.7426709
7	0xbf6e1bc1	-0.930111
8	0xbe5d9a06	-0.21640787
9	0xbe9683bf	-0.2939739
10	0xbf04173d	-0.5159796
11	0xbf8fc5bb	-1.1232218
12	0xbfa04c09	-1.2523204
13	0xbfcbb9bd	-1.5916058
14	0xbf128284	-0.572304
15	0xbf213099	-0.6296478
16	0xbdd1cd30	-0.102442145
17	0xbf786907	-0.9703526
18	0xbff8ea1b	-1.9446443
19	0xbf9ea8cf	-1.2395266
20	0xbec4fa0e	-0.38472027
21	0xbf85b742	-1.0446551
22	0x3e65ab84	0.2242871
23	0xbf4a6d9a	-0.7907349
24	0xbf1bf6ec	-0.6092365
25	0xbf54956c	-0.830405
26	0xbf6146a1	-0.87998396
27	0xbf4c4078	-0.7978587
28	0xbe521f64	-0.20519787
29	0xbf35e387	-0.71050304
30	0xbf3c23e8	-0.7349229
31	0xbf5b6290	-0.8569727
32	0x3ec85899	0.39130095
33	0xbe2a73a0	-0.1664567
34	0xbf1f654d	-0.6226395
35	0xbe86c438	-0.26321578
36	0xbf985bdc	-1.1903033
37	0xbf936a3e	-1.1516798
38	0xbd95ecdb	-0.07320567
39	0xbf1f20ee	-0.6215962
40	0x3e94d0f9	0.29065683
41	0xbe802ba9	-0.2503331
42	0xbf878e43	-1.059029
43	0xbf5d2213	-0.8638012
44	0xbf34668f	-0.7046899
45	0xbfc302cc	-1.5235229
46	0xbf82b7a7	-1.0212296
47	0xbebdf1b2	-0.3709846
48	0xbfad97f2	-1.3561995
49	0xbeea1810	-0.45721483
50	0xbf80004a	-1.0000088
51	0xbea8740d	-0.3290104
52	0xbefcfbf6	-0.4941098
53	0xbec35bab	-0.38155875
54	0xbfb3c631	-1.4044858
55	0xbc098699	-0.008393907
56	0xbf531f7e	-0.8246993
57	0xbe374592	-0.17897633
58	0xbf607c41	-0.87689596
59	0xbf49ea30	-0.78872967
60	0xbdc0c352	-0.094122544
61	0xbfb919d7	-1.4461011
62	0xbecddaec	-0.40206087
63	0xbf507959	-0.8143516
64	0xbf81f07a	-1.0151513
65	0xbf38110d	-0.7190102
66	0xbf5434c0	-0.8289299
67	0xbf8087ae	-1.0041406
68	0xbf17ee20	-0.59347725
69	0xbf6f3d9f	-0.934534
70	0xbf31153b	-0.6917302
71	0xbf73eb2c	-0.9528072
72	0xbf18189a	-0.5941254
73	0xba9367c8	-0.0011246139
74	0xbed55d9b	-0.41672978
75	0xbfb7462d	-1.4318291
76	0xbddf2a87	-0.10896783
77	0xbf20ea91	-0.6285792
78	0xbfa2150f	-1.2662677
79	0xbf193c52	-0.59857666
80	0xbe58bf50	-0.2116673
81	0xbe7d8eb8	-0.24761474
82	0xbf04e6c7	-0.5191464
83	0xbf41dca0	-0.7572727
84	0xbf8fbae8	-1.1228914
85	0x3e1f3f77	0.15551554
86	0xbf916120	-1.1357765
87	0xbf35f191	-0.71071726
88	0xbe7c63c9	-0.2464744
89	0xbf8f236c	-1.1182685
90	0xbf00b2a7	-0.502726
91	0xbf2b8977	-0.6700663
92	0xbf8154a8	-1.010396
93	0xbf5b532e	-0.856738
94	0xbf0a063e	-0.53915775
95	0xbf6a8752	-0.9161273
96	0xbf614f21	-0.88011366
97	0xbe75e88a	-0.24014488
98	0xbea6e965	-0.3259994
99	0xbf9e1641	-1.2350541
100	0xbf138517	-0.57624954
101	0xbf4164a0	-0.75544167
102	0xbeae8302	-0.34084326
103	0xbf655b25	-0.895922
104	0xbfd86a1f	-1.6907386
105	0xbf8ed0e2	-1.1157496
106	0x3d9a0e97	0.07522314
107	0xbf62a4fb	-0.8853299
108	0xbec7c7c1	-0.39019588
109	0xbf0f5b47	-0.55998653
110	0xbf5a693d	-0.8531683
111	0xbeff9624	-0.49919236
112	0xbf899f97	-1.0751828
113	0xbea02bd9	-0.31283453
114	0xbf8171ac	-1.0112815
115	0xbf558fc1	-0.83422476
116	0xbf9bf66f	-1.218458
117	0xbf71ea30	-0.94497967
118	0xbf47adbc	-0.7799947
119	0xbf036687	-0.5132832
120	0xbf6fb8d0	-0.93641376
121	0xbeed86fd	-0.4639205
122	0xbf082362	-0.5317899
123	0xbfbba5fe	-1.4660032
124	0xbf78448d	-0.969796
125	0xbf0927dd	-0.5357645
126	0xbed358e9	-0.4127877
127	0xbef2aacf	-0.47395942

linear_relu_stack.3.running_mean f4 [128]
0	0x3ed82ddb	0.42222485
1	0xbfdc8021	-1.7226602
2	0x3f5a5920	0.85292244
3	0x3f71435d	0.94243413
4	0x3e78d098	0.24298322
5	0xbfea5678	-1.8307638
6	0x3f81b8ac	1.0134482
7	0xbef49d31	-0.47776178
8	0xbf47a55e	-0.77986705
9	0x3ddab145	0.10678343
10	0x3f4d6016	0.8022474
11	0x3f3481a9	0.70510346
12	0x3eecac9b	0.46225438
13	0x3fd0ea34	1.6321473
14	0x3f15176d	0.5823887
15	0xbf55a1e6	-0.8345016
16	0xbf9a86a1	-1.2072335
17	0x3f28ff78	0.66014814
18	0x3db2b465	0.08725814
19	0x4082f30e	4.09217
20	0xbffe40d6	-1.9863536
21	0x401397e5	2.306146
22	0x3e4fb09f	0.2028222
23	0x3fa67981	1.300583
24	0x3fcaf801	1.5856935
25	0xc05a7596	-3.4134269
26	0xbe82d037	-0.2554948
27	0xbfbd2824	-1.4777875
28	0xbf0a128f	-0.5393457
29	0xc0398d8f	-2.899265
30	0x3d0e949f	0.034809705
31	0x3f164a9e	0.58707607
32	0xc080f1d7	-4.0295215
33	0xbec2fd6c	-0.3808397
34	0xc02436d3	-2.5658462
35	0xc01fea64	-2.498681
36	0xc0015900	-2.0210571
37	0x4031fa1d	2.7808907
38	0xc04dfc59	-3.218527
39	0x408d04d1	4.406838
40	0xbf6dd7e1	-0.9290753
41	0x3f4bb65a	0.7957512
42	0xbd87724f	-0.066135995
43	0x3e2cf03a	0.16888514
44	0xbf777ee2	-0.9667798
45	0x3f307f06	0.6894382
46	0xbf88fcdb	-1.0702165
47	0x403eabd5	2.9792378
48	0x3fe6cdd1	1.803156
49	0xbe6603be	-0.22462365
50	0xbfeb5db4	-1.8387971
51	0xbfa8f7cf	-1.3200625
52	0xc005de84	-2.0917063
53	0xbeb1488a	-0.34625655
54	0xbf0165ff	-0.5054626
55	0xbfb270cf	-1.3940676
56	0x3fa466f5	1.284392
57	0x3f93cfef	1.1547831
58	0xc00594b2	-2.0872006
59	0x403c8710	2.9457436
60	0xbffe6f5f	-1.9877738
61	0xbd267140	-0.040635347
62	0xbf77003c	-0.9648473
63	0xbfa38a70	-1.2776623
64	0x3fafe1ae	1.3740747
65	0x3f554124	0.8330252
66	0x3eeca251	0.46217588
67	0xc0531387	-3.2980669
68	0xbf1c8a31	-0.61148363
69	0xbf33ed35	-0.70283824
70	0x3f4f6ca6	0.8102516
71	0x3f8fdb19	1.1238738
72	0x3f2691a1	0.6506596
73	0x404b7963	3.1792839
74	0x3f65689e	0.8961276
75	0xbfc372bc	-1.5269389
76	0xc00001f8	-2.0001202
77	0x400e4633	2.2230346
78	0xbf368c9e	-0.71308315
79	0x3fc9a709	1.57541
80	0xc00770d2	-2.116261
81	0xc012bc81	-2.2927554
82	0x3f8eb986	1.1150367
83	0x3e23d4e9	0.15999188
84	0xc022ba18	-2.5426083
85	0xbf40375b	-0.75084466
86	0x3e3fafd5	0.18719418
87	0x3ed7b1b4	0.42127764
88	0xc0704e77	-3.754789
89	0xc01b58c7	-2.4272935
90	0x3f00a0ca	0.50245345
91	0x3f2d8d5a	0.6779381
92	0x4038302d	2.8779404
93	0xbeb07d7c	-0.34470737
94	0xc009626c	-2.1466322
95	0x40257e44	2.5858316
96	0xbfa591a0	-1.2935066
97	0xc045709d	-3.0849984
98	0xbf53fff7	-0.82812446
99	0x3d9504da	0.07276316
100	0xbff959ee	-1.9480569
101	0xbea6798e	-0.32514614
102	0x3ec1d1f4	0.37855494
103	0x3e1816f5	0.14852507
104	0xbf5dc53c	-0.8662908
105	0x3ef309ed	0.4746851
106	0x3e10cb23	0.1413999
107	0x3e9f273a	0.31084615
108	0x3f95d25e	1.1704824
109	0xbfa66c9e	-1.3001897
110	0xbfc8f20a	-1.5698864
111	0xbe7029b6	-0.23453411
112	0x3fd81561	1.6881524
113	0x3fc96816	1.573489
114	0x3ecadb4a	0.3962043
115	0x3f5df694	0.86704373
116	0xbfcc546c	-1.5963264
117	0xc02c47cc	-2.6918821
118	0x3f4249df	0.7589397
119	0x3e7559d7	0.23960052
120	0xc044da6f	-3.0758321
121	0xbf700af3	-0.9376671
122	0xc034c4ac	-2.824504
123	0x3f805527	1.0025986
124	0x3f4cfed7	0.80076355
125	0x3e70bcb6	0.23509488
126	0xbe20d21d	-0.15705152
127	0x3f84b600	1.0368042

linear_relu_stack.3.running_var f4 [128]
0	0x3ff32375	1.8995196
1	0x3f27ef25	0.6559928
2	0x402e2987	2.7212846
3	0x3ffa11f3	1.9536728
4	0x3faf4b80	1.3694916
5	0x3f93e019	1.1552764
6	0x3f82ad04	1.020905
7	0x3fe9c22c	1.8262382
8	0x3fc590c6	1.5434806
9	0x3f49215e	0.7856654
10	0x3f4f5691	0.80991465
11	0x3f822fbb	1.0170816
12	0x3f6ba267	0.9204468
13	0x3f2891f8	0.6584773
14	0x3faaa42a	1.3331349
15	0x3fbd96f5	1.4811693
16	0x3f3ac4f4	0.72956777
17	0x3f86499c	1.0491214
18	0x3f54039e	0.8281802
19	0x3f52c3e5	0.8233016
20	0x3f33e303	0.7026827
21	0x3fd5fefd	1.6718441
22	0x3fd00eb6	1.625449
23	0x3ff36faf	1.9018458
24	0x3ede2b33	0.43392333
25	0x3f6aad8d	0.9167107
26	0x3f2a5fc8	0.665524
27	0x3f3a600c	0.72802806
28	0x3e89bb56	0.26900738
29	0x3f38cf7f	0.72191614
30	0x4008525f	2.1300275
31	0x3f5dcb69	0.86638504
32	0x3f9d549f	1.2291449
33	0x3f9e397e	1.2361295
34	0x3f2acb23	0.6671621
35	0x3f31c65c	0.694433
36	0x3f8c6d1e	1.09708
37	0x3ed8b3e7	0.42324755
38	0x3f5ca54d	0.8618973
39	0x3f9bfb12	1.2185996
40	0x3ff4fa5c	1.9138904
41	0x3fd3b27e	1.6538846
42	0x3e1b75c5	0.15181644
43	0x3ea28488	0.31741738
44	0x3f89b925	1.0759627
45	0x3ea29b30	0.31759024
46	0x3fc78a13	1.5589012
47	0x3fbe7625	1.4879805
48	0x3f65dd2c	0.89790606
49	0x3fa350d4	1.2759042
50	0x3ed58f4e	0.41710895
51	0x3ec78aeb	0.38973173
52	0x3f82abd8	1.0208693
53	0x4037b292	2.870274
54	0x3f4bd84a	0.79626906
55	0x3f3987f5	0.7247308
56	0x409c61d4	4.886942
57	0x3fdedb76	1.7410724
58	0x3f723aea	0.94621146
59	0x400e7d7e	2.2264094
60	0x3fba6224	1.45612
61	0x3f971b72	1.1805251
62	0x3f94bd66	1.16203
63	0x3edb2fcb	0.428099
64	0x3f266391	0.64995676
65	0x4057df1e	3.372993
66	0x3f96fddf	1.1796225
67	0x3fc30ac4	1.523766
68	0x3f87e884	1.0617833
69	0x3efd0803	0.49420175
70	0x3feb3df9	1.8378288
71	0x3f5f8987	0.87319225
72	0x3fa6ced2	1.3031867
73	0x404144cf	3.0198247
74	0x3f2f93de	0.68585
75	0x4000403f	2.0039213
76	0x4009c2a9	2.152506
77	0x3edaa308	0.42702508
78	0x3f2f1a26	0.68399274
79	0x3fa7b733	1.3102783
80	0x3f291c14	0.6605847
81	0x3fc25a6c	1.5183845
82	0x406d8be5	3.7116635
83	0x3decaa15	0.11555878
84	0x3ff92837	1.9465398
85	0x3ff6ffa8	1.929677
86	0x3f364f6f	0.71214956
87	0x3fca46ef	1.5802897
88	0x3fa7dc1c	1.3114047
89	0x3f4e3f58	0.80565405
90	0x403473a8	2.819559
91	0x3f46d41e	0.77667415
92	0x3fb58f88	1.4184427
93	0x3f022cd8	0.50849676
94	0x3fc6112b	1.5473989
95	0x3fc69abb	1.551597
96	0x3fb1b739	1.388404
97	0x4027714f	2.6162908
98	0x400d22cb	2.2052486
99	0x3f0794a0	0.5296116
100	0x3f82cec4	1.021935
101	0x3ef62df2	0.48081928
102	0x3ff7341d	1.9312779
103	0x404a551a	3.1614442
104	0x3f053e33	0.52048033
105	0x3f334ed2	0.70042145
106	0x3feebe8c	1.86519
107	0x3ee711e2	0.4513083
108	0x3fdda67a	1.731643
109	0x3fa311f4	1.2739854
110	0x3f9f927e	1.2466581
111	0x3fb7ef14	1.4369836
112	0x3f96d4e1	1.1783715
113	0x3f469294	0.7756741
114	0x3f3d8c52	0.74042237
115	0x3fa06edc	1.2533832
116	0x3f46d0e3	0.77662486
117	0x3f7d250c	0.98884654
118	0x40234f93	2.5517318
119	0x3f738d59	0.95137554
120	0x3f819971	1.0124952
121	0x3f3efde0	0.7460613
122	0x3f27582a	0.653689
123	0x3fa5fc72	1.2967665
124	0x401573bf	2.3351896
125	0x3f7c39ae	0.9852551
126	0x3febf9eb	1.8435644
127	0x3fb5dcb2	1.4207976

linear_relu_stack.5.weight f4 [256, 128]
0	0x3ec9296c	0.39289415
1	0x3e289420	0.16462755
2	0x3f63d327	0.8899407
3	0x3edec241	0.4350758
4	0xbe3bebd7	-0.18351685
5	0xbf485a5f	-0.78262895
6	0x3ddc53e0	0.107581854
7	0xbfe48ef6	-1.7856128
8	0xbf3b5afb	-0.731857
9	0x3ed5304f	0.4163842
10	0xbe09dadf	-0.13462399
11	0x3e4bb976	0.19894966
12	0xbf24257c	-0.64119697
13	0xbdcf989a	-0.10136528
14	0x3fb7a2e9	1.4346591
15	0x3ea0bf08	0.31395745
16	0xc0154ae8	-2.332697
17	0xbf3b5ebc	-0.7319143
18	0xbf43a935	-0.76430064
19	0x3e201a0d	0.15634938
20	0xbfb24e87	-1.3930215
21	0xbe15b3bd	-0.14619346
22	0x3e92fde4	0.28709328
23	0xbef11d38	-0.47092605
24	0xbe69d845	-0.22836407
25	0x3f191f9d	0.59813863
26	0x3f01b4c4	0.5066645
27	0x3e395400	0.1809845
28	0x3e1ff0a5	0.15619142
29	0x3eb0e78d	0.3455166
30	0xbfe692e2	-1.8013575
31	0xbe3f5865	-0.18686064
32	0x3e608d92	0.21929005
33	0x3ec10e91	0.37706426
34	0x3df73560	0.12070727
35	0xbc489155	-0.012241681
36	0x3eb8dd07	0.3610613
37	0xbf0adf98	-0.54247427
38	0xbf4bd614	-0.7962353
39	0xbc112593	-0.008859056
40	0xc00b7757	-2.179159
41	0xbf108362	-0.56450474
42	0xbea364cd	-0.31912842
43	0xbcd42ba8	-0.025899723
44	0x3e8f48e3	0.27985296
45	0x3c3d6258	0.0115590915
46	0x3f6480d0	0.8925905
47	0x3efdd86b	0.49579176
48	0xbf2bd9fb	-0.67129487
49	0xbf051f0d	-0.52000505
50	0x3e744538	0.2385453
51	0xbc8fc3db	-0.017549446
52	0x3f03d5f3	0.51498336
53	0xc0025878	-2.0366497
54	0xc00f8580	-2.2425232
55	0x3f0f8d04	0.5607455
56	0x3ef67269	0.48134163
57	0xbd4f8784	-0.050666347
58	0xbee9c42f	-0.4565749
59	0x3e4586b5	0.19289668
60	0xbe9103b9	-0.28323153
61	0x3ecf0193	0.4043089
62	0xbf672ea5	-0.9030555
63	0xbe653619	-0.22383918
64	0xbf328911	-0.69740397
65	0xbf7eb998	-0.99501944
66	0x3f2acfed	0.6672352
67	0x3df89c32	0.12139167
68	0xbeea8718	-0.45806193
69	0xbc93ef18	-0.018058345
70	0x3eb0d3a5	0.34536472
71	0xbf047207	-0.5173649
72	0x3eadf8f5	0.33979002
73	0x3e9eaf4f	0.30993125
74	0x3dd1d8c4	0.10246423
75	0xbeb50a81	-0.35359576
76	0x3d899cb9	0.067193456
77	0x3ea4331b	0.3207024
78	0xbff876d4	-1.9411263
79	0xc069247a	-3.6428514
80	0x3ddbcdc2	0.107326046
81	0xbf105a9d	-0.56388265
82	0xbec09f9f	-0.3762178
83	0x3d9e0573	0.07715883
84	0xbf50471c	-0.81358504
85	0xbfb3a5e9	-1.4035007
86	0x3ec09e78	0.37620902
87	0x3d85228f	0.06500732
88	0xbe4e68b7	-0.20157133
89	0xbdc08ebf	-0.09402227
90	0xbfd8a033	-1.6923889
91	0x3e72e3ad	0.23719664
92	0xbf3d69f1	-0.7398978
93	0xbf84eefa	-1.038543
94	0xbcd0a42a	-0.025468905
95	0xbe5797e8	-0.21054041
96	0xbec5e6f9	-0.3865278
97	0xbed5e63d	-0.4177722
98	0xbf00ed08	-0.5036168
99	0xbc5b05d0	-0.013368085
100	0x3ec69883	0.38788232
101	0x3e147efc	0.14501566
102	0x3ed3cebe	0.4136867
103	0x3ea5e3c7	0.32400343
104	0xbecd0fda	-0.40051156
105	0xbf317bc1	-0.6932946
106	0xbf248ac7	-0.6427426
107	0x3c58a2f0	0.013222441
108	0xbde8fe4d	-0.11376629
109	0x3e71e02d	0.23620673
110	0xbde8ba33	-0.1136364
111	0x3f224177	0.6338114
112	0x3f856900	1.0422668
113	0x3d864cb6	0.065576
114	0x3f031f8d	0.5122002
115	0xbf0e8b58	-0.5568137
116	0x3f520dc3	0.8205225
117	0xbfa9af23	-1.3256572
118	0x3eb30c06	0.3497011
119	0xbf910a83	-1.1331333
120	0x3e8bb8f9	0.2728956
121	0xbf320f9c	-0.6955507
122	0xbead20b8	-0.33814025
123	0x3e2a74cc	0.16646117
124	0x3e602c4d	0.218919
125	0x3f8e4938	1.1116095
126	0x3ece4b8d	0.40292016
127	0x3eccd34c	0.40004957
128	0x3d7df715	0.062003214
129	0x3f3a681a	0.72815096
130	0xbe80d433	-0.25161895
131	0x3d84bcee	0.06481348
132	0x3eef37b2	0.4672218
133	0xbf6222e4	-0.8833449
134	0xbf04a323	-0.51811427
135	0xbe2f27ce	-0.17105028
136	0x3ea2c282	0.31789023
137	0xbf0d0832	-0.5509063
138	0xbe12a4b8	-0.14320648
139	0xbe6a86ef	-0.22903036
140	0xbe6c981b	-0.23104899
141	0xbf2829e9	-0.6568895
142	0xbf5eb529	-0.8699518
143	0xbe88d128	-0.26722074
144	0xbeff9983	-0.49921808
145	0xbea2742a	-0.3172925
146	0xbe6aeb69	-0.22941364
147	0x3f0466e9	0.5171953
148	0xbfa5cbf6	-1.2952869
149	0xbeda56ac	-0.4264425
150	0x3eb2797e	0.34858316
151	0xbd63fb2b	-0.055659454
152	0x3fa1a7c9	1.2629329
153	0xbf89d663	-1.0768551
154	0x3da6dd86	0.08147721
155	0xbe837ae5	-0.256797
156	0x3ef941a3	0.4868289
157	0x3f634def	0.8879079
158	0xbedfa350	-0.43679285
159	0xbc84eb35	-0.016225437
160	0xbe71d2d5	-0.23615582
161	0x3fbe6fe6	1.4877899
162	0xbed91d57	-0.42405197
163	0x3e73ec64	0.23820645
164	0xbea080c5	-0.31348243
165	0xbf5757a9	-0.84118134
166	0x3f03c1b8	0.51467466
167	0x3e9ac1d1	0.30225995
168	0x3db5b55d	0.08872483
169	0x3d65fee8	0.0561513
170	0x3c3b689e	0.011438517
171	0x3f0fcc00	0.56170654
172	0xbefc0d52	-0.49228913
173	0x4026c2a4	2.60563
174	0x3e07c458	0.13258493
175	0x3d2653f3	0.040607404
176	0x3f4f08b6	0.80872667
177	0xbd62250e	-0.05521112
178	0xbe6827d2	-0.2267144
179	0x3d62b2f6	0.05534645
180	0xbf338986	-0.7013172
181	0xbed9be6b	-0.4252809
182	0x3d99d6bf	0.07511663
183	0xbe3a5671	-0.18197037
184	0x3e71ca27	0.23612271
185	0x3f097987	0.5370106
186	0xbf483a94	-0.78214383
187	0x3e022e5c	0.12712997
188	0x3f3bc7ae	0.7335156
189	0x3e35b68c	0.17745417
190	0xbeb7edc1	-0.3592358
191	0x3f95fd11	1.1717855
192	0x3f243f31	0.6415892
193	0xbe3c7595	-0.18404229
194	0x3f390ca5	0.7228492
195	0xbf121834	-0.5706818
196	0xbf8afaad	-1.085775
197	0x3f39b09a	0.725351
198	0xbf049f5d	-0.5180567
199	0xbec54d6f	-0.3853564
200	0x3d542b90	0.051799357
201	0x3f4bc162	0.79591954
202	0xbe1627de	-0.14663646
203	0x3e730341	0.2373171
204	0x3e56ad83	0.20964627
205	0x3d9fb0da	0.07797404
206	0xbef81656	-0.4845454
207	0xbe68eac3	-0.22745804
208	0x3f019e9f	0.5063266
209	0x3f116343	0.56792086
210	0xbfa5fcde	-1.2967794
211	0x3dec2d85	0.1153212
212	0xbe8e3112	-0.27771813
213	0xbeb60510	-0.35550737
214	0x3ed6328f	0.41835448
215	0xbdf0d6f4	-0.11759749
216	0x3e3610ce	0.17779848
217	0xbd99e089	-0.0751353
218	0xbf778ed6	-0.96702325
219	0x3fc15f3e	1.5107191
220	0x3ce6c5dd	0.02817052
221	0x3e335175	0.17511542
222	0xbed942cd	-0.42433777
223	0xbd34529e	-0.044024102
224	0xbdf49ef0	-0.119443774
225	0x3e8daaa0	0.2766924
226	0x3e4ce644	0.20009714
227	0xbe0fc186	-0.14038667
228	0x3d196e08	0.03745845
229	0x3f1ebc50	0.6200609
230	0x3ef43e35	0.4770371
231	0x3ed69a0f	0.41914412
232	0xbf261767	-0.6487946
233	0x3e8fb3cf	0.2806687
234	0xbdb17731	-0.08665312
235	0xbdda0eb9	-0.106473394
236	0xbed06a10	-0.4070592
237	0xbf039a6a	-0.5140749
238	0xbda4f65e	-0.08054803
239	0xbe82477f	-0.25445172
240	0x3d97767c	0.07395646
241	0x3ff6b7a2	1.927479
242	0x3ea721d3	0.32642993
243	0xbe8c3c66	-0.2738983
244	0x3e9bbf88	0.30419564
245	0x3ce05792	0.027385507
246	0x3ec90911	0.3926473
247	0x3da7be3f	0.081905834
248	0x3e5ff5ce	0.21871111
249	0xbf60cc31	-0.8781157
250	0x3d5f5816	0.054527365
251	0xbe86b75a	-0.2631176
252	0xbfba3471	-1.4547254
253	0xbe21a111	-0.15784098
254	0xbf1526b0	-0.5826216
255	0x3ea58f00	0.32335663

linear_relu_stack.5.bias f4 [256]
0	0xbda543d9	-0.080695815
1	0xbc625d8a	-0.013816247
2	0x3d89775e	0.067122206
3	0xbcd11168	-0.025520995
4	0xbda8fc86	-0.0825129
5	0xbb96280b	-0.00458241
6	0x3cb8cd47	0.022558821
7	0x3da4b852	0.08042969
8	0x3d3d2cbe	0.046185248
9	0x3d30ab12	0.043131895
10	0xbd1042ea	-0.035220064
11	0x3d913c09	0.07091529
12	0xbda86590	-0.082224965
13	0xbc592d46	-0.013255423
14	0x3d3f6544	0.046727434
15	0xbcedd8ed	-0.029034102
16	0xbc2a6b66	-0.010401582
17	0xbd00cf18	-0.0314475
18	0xbd2bac15	-0.041912157
19	0xbd703dd4	-0.058652714
20	0x3b9e11c5	0.0048238956
21	0xbda71a65	-0.08159331
22	0x3d47c48c	0.048771426
23	0x3c4d289b	0.012521888
24	0x3be88800	0.0070962906
25	0x3d4105e0	0.047124743
26	0xbd7468d9	-0.059670303
27	0xbd6142dc	-0.054995403
28	0x3d91b03b	0.071136914
29	0x3cb4857c	0.022036307
30	0x3d876849	0.06611688
31	0x3d581696	0.052755915
32	0xbd585ba9	-0.05282179
33	0xbda19c06	-0.07891087
34	0xbc969c97	-0.018385215
35	0xbbb0ac7f	-0.005391657
36	0x3ddc8fd1	0.10769618
37	0x3d6c134a	0.057635583
38	0xbb768828	-0.0037617777
39	0x3d5f3f74	0.054503873
40	0x3d965d95	0.07342068
41	0x3d097710	0.033560812
42	0x3d9d5bae	0.07683502
43	0xbd935c71	-0.07195366
44	0x3d62158d	0.055196334
45	0x3db12af8	0.08650774
46	0x3d3797a0	0.044822335
47	0x3ca7a4f1	0.020464392
48	0x3ce324b7	0.027727468
49	0x3d402585	0.04691078
50	0xbdd90a06	-0.10597615
51	0xbdb8e0bc	-0.0902724
52	0x3d7a9a94	0.061182573
53	0x3ca5af75	0.020225266
54	0xbd813ef5	-0.06310836
55	0xbd6e452e	-0.058171444
56	0x3ceec595	0.029146949
57	0xbc5011de	-0.012699572
58	0x3d32bfce	0.04363995
59	0xbd5d47a1	-0.05402339
60	0xbd88fd29	-0.066889115
61	0xbd8bfa18	-0.06834811
62	0xbd8f7865	-0.07005385
63	0x3cb6971e	0.022288855
64	0x3dafc624	0.08582714
65	0x3d21f1e2	0.039537318
66	0xbdba66b8	-0.09101623
67	0xbd908b54	-0.07057825
68	0x3cb9c164	0.022675224
69	0x3c337b07	0.010954625
70	0xbc2edb18	-0.010672353
71	0x3b8bae49	0.00426272
72	0x3b43ea3c	0.0029894253
73	0x3d61eed5	0.05515941
74	0xbd27ddcb	-0.040983003
75	0x3d5a0789	0.053229842
76	0x3ce46375	0.027879456
77	0x3c8084dd	0.015688354
78	0xbd7335f7	-0.059377637
79	0x3d87bbbd	0.06627605
80	0x3d80722c	0.062717766
81	0x3cd808b7	0.026371343
82	0xbcaa6848	-0.020801678
83	0xbce7afd0	-0.028282076
84	0xbc4893ab	-0.012242238
85	0x3d09c057	0.033630695
86	0xbd59bd16	-0.053158842
87	0xbc22416c	-0.009903293
88	0xbc238d08	-0.009982355
89	0xbd3a1422	-0.045429356
90	0x3d9806ac	0.074231476
91	0xbd26c7c4	-0.040717855
92	0x3d72a5eb	0.059240263
93	0xbd110dd1	-0.035413567
94	0xbd6ce554	-0.05783589
95	0xbd1644a3	-0.03668655
96	0x3a2faa62	0.0006701109
97	0x3ca93f1e	0.02065998
98	0x3c65e87e	0.014032481
99	0x3cc89a94	0.024487771
100	0x3b92fb0d	0.004485494
101	0xbd597abb	-0.05309556
102	0x3d9c6eac	0.076382965
103	0xbd6430b7	-0.05571052
104	0xbd4b1413	-0.04957969
105	0xbd8407e4	-0.064468175
106	0x3dac04d3	0.08399358
107	0x3c33896d	0.010958058
108	0xbd1b8dc7	-0.037977006
109	0x3c08092a	0.008302966
110	0x3dabd342	0.083899036
111	0x3d15f179	0.03660724
112	0x3c7d4836	0.015459111
113	0x3d083ef0	0.033263147
114	0x3d80ee30	0.06295431
115	0x3cd50c3f	0.026006816
116	0x3dab82f7	0.08374589
117	0xbd9360bb	-0.07196184
118	0xbd77aba6	-0.06046643
119	0x3d5a1013	0.053237986
120	0x3c8e5d93	0.017378604
121	0xbcb16e26	-0.021658968
122	0x3ca5efc5	0.020255933
123	0xbc8eab6d	-0.017415727
124	0x3c82e422	0.015977923
125	0xbdc387f0	-0.095474124
126	0x3d1c63c7	0.038181093
127	0x3d270c78	0.040783376
128	0x3db75960	0.08952594
129	0xbd4d490d	-0.050118495
130	0xbcac0bf1	-0.021001788
131	0x3c1c9205	0.009556298
132	0xbdb1746f	-0.08664786
133	0x3d7ab4fa	0.06120775
134	0xbd8b3f2b	-0.06799158
135	0x3ce80122	0.028320853
136	0xbd9e6115	-0.07733361
137	0x3d71a5c0	0.058995962
138	0xbd503ce6	-0.050839327
139	0x3dbeb62d	0.09312091
140	0x3caeda5b	0.021344354
141	0x3dcd4606	0.100231215
142	0xbcaaa648	-0.020831242
143	0x3d8c1296	0.068394825
144	0x3c2fcc8d	0.010729921
145	0x3d6df44f	0.05809432
146	0xbc4eb06c	-0.012615304
147	0x3c0386aa	0.008027712
148	0x3d4f6484	0.05063297
149	0xbd646dc8	-0.055768758
150	0xbc87ca79	-0.016576039
151	0x3d8966a3	0.067090295
152	0xbd96eb19	-0.0736906
153	0x3d0d7a68	0.034540564
154	0xbd517bb6	-0.05114337
155	0x3d2d54d3	0.042317223
156	0x3ce3823c	0.027772062
157	0xbd86f11c	-0.06588957
158	0x38277a4f	3.992981e-05
159	0xbd021dce	-0.031766705
160	0x3d9fb5d9	0.077983566
161	0x3c529da5	0.012854968
162	0x3d612265	0.05496444
163	0x3d945232	0.0724224
164	0xbd01ca2c	-0.031686947
165	0xbd9c163f	-0.076214306
166	0xbd0a3772	-0.033744283
167	0x3ac546f2	0.001505105
168	0x3ca9f377	0.020745976
169	0xbdb5e5ed	-0.088817455
170	0x3dc309e1	0.095233686
171	0xbd6212c6	-0.055193685
172	0x3d415305	0.047198314
173	0x3c878d77	0.016546948
174	0xbda942b3	-0.08264675
175	0xbd78edac	-0.060773537
176	0xbd92fe63	-0.07177427
177	0x3dda850f	0.1066991
178	0x3c082a89	0.008310922
179	0xbcc0d1ec	-0.023537599
180	0xbd1eef9e	-0.038802736
181	0x3d34037e	0.043948643
182	0xbccf8c5a	-0.02533548
183	0x3df519a1	0.11967779
184	0xbd524483	-0.05133487
185	0xbce3e21d	-0.02781778
186	0xbd80e0bf	-0.06292867
187	0x3c26d47f	0.010182499
188	0xbd7ff1d8	-0.0624865
189	0x3d588dca	0.052869596
190	0x3cac8b4f	0.021062521
191	0x3da0b905	0.0784779
192	0x3cdf78e5	0.027279327
193	0xbd942650	-0.0723387
194	0x3d0c6f2d	0.034285713
195	0x3cd730fd	0.026268477
196	0xbc6e4fc1	-0.014545382
197	0xbd6c73ad	-0.057727505
198	0xbd77ef43	-0.060530912
199	0x3cb0b91a	0.021572638
200	0x3da3a98d	0.079913236
201	0x39e1017d	0.00042916453
202	0x3dc04166	0.09387474
203	0x3c85b026	0.016319346
204	0x3d261992	0.04055173
205	0x3d0321d3	0.03201468
206	0x3b1ae9b6	0.0023637838
207	0x3c90d91a	0.017681647
208	0x3d44758b	0.04796366
209	0x3c48eb8d	0.012263191
210	0x3da832de	0.08212827
211	0xbcc8eaee	-0.024526086
212	0x3d051417	0.032489862
213	0xbd9cadb1	-0.076503165
214	0x3cf11774	0.029430129
215	0xbd48a69d	-0.04898702
216	0xbd6478bc	-0.055779204
217	0xbd18b0e6	-0.03727808
218	0xbc5b9955	-0.013403256
219	0x3caea7a4	0.021320172
220	0x3d75fcf4	0.060055688
221	0x3d33731d	0.043810952
222	0x3d903345	0.07041029
223	0x3d95d85c	0.07316658
224	0x3da9d389	0.082923
225	0x3d42c5e5	0.04755201
226	0xbd771924	-0.06032671
227	0xbd11f7fc	-0.035636887
228	0xbc85d8fd	-0.01633882
229	0x3c9c8f68	0.01911135
230	0xbd779aa4	-0.06045021
231	0xbdb999bd	-0.090625264
232	0x3d957a0f	0.072986715
233	0x3bcdc481	0.0062795286
234	0x3bbcd027	0.0057621184
235	0x3da67a88	0.0812884
236	0x3dbeb2a0	0.09311414
237	0xbcc536e0	-0.024074018
238	0xbd554746	-0.052069925
239	0xbcd3ddc9	-0.025862591
240	0x3d0257cd	0.031822015
241	0xbd3627c9	-0.044471536
242	0xbcf01cf9	-0.02931069
243	0xbd5182cc	-0.05115013
244	0xbbdd5969	-0.0067550433
245	0x3b2dae55	0.0026501615
246	0x3b2ad65b	0.0026067707
247	0x3ab26444	0.0013610204
248	0x3d6a3cc5	0.05718686
249	0xbd9c18b7	-0.076219015
250	0x3d95dcb7	0.07317489
251	0x3bd5f4af	0.0065294127
252	0x3bbfc08b	0.0058518103
253	0xbcf94352	-0.030427609
254	0x3c4de9fc	0.012567993
255	0x3caf96bf	0.021434186
