amostras/resultados/discrimation-flow-dataset/5/fgsm/PyTorchClassifier.model (torch, 206184 bytes, 22 tensors)

linear_relu_stack.0.weight f4 [64, 20]
0	0xbd988e6a	-0.07449038
1	0xbf125e80	-0.57175446
2	0x3e3c8d0c	0.1841318
3	0xbece3a2d	-0.4027876
4	0x3e029ec2	0.12755874
5	0x3e916f91	0.2840543
6	0x4008b4fc	2.1360464
7	0xc10f74c5	-8.966008
8	0xc09b7878	-4.8584557
9	0x3e92f03a	0.28698903
10	0x3ef88de8	0.48545766
11	0x3fc2380b	1.5173353
12	0xc0243a41	-2.5660555
13	0x3e225153	0.15851335
14	0xbf2def16	-0.6794294
15	0x3e9ed5b4	0.31022418
16	0x3fa7f646	1.3122032
17	0xc01403c6	-2.3127303
18	0x3e3c4d59	0.18388881
19	0xbf03bf3e	-0.5146369
20	0x3ecb40a8	0.39697766
21	0xbe711f03	-0.23546986
22	0xbf0f0703	-0.55870074
23	0x3f0442e5	0.5166457
24	0xbd915dd4	-0.070979744
25	0xbf7ee893	-0.9957363
26	0xbfae4d28	-1.3617296
27	0x3fea9d95	1.832934
28	0xbeab9ac2	-0.33516508
29	0x3f1bcab6	0.6085619
30	0x3cb7ca8d	0.02243545
31	0xbf42e8fe	-0.7613677
32	0x3ea4f3ee	0.32217354
33	0xc012b4b9	-2.2922804
34	0xbe5d0598	-0.21584165
35	0xbd878713	-0.0661756
36	0xbf37d378	-0.7180705
37	0x3de8608f	0.11346542
38	0xc019be7d	-2.4022515
39	0xbe018b01	-0.12650682
40	0x3f144d3a	0.5793034
41	0x3d7aeec5	0.061262865
42	0xbdfa829c	-0.12231943
43	0xbea687b2	-0.32525402
44	0xbbfac72a	-0.0076531367
45	0xbee5dc3f	-0.44894597
46	0xbe8db1d9	-0.2767475
47	0xbf4f9857	-0.8109183
48	0xbddad646	-0.10685401
49	0x3e0810c4	0.13287646
50	0xbf799f10	-0.97508335
51	0xbf538053	-0.8261768
52	0x3dfe6f85	0.124236144
53	0x3e5550b8	0.20831573
54	0xbf9afc94	-1.2108331
55	0xbf82e86d	-1.0227181
56	0xbf2583d1	-0.6465426
57	0xbd93ecaa	-0.072228745
58	0x3f0c7a3a	0.54874
59	0xbf90add7	-1.1303052
60	0xbe6ea944	-0.23306757
61	0xbf2486e7	-0.64268345
62	0x3e82c643	0.25541887
63	0xbebb8fe1	-0.36633208
64	0xbced6718	-0.028979823
65	0xbf3ee584	-0.74568963
66	0xbf11a3e6	-0.56890714
67	0xbe47f77f	-0.19528006
68	0xbe33f188	-0.17572606
69	0xbef06bb6	-0.46957177
70	0x3d179054	0.037002876
71	0x3da0f0ff	0.07858466
72	0xbf2da765	-0.6783355
73	0xc02c3e26	-2.6912932
74	0x3f6947b1	0.9112502
75	0xbdaf537e	-0.08560847
76	0xbca912e3	-0.020638889
77	0xbed70547	-0.41996214
78	0xc025db57	-2.5915124
79	0x3f714754	0.94249463
80	0xbcad0374	-0.02111981
81	0x3f74a1a8	0.9555917
82	0x3f9e9104	1.2388005
83	0xc0449301	-3.0714724
84	0x3ecc3cbd	0.3989009
85	0xbf0355a5	-0.5130256
86	0xbbedd28a	-0.007257764
87	0x3d74df08	0.05978301
88	0xbd532a4d	-0.051554013
89	0xbd061579	-0.03273532
90	0xbe8a39f9	-0.26997355
91	0xbe2ece30	-0.17070842
92	0xbe06fde7	-0.13182794
93	0xbf1847d6	-0.5948461
94	0x3e851bcc	0.2599777
95	0xbef80925	-0.48444477
96	0xbe23ac6f	-0.15983747
97	0x3da8f4b8	0.082498014
98	0xbeaa67f8	-0.33282447
99	0x3e057073	0.13031177
100	0x3e0826b2	0.13296011
101	0x3ce20720	0.027591288
102	0x3de49039	0.11160321
103	0xbc4b5661	-0.012410731
104	0x3bb02714	0.005375752
105	0x3e0afee5	0.13573797
106	0x4004fac8	2.0778065
107	0x3eb10a12	0.34577996
108	0xc02286f6	-2.5394874
109	0xc0b70236	-5.71902
110	0xc13584a4	-11.344883
111	0x40127ecc	2.288989
112	0xbed87b26	-0.42281455
113	0x3ecf5e0f	0.4050145
114	0xc0078593	-2.1175277
115	0xc139dbd4	-11.616169
116	0x40139dea	2.3065133
117	0xbed8c890	-0.42340517
118	0x3eec9fe2	0.4621573
119	0xc01422ba	-2.3146195
120	0xbd1c3d2d	-0.03814428
121	0xbe9951cf	-0.29945228
122	0x3eb12fa9	0.34606674
123	0xbe5b7573	-0.21431522
124	0x3ea964ce	0.3308472
125	0x3f20d987	0.6283192
126	0xc1343d4e	-11.264967
127	0x3f8e79b2	1.1130888
128	0xbfc21112	-1.516146
129	0xbf482d92	-0.78194535
130	0x3face100	1.3506165
131	0xbfc47844	-1.5349202
132	0x3e96680e	0.29376262
133	0xbd4fa2ca	-0.050692357
134	0x3cf6c289	0.030122058
135	0x3fb8c8d2	1.4436285
136	0xbf9d3853	-1.2282814
137	0x3e9dd55f	0.30826852
138	0xbba0668a	-0.004895036
139	0x3c89667b	0.0167725
140	0xbe2852e3	-0.16437869
141	0x3db582da	0.088628486
142	0xbcf366a7	-0.029712034
143	0xbdd60879	-0.10450835
144	0xbeb9259f	-0.36161515
145	0xbed92058	-0.4240749
146	0x3ae058f2	0.0017116352
147	0xbe0954e4	-0.1341129
148	0x3eada108	0.3391192
149	0x3c8e57b3	0.017375803
150	0xbf17031a	-0.5898911
151	0xbe6499d9	-0.22324313
152	0x3e99c815	0.30035463
153	0xbe8b5a68	-0.27217412
154	0xbf80970c	-1.0046096
155	0xbee801a0	-0.4531374
156	0xbf20e17e	-0.62844074
157	0x3e9274b6	0.28604668
158	0xbf166e6f	-0.5876226
159	0xbf9bbd5b	-1.2167162
160	0xbd07647a	-0.033054806
161	0x3e3be96e	0.18350765
162	0x400491ab	2.0713909
163	0x3dfd64c7	0.123727374
164	0xc0767394	-3.8508043
165	0x3e1c368a	0.1525518
166	0x3e1fd47e	0.15608403
167	0xbe1c939f	-0.15290688
168	0xbdaa135d	-0.083044745
169	0x3e50ad94	0.20378715
170	0x3f878715	1.0588099
171	0xc072019e	-3.7813487
172	0x3e4f4760	0.20242071
173	0x3f02f92f	0.51161474
174	0x3e8d5fa4	0.2761203
175	0x3f6a7418	0.91583395
176	0xc07b6ba6	-3.9284453
177	0x3ea8a58e	0.32938808
178	0x3ed1a91f	0.40949342
179	0x3ef17a20	0.47163486
180	0xbeca5dd3	-0.39524707
181	0x3e2b5985	0.16733368
182	0x3e7ffbc0	0.24998379
183	0xbd8f29dd	-0.06990407
184	0xbea6e745	-0.3259832
185	0xbf1fbc25	-0.6239646
186	0x3f5208e9	0.82044846
187	0xbf7ea7d1	-0.9947482
188	0xbf9743b3	-1.1817535
189	0x3e88230a	0.26589233
190	0xbea063b4	-0.31326067
191	0xbdb60052	-0.0888678
192	0xbec6a6f5	-0.38799253
193	0x3f01a905	0.5064853
194	0xbf9f9740	-1.2468033
195	0xbe4df75f	-0.20113896
196	0x3e8b14ed	0.27164403
197	0xbf30c523	-0.69050807
198	0x3e856023	0.2604991
199	0xbf8d2539	-1.1026984
200	0xbeb7a0ba	-0.35864812
201	0x3da7d685	0.08195213
202	0xbed49c91	-0.415257
203	0x3ea4c4e1	0.32181457
204	0x3eb8447a	0.35989743
205	0x3e8d516a	0.27601177
206	0x3f4e26a9	0.8052774
207	0x3e86de63	0.26341543
208	0xbf909590	-1.1295643
209	0x3f08859e	0.53328884
210	0x3dffbf89	0.12487704
211	0xc09e6fd5	-4.9511514
212	0xbfbc9dbc	-1.4735637
213	0xbe4bb534	-0.19893342
214	0xbf80a1f4	-1.0049424
215	0xbdf1160b	-0.117717825
216	0xc09ee50b	-4.9654593
217	0xbf8bfd54	-1.0936685
218	0xbe6fd87c	-0.23422426
219	0xbf4dc4a8	-0.803782
220	0x3ce3f393	0.027826106
221	0x3bf9cc4e	0.007623232
222	0xbd583f3a	-0.052794673
223	0x3d466bcb	0.048442643
224	0xbd4b9652	-0.049703903
225	0xbea3ece1	-0.32016662
226	0x3ea28a2b	0.3174604
227	0xbed64132	-0.41846615
228	0x3dba4979	0.09096045
229	0x3e19f006	0.15032968
230	0xbd191767	-0.037375834
231	0x3ecf7e35	0.40525976
232	0xbfa13c60	-1.259655
233	0xbe75f806	-0.24020395
234	0x3b3500b8	0.0027618837
235	0x3daba137	0.08380359
236	0x3e79da4d	0.24399681
237	0xbf8a7daf	-1.0819606
238	0x3e1dd26c	0.15412301
239	0xbdb43556	-0.087992355
240	0xbe40d300	-0.1883049
241	0xbde23caa	-0.11046727
242	0x3eb1f09d	0.34753886
243	0x3ea39e83	0.31956872
244	0x3ed11d99	0.40842894
245	0x3ead8e69	0.33897713
246	0x3eb98aee	0.36238807
247	0x3f5bbfb9	0.8583942
248	0xbf96b4f0	-1.1773968
249	0x3eac6625	0.3367168
250	0x3e930c79	0.28720453
251	0xbf44e3a1	-0.76909834
252	0x3d2ad720	0.041709065
253	0xbf1c01d9	-0.6094032
254	0x3f8e4f02	1.1117861
255	0x3e34549a	0.17610398

linear_relu_stack.0.bias f4 [64]
0	0x3f0b2097	0.54346603
1	0xbffc51b1	-1.971243
2	0xbf7038ee	-0.9383687
3	0xbf314163	-0.692404
4	0xbf180348	-0.59380007
5	0x3f010300	0.503952
6	0x3f2452fa	0.6418911
7	0xbf323679	-0.6961437
8	0x3ebdd169	0.3707383
9	0xbf2e5e4c	-0.68112636
10	0x3f490e1f	0.7853717
11	0xbe6cdbd2	-0.2313073
12	0x3d813a82	0.063099876
13	0xbe3348fe	-0.17508313
14	0x3f9e1273	1.234938
15	0xbeee1fee	-0.46508735
16	0xbf91ea42	-1.1399615
17	0xbe9276fc	-0.28606403
18	0xbf724f3c	-0.9465215
19	0xbef2b39b	-0.47402653
20	0xbe3f54c9	-0.18684687
21	0xbe6a4e2f	-0.22881387
22	0xbe888fbe	-0.26672167
23	0x3ed723bb	0.42019448
24	0xbe80a262	-0.25123888
25	0xbf666b7a	-0.90007746
26	0x3cf3e1b6	0.029770713
27	0xbf557fe8	-0.83398294
28	0xbe96e45c	-0.294711
29	0xbc2148dd	-0.009844032
30	0xbf3515d5	-0.7073644
31	0xbf018ec7	-0.50608486
32	0xbec57fd0	-0.38574076
33	0xbe81b198	-0.25330806
34	0xbe3f7115	-0.18695481
35	0xbf2cf8f6	-0.67567384
36	0xbf12159f	-0.5706424
37	0xbead9563	-0.33903036
38	0xbd6c08e4	-0.057625666
39	0x3f595c4f	0.84906477
40	0xbf0299aa	-0.5101572
41	0xbe93c5ca	-0.2886184
42	0xbc8fd0b7	-0.017555578
43	0xbebee550	-0.37284327
44	0xbe73cdba	-0.23808947
45	0x3dfbb4be	0.12290333
46	0xbe665138	-0.2249192
47	0xbd3ef3c9	-0.04661921
48	0xbeb6c959	-0.3570049
49	0xbf360ca2	-0.71113026
50	0x3e540f6f	0.20709012
51	0xbea34ca6	-0.31894416
52	0xbda103b3	-0.07862034
53	0xbe1e7048	-0.1547252
54	0xbe88db1a	-0.2672966
55	0xbf03109b	-0.5119721
56	0x3e483138	0.19550025
57	0xbfd1eef5	-1.6401049
58	0xbeb83697	-0.3597915
59	0xbe9e869c	-0.30962074
60	0xbe7cdf77	-0.2469462
61	0xbea34915	-0.31891695
62	0x3d4d706d	0.050156046
63	0xbf554ba8	-0.8331857

linear_relu_stack.2.weight f4 [128, 64]
0	0x3fc2fdff	1.5233763
1	0x3dc9c77a	0.098525
2	0x400029c9	2.0025504
3	0xbd2f5a8a	-0.042810954
4	0x3f8a4035	1.0800844
5	0xbeaf70f4	-0.34265864
6	0x3db5190d	0.08842669
7	0x3d4085d6	0.047002636
8	0xbfb00b80	-1.375351
9	0x3e629fad	0.22131224
10	0xbfb434f2	-1.4078658
11	0xbe1868d8	-0.14883745
12	0xbf21deeb	-0.6323077
13	0x3e31e0a7	0.17370854
14	0x3fcf5dbf	1.6200484
15	0xbe5853ad	-0.2112567
16	0xbfc67d74	-1.5507035
17	0xbf49feef	-0.7890462
18	0xbe4af6e9	-0.19820751
19	0xbef5a5ca	-0.4797805
20	0x3f0f632a	0.5601069
21	0x3f32b042	0.698002
22	0xbf2a9596	-0.666345
23	0xbf0e91eb	-0.55691403
24	0xbdd3de37	-0.103451185
25	0x3fa1f9a1	1.2654306
26	0xbf8e213b	-1.1103891
27	0x3f9a871e	1.2072484
28	0x3f843509	1.0328685
29	0x3f469538	0.7757144
30	0xbd5ea899	-0.054360006
31	0xbf082ba3	-0.53191584
32	0xbdbd8efa	-0.09255786
33	0xbec0266b	-0.3752931
34	0xbef6e4f3	-0.4822155
35	0xbf5e3dcc	-0.86813045
36	0xbea5ddde	-0.32395834
37	0xbf893d80	-1.0721893
38	0xbd483bc8	-0.048885137
39	0x3ea68cc5	0.32529274
40	0xbf08b334	-0.5339844
41	0x3f0fb1c3	0.5613062
42	0xc001ffcf	-2.0312383
43	0xbf4b3360	-0.7937527
44	0x3e67c7ca	0.22634807
45	0xbf2800d1	-0.65626246
46	0x3e2aafd8	0.16668642
47	0x3d56df0f	0.05245882
48	0xbecf0d69	-0.4043992
49	0xbfb513fc	-1.4146724
50	0x3e984896	0.2974288
51	0xbea76fc7	-0.32702467
52	0xbe16695e	-0.14688632
53	0xbe858f26	-0.26085776
54	0xbe4ceaf8	-0.20011508
55	0xbf318386	-0.69341314
56	0xbb948a3e	-0.0045330813
57	0xbfabf1d8	-1.343318
58	0x3e3fe7b3	0.1874073
59	0x3e8a3b63	0.26998433
60	0xbbb6f0d2	-0.0055829072
61	0x3ebb15bf	0.36540028
62	0xbe849a0c	-0.25898778
63	0x3e383309	0.17988218
64	0xbf38e34d	-0.72221833
65	0xbe6ea2ed	-0.23304339
66	0xbdaa9130	-0.083284736
67	0x3ce2e636	0.027697664
68	0x3d0e8b3c	0.034800753
69	0xbe7be947	-0.24600707
70	0xbe25f1aa	-0.16205469
71	0x3dc06360	0.09393954
72	0x4053a02b	3.3066509
73	0x3f142965	0.57875663
74	0x3e776c81	0.24162485
75	0xbd497ba7	-0.04919019
76	0xbe675316	-0.22590289
77	0x3d94483e	0.072403416
78	0x3ed4f904	0.41596234
79	0x3edb83ee	0.42874092
80	0x3ee1275f	0.4397535
81	0x3d888620	0.06666207
82	0x3f516e0f	0.8180856
83	0x3db61f04	0.088926345
84	0x3ee8fa11	0.45503286
85	0xbdc27b2f	-0.09496152
86	0x3e7c8b27	0.24662457
87	0xbeea2263	-0.4572936
88	0xbebf33f0	-0.37344313
89	0x3f30418f	0.68850034
90	0x3ef0c0dd	0.47022143
91	0xbeca34e0	-0.39493465
92	0x3bf4a914	0.0074664447
93	0x3e259121	0.16168644
94	0xbeeebd5a	-0.4662884
95	0xbd1fdfc5	-0.039031763
96	0xbe95e425	-0.29275623
97	0x3e4e1ab1	0.2012737
98	0xbed781d7	-0.42091247
99	0x3f5aa215	0.8540357
100	0x3ea6c52d	0.32572308
101	0x3ef8de48	0.48607087
102	0x3ecab75e	0.39593023
103	0xbeea26c2	-0.45732695
104	0xbca59308	-0.020211712
105	0x3d4cf835	0.050041396
106	0xbf910495	-1.1329523
107	0xbce11745	-0.027476916
108	0xbf213105	-0.6296542
109	0xbf20dcf4	-0.6283715
110	0xbe90aab9	-0.2825525
111	0x3e229c0d	0.15879841
112	0x3d2249bb	0.039621096
113	0x3f392aa0	0.72330666
114	0xbe5b1913	-0.21396284
115	0xbe294f6e	-0.16534206
116	0x3e274741	0.16335775
117	0x3dee251c	0.11628172
118	0x3e66158a	0.22469154
119	0x3ec5d5c5	0.38639656
120	0xbf15a834	-0.5845978
121	0x3e9e1240	0.308733
122	0x3d4827ed	0.0488662
123	0x3bbf414b	0.005836641
124	0x3d3d8878	0.046272725
125	0xbdef3421	-0.11679865
126	0x3fc0a174	1.5049272
127	0xbcf2bd17	-0.02963118
128	0xbe0cfac1	-0.1376753
129	0x3de5eb55	0.11226527
130	0x3e9bd482	0.30435568
131	0xbed4d15c	-0.4156598
132	0x3d9a4402	0.07532503
133	0xbe577ffd	-0.21044917
134	0xbbf7e822	-0.007565514
135	0xbd30a609	-0.043127093
136	0x3fe00931	1.7502805
137	0x3ec395d5	0.3820025
138	0x3eae7c57	0.3407924
139	0xbd394257	-0.045229282
140	0xbeded379	-0.43520716
141	0x3cb9fddc	0.022704057
142	0x3ed96505	0.42459884
143	0xbdd46b3e	-0.10372017
144	0x3f516046	0.81787527
145	0x3ec59c3f	0.3859577
146	0x3ee7c127	0.4526455
147	0xbea72f87	-0.32653448
148	0x3eaeb900	0.3412552
149	0xbc9286f4	-0.017886616
150	0xbf43617d	-0.7632063
151	0xbf5ce96f	-0.8629369
152	0xbf01d73e	-0.5071906
153	0x3da2405c	0.07922432
154	0xbdb7a406	-0.08966832
155	0x3ef9b84a	0.48773414
156	0x3ece7acd	0.40328065
157	0x3e6cd1bf	0.23126887
158	0x3ea12b92	0.31478554
159	0xbe3f356c	-0.18672723
160	0xbe873c96	-0.2641341
161	0x3df0d0c5	0.1175857
162	0xbddf340e	-0.108986005
163	0x3c692a6b	0.014231305
164	0xbe2636ac	-0.16231793
165	0x3fe55ee3	1.7919582
166	0x3db6059b	0.08887788
167	0xbe0e4ccf	-0.13896488
168	0x3d378118	0.044800848
169	0xbea0fa7e	-0.3144111
170	0xbf78b0c0	-0.971447
171	0x3e291fa5	0.16515978
172	0xbefb642f	-0.49099872
173	0x3e321ad5	0.17393048
174	0xbdad46c5	-0.08460764
175	0xbce3fd6e	-0.027830806
176	0x3e5cf4b2	0.21577719
177	0xbec5ede5	-0.38658062
178	0xbe77a620	-0.24184465
179	0xbe5ba8bc	-0.21451086
180	0x3eb7ea38	0.35920882
181	0xbe0f2be1	-0.13981582
182	0x3e9a3980	0.30121994
183	0x3db13fc8	0.086547434
184	0xbd67f597	-0.056630697
185	0xbe2a241f	-0.16615342
186	0xbcdf83b2	-0.027284477
187	0x3d68f3db	0.056873184
188	0xbdbc4ed2	-0.09194721
189	0xbe54ad9f	-0.20769356
190	0x3fac694d	1.3469635
191	0x3da05c63	0.07830121
192	0x40389837	2.8842905
193	0x3f2bdb32	0.6713134
194	0xbe9a2cb9	-0.30112246
195	0x3f670f29	0.9025751
196	0xbf7edbcd	-0.9955414
197	0x3c4f70a4	0.012661133
198	0xbe4d38e7	-0.20041238
199	0xbec5f363	-0.38662252
200	0xbd3131bd	-0.043260325
201	0x3f1d1150	0.6135454
202	0x3fc84f2c	1.5649161
203	0x3dd5dbcd	0.10442314
204	0x3f654f51	0.8957415
205	0xbeb87176	-0.36024064
206	0x3f6dbb2e	0.9286374
207	0xbb3df019	-0.002898222
208	0x3e963c3c	0.2934283
209	0xbf04fc17	-0.5194716
210	0x3f630243	0.88675326
211	0x3d91b4fe	0.071146
212	0x3ed72236	0.42018288
213	0xbdc6febf	-0.09716558
214	0xbf701783	-0.93785876
215	0xbec2f2d2	-0.38075882
216	0xbeca8c14	-0.39559996
217	0xbeddcd29	-0.43320587
218	0xbe098f08	-0.13433468
219	0xbfc5ec62	-1.5462763
220	0x3d47583f	0.048668142
221	0xbf2486c0	-0.6426811
222	0x3fba0d2f	1.4535273
223	0xbc3bb53d	-0.011456785
224	0xbf1cad49	-0.6120191
225	0x3e3ade3f	0.18248843
226	0x3c9513f3	0.01819799
227	0x3ed519ed	0.41621342
228	0x3df4c126	0.11950903
229	0x3e0048d3	0.1252778
230	0x3ea67616	0.32511967
231	0xbf81b26b	-1.0132574
232	0x3f15a439	0.5845371
233	0xbe709025	-0.23492487
234	0xbe77852c	-0.24171895
235	0x3f1e3c00	0.618103
236	0x3f10d19e	0.5656985
237	0xbfa1cdc6	-1.2640922
238	0x3c9665ee	0.01835915
239	0xbe9ba6f6	-0.3040082
240	0x3f10688f	0.56409544
241	0x3f553794	0.8328793
242	0x3f9b8200	1.2149048
243	0xbeec31fd	-0.46131888
244	0xbeadd79f	-0.33953568
245	0x3cf99987	0.030468715
246	0x3e2702c2	0.16309646
247	0x3d80ac65	0.06282882
248	0xbe85f8e9	-0.26166466
249	0x3f9a683d	1.2063061
250	0x3e4ea222	0.20179036
251	0xbe8f2386	-0.2795679
252	0x3cee2ca1	0.029074015
253	0x3e0cf5fa	0.13765708
254	0xbf137e58	-0.5761466
255	0xbe883114	-0.26599944

linear_relu_stack.2.bias f4 [128]
0	0x3e913ca5	0.2836658
1	0x3e809d17	0.2511985
2	0x3e4149d4	0.1887582
3	0x3d182a1e	0.03714954
4	0xbddd47b6	-0.108046934
5	0xbcadc98b	-0.021214267
6	0xbedd139b	-0.4317902
7	0x3e48ad5b	0.1959738
8	0xbd2923de	-0.04129397
9	0xbe6e0d2e	-0.23247215
10	0x3dee3a1a	0.11632176
11	0x3e5165b3	0.20448951
12	0xbcb0d0f6	-0.021584015
13	0xbe41c3cd	-0.18922348
14	0x3da88737	0.08228915
15	0xbe9174a6	-0.28409308
16	0xbd93d473	-0.07218256
17	0x3db7aab6	0.089681074
18	0x3c812383	0.015764004
19	0x3e17926f	0.14801954
20	0xbd966453	-0.07343354
21	0xbd4e0431	-0.050296966
22	0x3ce41b2f	0.027844993
23	0xbe0eee66	-0.1395813
24	0xbd87dba6	-0.066336915
25	0x3e2f792e	0.1713607
26	0xbe8ef358	-0.27920032
27	0xbde257d9	-0.11051912
28	0x3e4ad7b3	0.19808845
29	0x3ec290fa	0.38001233
30	0xbc4363a5	-0.011925613
31	0x3d6ccc05	0.057811756
32	0x3d41cb81	0.047313217
33	0xbe907442	-0.28213698
34	0xbe6f2df8	-0.2335738
35	0xbdf41f38	-0.11920017
36	0xbd86a1fd	-0.065738656
37	0x3e8a2086	0.26977938
38	0xbd376d66	-0.044782065
39	0xbee3c67a	-0.44487363
40	0x3d717bfb	0.058956128
41	0xbeea1f23	-0.4572688
42	0x3d1044b9	0.03522179
43	0xbee31b6b	-0.44356856
44	0x3df4f760	0.119612455
45	0xbdd205ff	-0.1025505
46	0x3e939f8d	0.28832665
47	0x3e78d276	0.24299034
48	0xbc9e120d	-0.019295717
49	0xbe7c2524	-0.24623543
50	0x3e667959	0.22507228
51	0x3d04e65f	0.03244626
52	0x3cadf676	0.021235686
53	0x3eb7c4c1	0.358923
54	0x3e9197bd	0.2843608
55	0x3e93e3b2	0.28884655
56	0x3e5579fb	0.20847313
57	0xbdf95521	-0.1217444
58	0x3eb3effa	0.35144025
59	0xbe8f3891	-0.27972844
60	0xbdcfce66	-0.10146789
61	0x3ee33bc7	0.44381544
62	0xbd33f923	-0.043938767
63	0xbec862c3	-0.3913785
64	0x3ebf802d	0.37402478
65	0x3d075bef	0.03304666
66	0x3deecfc6	0.116607234
67	0xbd096f6e	-0.033553533
68	0xbd402583	-0.046910774
69	0xbe93dcfc	-0.28879535
70	0xbebcc222	-0.36866862
71	0x3e06b46a	0.1315476
72	0x3d6824c9	0.056675706
73	0xbd6bb82e	-0.057548694
74	0xbd16ad77	-0.036786523
75	0x3db0a0e7	0.0862444
76	0xbe66be9e	-0.22533652
77	0x3d032c1d	0.03202449
78	0x3d520a53	0.051279377
79	0xbe4b80d8	-0.19873369
80	0x3efdb69a	0.49553376
81	0xbdb89d16	-0.09014337
82	0x3e7cc61a	0.24684945
83	0xbd13d75b	-0.03609405
84	0xbbfd87cc	-0.0077371355
85	0xbf3eefba	-0.74584544
86	0x3e5b9d7c	0.21446794
87	0xbb37048c	-0.0027926294
88	0xbeb42c46	-0.35190028
89	0x3f5ff226	0.87478864
90	0xbebd9d8f	-0.3703427
91	0xbe307e28	-0.17235625
92	0x3c9ef12f	0.019402115
93	0x3ea2f9da	0.31831247
94	0x3e170c75	0.14750846
95	0x3ca451d4	0.02005855
96	0xbec061b4	-0.37574542
97	0x3ea06186	0.31324404
98	0xbd06b09b	-0.032883268
99	0x3ed139f7	0.40864536
100	0x3df01a8f	0.11723816
101	0xbe8262f3	-0.25466117
102	0x3ea10f15	0.3145682
103	0x3da169cd	0.07881508
104	0xbe8fe437	-0.28103802
105	0xbdbe935d	-0.09305451
106	0x3ddbde95	0.107358135
107	0xbe92d01e	-0.28674406
108	0x3eed6b2f	0.46370837
109	0x3e6389e9	0.22220577
110	0x3f0202e9	0.5078569
111	0xbcd608fb	-0.02612733
112	0x3ea3ad97	0.31968376
113	0x3ddab7dd	0.106796004
114	0x3cb77cdc	0.022398405
115	0x3f2a6bb0	0.6657057
116	0x3e20dc02	0.15708926
117	0xbc303ee9	-0.010757186
118	0x3ebbbefb	0.36669144
119	0x3e16b585	0.14717682
120	0xbe068a42	-0.13138679
121	0xbe0341c3	-0.12818055
122	0xbe91abc0	-0.28451347
123	0xbd8079c5	-0.06273226
124	0xbdaaebf5	-0.083457865
125	0xbf023ae3	-0.50871104
126	0xbd9595d9	-0.07303972
127	0x3e42cda7	0.19023763

linear_relu_stack.3.weight f4 [128]
0	0x3fcea039	1.6142646
1	0x3fc1f66b	1.5153326
2	0x3e5ff06b	0.21869056
3	0x3f68bb3c	0.90910697
4	0x3fca0301	1.5782167
5	0x3f22f809	0.6365972
6	0x3e0e00b1	0.13867451
7	0x3f9ade6a	1.2099125
8	0x3ea68435	0.3252274
9	0x3f9a24ab	1.204244
10	0x3e43c6ee	0.19118854
11	0x3f29ff0d	0.664048
12	0x3f83aed3	1.0287727
13	0x3f57f8c1	0.84363943
14	0x3fc8c6e4	1.5685697
15	0x3fcf1e40	1.6181107
16	0x3fb9fcf4	1.453032
17	0x3f46a300	0.7759247
18	0x3dbdc84b	0.092667185
19	0x3d69cbe9	0.05707923
20	0x3f72cd4b	0.948445
21	0x3fd4c85c	1.6623645
22	0x3e87b5ec	0.26505983
23	0x3f0d8bb5	0.552913
24	0x3f891b7e	1.0711515
25	0x3fbf1a45	1.4929892
26	0x3fe7684d	1.8078705
27	0x3f8ccff5	1.1000963
28	0x3e88fc14	0.2675482
29	0x3fc82027	1.5634812
30	0x3ffa1e5d	1.9540516
31	0x3f81bc49	1.0135585
32	0x3f332de5	0.69991904
33	0x3fc07c0b	1.5037855
34	0x3ec8b62f	0.39201495
35	0x3e8c5c72	0.2741428
36	0x3fa71f48	1.3056421
37	0x3fc7a128	1.5596056
38	0x3fce07ea	1.6096165
39	0x3f2d1b7b	0.67620057
40	0x3f14267d	0.5787123
41	0x3fb44f1f	1.4086646
42	0x3d0fddee	0.035123758
43	0x3fa5e0e4	1.2959256
44	0x3f2e504e	0.68091285
45	0x3c5e5840	0.013570845
46	0x3f220ba7	0.6329903
47	0x3ecc0264	0.39845574
48	0x3f22c9b9	0.63589054
49	0x3f696416	0.91168344
50	0x3f2aceea	0.66721976
51	0x3c422233	0.011848974
52	0x3ff2ca8e	1.8968065
53	0x3fb6fa57	1.4295148
54	0x3f39612a	0.72413886
55	0x3e745ebc	0.23864263
56	0x400dd512	2.2161298
57	0x3ff4d316	1.9126918
58	0x3eaa8c5f	0.3331022
59	0x3faf7241	1.3706743
60	0x3fe482a6	1.7852371
61	0x3f4a0fc7	0.78930324
62	0x3f720d5b	0.9455163
63	0x3ed682d7	0.41896698
64	0x3f51a029	0.8188501
65	0x3f38d895	0.7220548
66	0x3f119b42	0.5687753
67	0x3f274edc	0.65354705
68	0x3e309ec0	0.17248058
69	0x3fcce4e2	1.600735
70	0x3e4181c1	0.18897153
71	0x3da48009	0.08032233
72	0x3f960511	1.1720296
73	0x3fbb28ec	1.4621863
74	0x3eaceee3	0.33776006
75	0x3fc10dd0	1.508234
76	0x3ef427b0	0.4768653
77	0x3f2f6ace	0.68522346
78	0x400078f2	2.007382
79	0x3e07087c	0.1318683
80	0x3f22ee7e	0.6364516
81	0x3cd01108	0.025398746
82	0x3fa47eab	1.2851156
83	0x3f4869c4	0.78286386
84	0x3ecacad3	0.39607868
85	0x3ff19271	1.8872815
86	0x3f81b941	1.013466
87	0x3fc8bc30	1.568243
88	0x3ef3efeb	0.4764398
89	0x4013cc9c	2.3093634
90	0x3ee90119	0.4550865
91	0x3fe8ccf6	1.8187549
92	0x3f34e047	0.7065472
93	0x3dcbc828	0.09950286
94	0x3f9becd5	1.218165
95	0x3f3e1ed1	0.7426577
96	0x3fa8127e	1.3130643
97	0x3fc0f7db	1.507564
98	0x3e415244	0.18879038
99	0x3fea5d8f	1.8309802
100	0x3efec290	0.49757814
101	0x3f75a000	0.95947266
102	0x3ff4de51	1.9130346
103	0x3ed3f920	0.41401005
104	0x3f9f530d	1.244722
105	0x3f8669f6	1.0501087
106	0x3f4f4f5e	0.8098048
107	0x3fb95449	1.4478847
108	0x3f34726c	0.70487094
109	0x3fd8e983	1.6946262
110	0x3f80e7e7	1.0070771
111	0x3f77d519	0.96809536
112	0x3e28102c	0.16412419
113	0x3f821683	1.016312
114	0x3f151dd1	0.5824862
115	0x400a7223	2.1632164
116	0x3eb21c9d	0.34787455
117	0x3c31dda7	0.010856069
118	0x402841a0	2.6290054
119	0x3f9edce4	1.241116
120	0x3f0db93d	0.55360776
121	0x3e0ea0cd	0.13928528
122	0x40092e7e	2.1434627
123	0x3fad273a	1.3527596
124	0x3fa0ffb1	1.2578031
125	0x3fc9bd10	1.5760822
126	0x3ea58411	0.3232732
127	0x3f2baf93	0.6706478

linear_relu_stack.3.bias f4 [128]
0	0xbf7462cb	-0.95463246
1	0xbf59b651	-0.8504382
2	0xbfc33206	-1.5249641
3	0xbf99b4cf	-1.2008303
4	0xbf840081	-1.0312654
5	0xbf091a6c	-0.5355594
6	0xbf34528e	-0.7043847
7	0xbe6c5cb0	-0.23082232
8	0xbf622d59	-0.88350445
9	0x3f08507b	0.53247803
10	0xbfaa0b02	-1.3284609
11	0xbec29b70	-0.38009214
12	0xbeb04ff8	-0.3443601
13	0xbfd2be49	-1.646432
14	0xbea97916	-0.33100194
15	0xbf29025c	-0.66019225
16	0xbf3de1c7	-0.74172634
17	0xbf609d6c	-0.87740207
18	0xbeef4514	-0.4673239
19	0xbf37a1e3	-0.71731395
20	0x3e496100	0.19665909
21	0xbf2a00c5	-0.66407424
22	0xbfa0b2d9	-1.255458
23	0xbdad5da5	-0.08465127
24	0xbf54cae0	-0.8312206
25	0xbf005903	-0.5013582
26	0xbd718628	-0.058965832
27	0xbf60074c	-0.87511134
28	0xbf8a7aa2	-1.0818675
29	0xbf47aa08	-0.7799382
30	0xbf170754	-0.58995557
31	0xbf640ac1	-0.8907891
32	0xbf33b697	-0.70200485
33	0xbfa61442	-1.2974932
34	0xbf9510cf	-1.1645755
35	0xbf2dad4f	-0.6784257
36	0xbf8c9cd3	-1.0985359
37	0xbf35bd1d	-0.7099169
38	0xbf740857	-0.95325226
39	0xbfaa8915	-1.3323084
40	0xbf611273	-0.87918776
41	0xbf5b327b	-0.856239
42	0xbf16d021	-0.5891133
43	0xbebfa467	-0.37430117
44	0xbf7ac8b8	-0.9796252
45	0xbfa8423c	-1.3145213
46	0xc001ed7d	-2.0301201
47	0xbf16182b	-0.5863063
48	0xbf78aece	-0.9714173
49	0xbd7b45d5	-0.061345894
50	0xbee3ec23	-0.44516096
51	0xbed086c5	-0.4072782
52	0xbca840e8	-0.020538762
53	0xbeafb90f	-0.34320876
54	0xbe688889	-0.22708334
55	0xbecd1491	-0.40054753
56	0xbfa3aea7	-1.2787675
57	0xbecda6bc	-0.4016627
58	0xbf808a18	-1.0042143
59	0x3df78927	0.120867066
60	0x3e42712d	0.18988486
61	0xbff3b5ac	-1.9039817
62	0xbfb10241	-1.3828813
63	0xbf2e82c2	-0.6816827
64	0xbe5f41b5	-0.21802409
65	0xbf9859f1	-1.1902448
66	0xbf0f220d	-0.5591133
67	0xbf38fe93	-0.7226345
68	0xbf820734	-1.0158448
69	0xbef4e5a1	-0.47831443
70	0xbf98e5d5	-1.1945139
71	0xbf497177	-0.7868876
72	0xbef4ef90	-0.47839022
73	0xbf418eb5	-0.7560838
74	0xbf4e5772	-0.8060218
75	0xbf8182bf	-1.0118026
76	0xbf91b986	-1.1384742
77	0xbf38cb6e	-0.7218541
78	0xbfb76aae	-1.4329431
79	0xbf1c20cb	-0.6098754
80	0xbf9fa1d4	-1.2471261
81	0xbea87cb2	-0.32907635
82	0xbd39f9cd	-0.045404244
83	0xbf14a964	-0.5807097
84	0xbb052c88	-0.0020320732
85	0xbfb4078c	-1.4064803
86	0xbfa516f5	-1.2897631
87	0xbe691052	-0.22760132
88	0xbe0599a1	-0.13046886
89	0xbf247656	-0.64243066
90	0xbf8f064d	-1.1173798
91	0xbe92d1b2	-0.2867561
92	0xbfa77b1d	-1.3084446
93	0xbecfee38	-0.40611434
94	0xbedcdb47	-0.43136045
95	0xbef91893	-0.4865156
96	0xbf332fff	-0.6999511
97	0x3c1238b6	0.008924654
98	0xbf1bac89	-0.6081014
99	0xbf63fdc4	-0.8905909
100	0xbf83e252	-1.0303442
101	0xbf3371ba	-0.7009541
102	0xbf65297f	-0.89516443
103	0xbf98633d	-1.1905285
104	0xbf962846	-1.173104
105	0xc007b28c	-2.1202726
106	0xbf93a612	-1.1535056
107	0xbf34e5f8	-0.70663404
108	0xbe31f324	-0.17377907
109	0xbf895af0	-1.0730877
110	0xbfc113f5	-1.5084215
111	0xbf718cbc	-0.9435537
112	0xbf688310	-0.90824986
113	0xbeb583e3	-0.35452184
114	0xbf511c93	-0.81684226
115	0xbfd32e89	-1.6498576
116	0xbfa403f7	-1.281371
117	0xbee3db37	-0.44503185
118	0xbf2c9ce1	-0.6742688
119	0xbf4c8675	-0.79892665
120	0xbef92d69	-0.48667458
121	0xbf6d2b5a	-0.92644274
122	0xbef53ced	-0.47898045
123	0xbfae3a95	-1.3611628
124	0xbf4cb02b	-0.7995631
125	0xbf169d97	-0.58834213
126	0xbf2f9b30	-0.6859617
127	0xbf83732a	-1.026952

linear_relu_stack.3.running_mean f4 [128]
0	0x3fc064da	1.5030777
1	0x3e676fd3	0.22601251
2	0x3f7404f1	0.9532004
3	0x406b9af2	3.681332
4	0x3ef6b3c2	0.4818402
5	0xbdfd8116	-0.12378137
6	0x3f33e373	0.70268935
7	0xbe80e63c	-0.25175655
8	0x3ee85436	0.45376748
9	0xc08963ee	-4.2934484
10	0x3c448245	0.011993949
11	0xbf427d5f	-0.7597255
12	0x3f186e97	0.59543747
13	0xbee30a57	-0.44343826
14	0x402b588a	2.677279
15	0xc03df47c	-2.9680471
16	0x3f8dc193	1.1074699
17	0x406ad6ef	3.6693685
18	0x3fde7f15	1.7382532
19	0x3f4559c9	0.77090126
20	0x3f987289	1.1909953
21	0x3f76670d	0.96250993
22	0x3ec9c96a	0.3941148
23	0x3fd08def	1.6293315
24	0x3f83cd65	1.0297056
25	0x3f8335f6	1.0250843
26	0xc072b9b7	-3.7925851
27	0xbee0716a	-0.43836528
28	0x3fc15f32	1.5107176
29	0x40256ce6	2.5847716
30	0xbe52e07a	-0.20593444
31	0xbf4e23e8	-0.8052354
32	0xbfbfe1cd	-1.4990784
33	0x3f6e6204	0.9311831
34	0xbe8e0e00	-0.27745056
35	0xbf3fa190	-0.748559
36	0x3fc2a389	1.5206157
37	0xbf79afa6	-0.97533643
38	0xbf10ffe2	-0.56640446
39	0x40215334	2.5207033
40	0xbf41d58e	-0.75716484
41	0x3f860f37	1.0473393
42	0x3f5e21df	0.86770433
43	0x3f7141a2	0.9424077
44	0xbe651dc7	-0.2237464
45	0xbf3b63d0	-0.73199177
46	0xbf823fc8	-1.0175714
47	0x3fdea312	1.7393515
48	0xbf33502a	-0.70044196
49	0xc0137e61	-2.3045886
50	0x3f9c87ba	1.222892
51	0xbd6cc4ea	-0.05780498
52	0xbf87334f	-1.0562533
53	0xbf69e703	-0.9136812
54	0xc0294459	-2.6447966
55	0xbf46fe9e	-0.77732265
56	0x3fd7a8f2	1.6848433
57	0xbf69a36c	-0.91264987
58	0x3fb80fc8	1.4379816
59	0x404f83f5	3.242429
60	0xbffd74b0	-1.9801235
61	0x4058ea29	3.389292
62	0x40715ae2	3.771172
63	0x3fdb5dfd	1.7138058
64	0x3fb3e2a4	1.405354
65	0x3f7f45f5	0.9971612
66	0x3ff2a6da	1.8957169
67	0xbe40efee	-0.18841526
68	0x3fa85a65	1.3152586
69	0x3e2b7d97	0.16747127
70	0x3f04beba	0.51853526
71	0x3f829168	1.0200624
72	0x3f27ebe8	0.6559434
73	0xc013ba2a	-2.3082376
74	0xbeaaf042	-0.33386427
75	0x3f86afe4	1.0522428
76	0x3fcd9959	1.6062423
77	0x4067ca2e	3.621715
78	0x3efb8306	0.491234
79	0xc00de4c2	-2.2170873
80	0xbfbfe1bc	-1.4990764
81	0xbe7f611b	-0.24939387
82	0xc0195ae3	-2.3961723
83	0x3fb66ca7	1.4251908
84	0x4061ebea	3.530024
85	0xbf80411f	-1.0019873
86	0x3fac8f84	1.3481297
87	0xc0b026b5	-5.504725
88	0xbe07d783	-0.13265805
89	0x4033266d	2.7992203
90	0xbf9c2f04	-1.2201848
91	0x407985b5	3.8987858
92	0x3e0768b0	0.13223529
93	0x3f94f459	1.1637069
94	0x3ff2bda1	1.896412
95	0xbe9b2e01	-0.30308536
96	0x4038e720	2.8891068
97	0xbe96741f	-0.29385468
98	0x404fabd2	3.244862
99	0x3e8d38a0	0.27582264
100	0x3fa1af3f	1.2631606
101	0xbf2eaba7	-0.6823067
102	0xbfc8547e	-1.5650785
103	0x3ff2c9a8	1.8967791
104	0x4033c12e	2.8086658
105	0xbefe58d9	-0.4967716
106	0x3f478e00	0.7795105
107	0x4036f28e	2.8585544
108	0xbfc542cc	-1.541101
109	0xbef25018	-0.47326732
110	0x3f722045	0.9458049
111	0x40a9d956	5.3077803
112	0x3fda24f4	1.7042527
113	0xbf2bc1ea	-0.67092764
114	0xbe931a05	-0.2873079
115	0x3fb5335f	1.4156302
116	0xbf92f2d6	-1.1480358
117	0x3fc63c3a	1.548713
118	0xbeeaebf9	-0.45883158
119	0x40857a0e	4.1711493
120	0x3fc8c2a2	1.5684397
121	0x3ec2ce6a	0.38048106
122	0xbfff0c65	-1.9925658
123	0x3f069eb6	0.52585924
124	0x3f023dd2	0.5087558
125	0xc03ac9df	-2.9185712
126	0xbeeb4713	-0.45952663
127	0xbe52ab8b	-0.20573251

linear_relu_stack.3.running_var f4 [128]
0	0x3f0c36a9	0.54770905
1	0x3f7f5726	0.9974235
2	0x3e90137e	0.2813987
3	0x3f4d6365	0.8022979
4	0x3ee77fa9	0.45214584
5	0x3f3c60f6	0.7358545
6	0x3ef5b22f	0.47987506
7	0x3f0892ee	0.53349197
8	0x3f30569e	0.6888217
9	0x3eed0ea1	0.46300223
10	0x3e5d2daa	0.2159945
11	0x3ef63b36	0.4809205
12	0x3f8fc090	1.123064
13	0x3e8e36be	0.2777614
14	0x3ed1d8cf	0.40985724
15	0x3f38b7db	0.7215554
16	0x3ee45324	0.4459468
17	0x3f2fb0cd	0.6862915
18	0x3e8dab3d	0.27669707
19	0x3da7c1ae	0.08191238
20	0x3ecfde78	0.40599418
21	0x3ecf9f35	0.40551153
22	0x3edf63c1	0.43630794
23	0x3efb1b07	0.49044058
24	0x3f73b103	0.95191973
25	0x3f1e1f4f	0.61766523
26	0x3ea31cdf	0.31857964
27	0x3f2c051e	0.6719531
28	0x3e134976	0.14383492
29	0x3efc2c20	0.49252415
30	0x3f86d964	1.0535092
31	0x3f9e99e4	1.2390714
32	0x3ea1db20	0.31612492
33	0x3e8c3d38	0.27390456
34	0x3e60a88b	0.21939294
35	0x3f018f3b	0.5060918
36	0x3eb005fd	0.3437957
37	0x3e9dbd8f	0.30808684
38	0x3f673b15	0.9032453
39	0x3e91ae36	0.28453225
40	0x3f7027d7	0.9381079
41	0x3f67c0f0	0.90528774
42	0x3e2d8087	0.1694356
43	0x3eae2add	0.34017077
44	0x3f40ceb7	0.7531542
45	0x3e96d04f	0.29455802
46	0x3f0400fc	0.51564
47	0x3f30d8d1	0.69080836
48	0x3f0804bf	0.5313224
49	0x3ec26201	0.37965396
50	0x3f565a94	0.8373196
51	0x3d5743c0	0.052554846
52	0x3ebe37bd	0.371519
53	0x3f472d80	0.778038
54	0x3f122363	0.57085246
55	0x3e8124a5	0.2522327
56	0x3f10bbbd	0.56536466
57	0x3e9960a2	0.29956537
58	0x3e6fe0f1	0.23425652
59	0x3f132134	0.5747254
60	0x3f75de62	0.96042454
61	0x3ec297fb	0.38006577
62	0x3e9c0fdc	0.3048085
63	0x3f09dbfb	0.5385129
64	0x3f224ca4	0.63398194
65	0x3f072b5b	0.5280053
66	0x3f66d864	0.90173936
67	0x3ea32210	0.31861925
68	0x3e20e95e	0.15714023
69	0x3ea7c4d4	0.32767355
70	0x3eb8c294	0.3608595
71	0x3e8f6536	0.28006905
72	0x3e22d6d4	0.15902263
73	0x3ee489e6	0.44636458
74	0x3e9dba4a	0.3080619
75	0x3ea4f047	0.32214567
76	0x3f0d11f2	0.5510551
77	0x3f95050b	1.1642164
78	0x3f0553bd	0.520809
79	0x3f2f727d	0.6853407
80	0x3ead1e4e	0.33812183
81	0x3e85a741	0.26104167
82	0x3f009caa	0.5023905
83	0x3eb4f71b	0.35344777
84	0x3eef3c77	0.4672582
85	0x3f0e6846	0.5562786
86	0x3ea0960c	0.31364477
87	0x3f41f0c9	0.75758034
88	0x3f616240	0.8804054
89	0x3f430a94	0.76188016
90	0x3e8745cc	0.26420438
91	0x3f5438b6	0.82899034
92	0x3f1b7704	0.6072848
93	0x3dffe8d5	0.12495581
94	0x3f5f5f3b	0.87254685
95	0x3f80217a	1.0010216
96	0x3f3749e6	0.71597135
97	0x3f3283b8	0.69732237
98	0x3eaed3ee	0.34146065
99	0x3ef9e5f7	0.48808262
100	0x3e671175	0.22565253
101	0x3ee00504	0.43753827
102	0x3f2c55b3	0.67318267
103	0x3f1f4a5d	0.62222844
104	0x3f00fbae	0.5038403
105	0x3ed25f20	0.410882
106	0x3f495120	0.7863941
107	0x3f19a472	0.6001655
108	0x3eadc519	0.33939436
109	0x3f1af480	0.6052933
110	0x3e745603	0.23860936
111	0x3ee377b0	0.44427252
112	0x3e5fc6e7	0.21853219
113	0x3eda6722	0.4265681
114	0x3f0ce308	0.5503392
115	0x3ead9d85	0.3390924
116	0x3fa1b365	1.2632872
117	0x3e078791	0.13235308
118	0x3fbc866a	1.472852
119	0x3f0702aa	0.5273844
120	0x3f6effe8	0.9335923
121	0x3db1f004	0.086883575
122	0x3f1fa670	0.6236334
123	0x3edeb44f	0.4349694
124	0x3f4e13cd	0.80498964
125	0x3f8d8c52	1.1058447
126	0x3f372595	0.7154172
127	0x3eb2246f	0.34793422

linear_relu_stack.5.weight f4 [256, 128]
0	0x3e2fab79	0.17155255
1	0xbf5557e5	-0.8333724
2	0xbe8e9a80	-0.2785225
3	0x3f1c13a4	0.6096747
4	0x3ec0dce4	0.37668526
5	0xbf0be2de	-0.54643047
6	0xbda5b282	-0.08090688
7	0x3f2316e8	0.6370683
8	0xbab64583	-0.0013906214
9	0x3ed09291	0.4073682
10	0x3e8ab129	0.27088287
11	0x3e2c2f35	0.16814883
12	0xbe0e40d2	-0.13891914
13	0xbc58c9fe	-0.013231752
14	0xbe9eb004	-0.30993664
15	0xbf1629b9	-0.58657414
16	0xbda368ff	-0.07979011
17	0x3e2f4f0f	0.17120002
18	0x3e2bc4ac	0.16774243
19	0x3e051a2f	0.1299827
20	0x3dac9c11	0.08428205
21	0x3c461378	0.012089603
22	0xbc5ace50	-0.013354853
23	0xbe5ab5e6	-0.21358451
24	0xbf6548e7	-0.89564365
25	0x3cc5aaa6	0.024129223
26	0x3f6993b7	0.9124102
27	0xbf02aa30	-0.51040936
28	0x3d795ea0	0.060881257
29	0x3e03ba54	0.12864047
30	0xbf8c7df8	-1.0975943
31	0xbe8d48b5	-0.27594534
32	0x3e4206ad	0.18947859
33	0x3f076be5	0.5289901
34	0xbe06da2f	-0.13169168
35	0xbcceee1c	-0.025260024
36	0x3ebaaae9	0.3645852
37	0xbf3ed201	-0.7453919
38	0x3f019273	0.5061409
39	0x3edce8f0	0.43146467
40	0x3f0ad44f	0.5423021
41	0xbec02c1e	-0.3753366
42	0x3e2ccbce	0.1687462
43	0x3f149e51	0.5805407
44	0xbeda9cae	-0.42697662
45	0xbdc79238	-0.09744686
46	0xbea929da	-0.33039743
47	0x3e13526d	0.14386912
48	0xbf0f45c7	-0.55965847
49	0x3cf490b2	0.029854152
50	0x3e3e26fd	0.1856956
51	0xbf029f63	-0.51024455
52	0xbf363178	-0.71169233
53	0xbdcb3bb9	-0.099235006
54	0x3f83f795	1.0309931
55	0x3ea7c1fb	0.32765183
56	0xbdd83702	-0.10557367
57	0x3d8f3f7a	0.06994529
58	0xbdb30688	-0.0874148
59	0x3e784e80	0.24248695
60	0x3ee8eeef	0.45494792
61	0xbec4d0a1	-0.3844042
62	0x3f33b706	0.70201147
63	0xbf005d85	-0.501427
64	0x3f07fae8	0.5311723
65	0xbe44f26e	-0.19233105
66	0x3cf00960	0.029301345
67	0x3e50ff56	0.20409903
68	0x3dd62238	0.104557455
69	0x3eec23b4	0.4612099
70	0x3e603c65	0.21898039
71	0xbede4850	-0.43414545
72	0xbe85e7b8	-0.2615335
73	0xbe32cf85	-0.17461975
74	0xbdb431e2	-0.08798577
75	0x3f016ba2	0.5055486
76	0x3e28340b	0.16426103
77	0x3d32ca07	0.0436497
78	0x3ddc4d3c	0.10756919
79	0x3e83cbce	0.25741428
80	0x3dba8bec	0.09108719
81	0x3eb27c10	0.34860277
82	0x3ed3adfd	0.4134368
83	0xbec9118b	-0.39271197
84	0xbd7fe1dd	-0.06247126
85	0x3f193c88	0.5985799
86	0x3f510340	0.81645584
87	0x3ef0a000	0.4699707
88	0xbf41aa9a	-0.7565094
89	0x3f9bfdd8	1.2186842
90	0x3eeb7756	0.45989484
91	0x3f05019d	0.51955587
92	0x3eb1b1a5	0.34705845
93	0x3cd7aff5	0.02632902
94	0x3ebdb2e4	0.37050545
95	0xbf2c3eab	-0.67283124
96	0xbf56581c	-0.83728194
97	0xbf0c8562	-0.54891026
98	0x3ebf3939	0.37348345
99	0x3f0918b9	0.5355335
100	0x3f1498ad	0.58045465
101	0xbea2737f	-0.31728742
102	0xbebcbc5f	-0.36862466
103	0x3dd6f7a9	0.10496456
104	0x3e9ffc80	0.3124733
105	0x3e0f3a1a	0.13987008
106	0x3d226878	0.03965041
107	0x3e44c757	0.19216667
108	0x3fc90369	1.5704166
109	0x3e859151	0.2608743
110	0x3f6f014b	0.9336135
111	0x3e19f4a1	0.15034725
112	0x3e213100	0.15741348
113	0xbe2993de	-0.16560313
114	0xbc9c9f6a	-0.019118983
115	0x3f4c67da	0.79845965
116	0xbdfca564	-0.12336233
117	0x3d29753f	0.04137158
118	0xbda853e8	-0.08219129
119	0x3eed3f05	0.46337143
120	0x3d5e0e3c	0.054212794
121	0x3e30edfd	0.17278285
122	0xbe062695	-0.13100655
123	0xbe986a64	-0.2976867
124	0x3ee46708	0.44609857
125	0xbf0ca964	-0.5494597
126	0x3f15c753	0.5850727
127	0xbd9c0449	-0.07618005
128	0x3fe1affd	1.7631832
129	0xbe71d497	-0.23616253
130	0x3f8f463a	1.1193306
131	0xbf7ac7c7	-0.97961086
132	0xbfbfe233	-1.4990906
133	0xbe1b1226	-0.15143642
134	0x3f217b9b	0.6307923
135	0xbf7c1fd2	-0.98486054
136	0xbf6e6a2b	-0.9313075
137	0xbf9cf251	-1.2261449
138	0x3ed2c7f6	0.41168183
139	0xbf92ac6d	-1.145887
140	0xbc8c17fc	-0.01710128
141	0xbf7d563d	-0.98959714
142	0xbd20f51c	-0.039296255
143	0xbf2abc47	-0.6669354
144	0x3eceacec	0.40366304
145	0xbfb68f0e	-1.4262407
146	0xbec103b4	-0.37698138
147	0x3edc9e1a	0.43089372
148	0x3e773cfc	0.24144357
149	0x3f8bf774	1.0934892
150	0xbc102ee4	-0.008800242
151	0x3f41a3ca	0.7564055
152	0xbf2152ab	-0.63016766
153	0x3d983aba	0.07433076
154	0x3f8f2e93	1.1186088
155	0x3f000b46	0.500172
156	0xbe652fbb	-0.22381489
157	0xbf286ebf	-0.65793985
158	0x3f30ab71	0.690116
159	0x3dbd54f8	0.09244722
160	0x3f73f129	0.95289856
161	0x3dd50554	0.10401407
162	0xbd0572c0	-0.032580137
163	0x3f161c23	0.58636683
164	0x3dd0f4e4	0.10202959
165	0x3e95c42f	0.2925124
166	0xbf90aa36	-1.1301944
167	0xbf281729	-0.6566034
168	0xbdef399d	-0.11680911
169	0xbee9833a	-0.4560793
170	0x3d668604	0.05628015
171	0xbfbe9db8	-1.4891882
172	0x3e55ecb0	0.2089107
173	0xbed78c50	-0.42099237
174	0xbfb396a8	-1.4030352
175	0xbe9f7dde	-0.31150717
176	0x3f629e56	0.8852285
177	0x3dc8addd	0.09798787
178	0x3f19afa8	0.60033655
179	0xbe103457	-0.14082466
180	0x3f17db60	0.59319115
181	0xbf9f3005	-1.2436529
182	0x3e544710	0.20730233
183	0x3cc58de5	0.024115512
184	0xbfd21f1c	-1.6415744
185	0xbe9db92e	-0.30805343
186	0xbf380e82	-0.7189714
187	0xbef986c0	-0.4873562
188	0x3eb56ce4	0.3543464
189	0xbfe329ad	-1.7747093
190	0x3ecf3e2b	0.40477118
191	0x3e449fcb	0.19201581
192	0xbdb8cb52	-0.09023155
193	0xbfe4fee5	-1.7890288
194	0x3d21a2cb	0.039461892
195	0x3a958a30	0.0011408981
196	0xbda5d4ed	-0.08097253
197	0x3e691972	0.22763613
198	0xbdfc9361	-0.12332798
199	0xbe3f1fe7	-0.18664514
200	0x3f247180	0.6423569
201	0xbf41b85e	-0.75671947
202	0xbf719c25	-0.9437888
203	0xbf34fd14	-0.70698667
204	0xbfbe3fc2	-1.4863207
205	0xbfdf0a80	-1.7425079
206	0x3de36c5e	0.11104654
207	0x3dd8b4a0	0.105813265
208	0x3d1ece4e	0.038770966
209	0x3ec4be21	0.38426307
210	0xbebadbf3	-0.36495933
211	0x3f9ef5ad	1.2418724
212	0x3f5d4a4d	0.864415
213	0xbfa387bd	-1.2775799
214	0x3eb90fc3	0.36144838
215	0xbf87663d	-1.0578076
216	0x3e95ee04	0.29283154
217	0xbdf5c573	-0.12000551
218	0xbf1888e7	-0.59583896
219	0xbdd10d74	-0.10207644
220	0xbfc30ca5	-1.5238234
221	0x3e75e0c5	0.24011524
222	0xbfc34d09	-1.5257884
223	0x3f1aefba	0.60522044
224	0xbf809ffb	-1.0048822
225	0xbf11ba18	-0.5692458
226	0xbf5e4c62	-0.868353
227	0x3ffdea9a	1.983722
228	0xbe33f567	-0.17574082
229	0x3f94e2f2	1.1631758
230	0xbefd8825	-0.49517933
231	0xbe15ac26	-0.1461645
232	0xbfbdc4cb	-1.4825681
233	0xbf2dcfc3	-0.67895144
234	0xbfef4145	-1.8691794
235	0xc007bee2	-2.1210256
236	0xbef1fe50	-0.47264338
237	0xbfdeb12a	-1.7397816
238	0xbe9d1c12	-0.30685478
239	0xbf5e4952	-0.8683063
240	0x3fb78ca6	1.4339797
241	0x3e240108	0.16016018
242	0x3f912142	1.1338274
243	0x3f391e63	0.7231199
244	0xbf65e22e	-0.8979825
245	0xbec264e9	-0.37967613
246	0xbf9ef3b7	-1.2418126
247	0xbfc295d9	-1.520198
248	0x3d66e983	0.056375038
249	0xbd81fb0b	-0.06346711
250	0x3f5f1446	0.8714031
251	0x3e5bda72	0.21470049
252	0xbefbce37	-0.49180767
253	0xbee26776	-0.4421956
254	0x3f0d72ac	0.552531
255	0xbe886b0a	-0.26644164

linear_relu_stack.5.bias f4 [256]
0	0xbd1d3c58	-0.038387626
1	0xbd733bf9	-0.059383366
2	0xbc4af30e	-0.01238705
3	0xbc8e18df	-0.017345844
4	0xbcb16688	-0.021655336
5	0x3cef0447	0.029176844
6	0xbd6c4193	-0.057679724
7	0x3964529c	0.00021774549
8	0xbd8de3f1	-0.06928242
9	0xbd70fa4b	-0.058832448
10	0xbdea4324	-0.11438587
11	0x3ddf71db	0.10910388
12	0xbd9e40c9	-0.077272005
13	0x3cd2719d	0.02568894
14	0xbdcd0a07	-0.10011678
15	0x3ccab5c3	0.024744874
16	0x3aeeeb8a	0.0018228155
17	0x3d88500c	0.06655893
18	0x3da7b190	0.08188164
19	0x3c9ea456	0.01936547
20	0x3d5b206f	0.053497728
21	0x3dc54fed	0.09634385
22	0xbdcfd086	-0.101471946
23	0x3d1fae72	0.038984723
24	0xbdc466c1	-0.09589911
25	0xbdaa7d17	-0.0832464
26	0x3d9eb5c2	0.07749511
27	0xbd2683ef	-0.040653165
28	0x3c76e68e	0.015069617
29	0x3c3e291b	0.01160648
30	0x3d8993a0	0.0671761
31	0x3d5b0d4b	0.053479474
32	0xbc9960c4	-0.0187229
33	0x3d7d6fb0	0.06187409
34	0xbd655c9c	-0.055996522
35	0xbd089d49	-0.033353124
36	0x3d522bad	0.051311184
37	0x3d2eb910	0.042656958
38	0xbd1a23eb	-0.03763191
39	0x3d5033e4	0.050830737
40	0xbc67bf6c	-0.01414476
41	0xbcb09a7d	-0.02155804
42	0x3d446f63	0.04795779
43	0xbd606788	-0.054786235
44	0xbd62bebb	-0.055357676
45	0xbd5e88af	-0.05432957
46	0xbd42f9a2	-0.04760135
47	0x3c8deb22	0.017324034
48	0x3ce56778	0.02800344
49	0xbc6d7704	-0.014493708
50	0x3cd6a4b1	0.026201578
51	0x3d9efb2a	0.077627495
52	0x3d4058f5	0.046959836
53	0x3b5377d0	0.0032267459
54	0xbd6d36ee	-0.057913713
55	0xbd50d266	-0.0509819
56	0xbdaa8756	-0.083265945
57	0x3d4e8d8e	0.050427966
58	0xbcb8110a	-0.022469062
59	0xba8370b8	-0.00100281
60	0xbd7078ec	-0.05870907
61	0xbce21a1f	-0.027600346
62	0x3c9ea4b6	0.01936565
63	0x3cbaf22f	0.02282056
64	0x3dea1f64	0.114317685
65	0x3cbffcf1	0.023436042
66	0xbbaf0058	-0.005340617
67	0xbcf208cc	-0.02954521
68	0x3dafed9f	0.085902445
69	0x3cb60a14	0.022221602
70	0x3d4b12b1	0.049578372
71	0x3dcbd16f	0.09952056
72	0x3b242307	0.0025045292
73	0x3da56ef7	0.080778055
74	0xbd4ed6c6	-0.050497793
75	0xbbda6c48	-0.00666574
76	0x3d82ea3c	0.06392333
77	0x3d5513e2	0.052020915
78	0x3b316269	0.0027066714
79	0x3d98afe8	0.074554265
80	0x3d7bb198	0.061448663
81	0x3d69eb07	0.057108905
82	0x3d8d9d16	0.069147274
83	0xbd88e19b	-0.06683656
84	0xbb98a63a	-0.0046584876
85	0xbd2cde96	-0.042204462
86	0xbd855627	-0.06510573
87	0x3cac50dd	0.021034652
88	0xbdc00448	-0.093758166
89	0x3cec34a0	0.028833687
90	0xbdb2ae51	-0.087246545
91	0xbd5d2693	-0.053991865
92	0x3cd25ca0	0.025678933
93	0x3caa9f68	0.020827964
94	0xbc63f28f	-0.013912811
95	0xbac9908b	-0.001537816
96	0x3cbe2d66	0.023215007
97	0x3d5a28b2	0.053261466
98	0xbc4a3b68	-0.012343265
99	0xbc9c946a	-0.019113738
100	0xbd9c28d5	-0.076249756
101	0xbd5d0dc9	-0.053968225
102	0x3d36a3a2	0.044589646
103	0x3ce15db2	0.027510498
104	0xbd62413b	-0.05523799
105	0x3db7ab29	0.08968193
106	0x3d821d77	0.06353276
107	0x3d7d035f	0.061770793
108	0xbdb57e09	-0.0886193
109	0xbbddd14d	-0.0067693354
110	0xbd8d84b1	-0.069100745
111	0x3cb002f2	0.02148578
112	0x3cc41a4c	0.02393832
113	0xbcf2ac8d	-0.029623294
114	0x3d44f90b	0.04808907
115	0xbd5fe94e	-0.054665856
116	0x3d3ea75a	0.046546318
117	0x3d1ad1a0	0.03779757
118	0x3dbc58d6	0.091966316
119	0x3d5b8017	0.053588953
120	0xbd137972	-0.03600449
121	0x3d6fada6	0.058515213
122	0x3d223516	0.039601408
123	0xbc891a20	-0.01673609
124	0x3d7959a3	0.0608765
125	0x3bbee3ed	0.0058255107
126	0x3d0a4184	0.033753887
127	0xbd03d13b	-0.03218196
128	0xbc36ccaf	-0.011157199
129	0xbd2b8ebf	-0.04188418
130	0x3ca3432a	0.019929487
131	0xbd86083b	-0.065445386
132	0xbd97d3e3	-0.07413461
133	0x3d030ce6	0.031994723
134	0x3b9c79aa	0.0047752457
135	0xbcf35012	-0.029701266
136	0xbbfc4cbf	-0.0076995785
137	0x3d0dd37e	0.034625523
138	0xbdea14c2	-0.114297405
139	0xbc38822b	-0.011261503
140	0xbd8b708d	-0.06808577
141	0x3ca8fa28	0.020627096
142	0xbd61cbbc	-0.055125937
143	0xbbef256e	-0.007298163
144	0xbcefec5c	-0.02928751
145	0xbc1b1cc5	-0.009467308
146	0xbd45ce05	-0.04829218
147	0xbcdb0646	-0.02673639
148	0xbd0a7689	-0.03380445
149	0x3cfb3221	0.030663552
150	0xbb7443a1	-0.0037271755
151	0x3d06b432	0.03288669
152	0xbce9f397	-0.028558536
153	0x3d6701c8	0.056398183
154	0xbd3cfd96	-0.046140276
155	0xbd25549a	-0.040363885
156	0x3c2004e7	0.009766794
157	0xbda0b3b8	-0.07846779
158	0x3d8808d0	0.06642306
159	0x3cbe975e	0.023265537
160	0xbd07c937	-0.033150878
161	0x3d0767cf	0.033057984
162	0xbda280a2	-0.07934691
163	0x3c0018ff	0.0078184595
164	0xbdc10f24	-0.09426716
165	0x3d49ae7b	0.049238663
166	0x3d687f77	0.056762185
167	0x3d984103	0.07434275
168	0xbd3839c4	-0.044976965
169	0x3d9bc655	0.07606188
170	0x3cd66d9a	0.026175309
171	0xbb118ff7	-0.0022211054
172	0x3d6f6555	0.058446247
173	0xbb82f4c9	-0.003996466
174	0xbca6282c	-0.020282827
175	0xbd54ac77	-0.051922288
176	0x3d5f86b9	0.05457184
177	0x3da50ea4	0.08059433
178	0x3ca0e167	0.01963873
179	0xbcca6c1f	-0.02470976
180	0xbd286b05	-0.041117687
181	0xbd0bab5d	-0.03409897
182	0x3ccc7ae1	0.024960937
183	0xbce37ff8	-0.027770981
184	0xbd908bb8	-0.07057899
185	0x3c69a2e6	0.014260029
186	0xbd215cbb	-0.039395075
187	0xbc703a55	-0.014662345
188	0x3d4534be	0.048146002
189	0x3d80a2d3	0.06281056
190	0x3c85f52a	0.016352255
191	0x3c3344da	0.010941708
192	0x3d80b338	0.06284183
193	0x3d3ec6ca	0.0465763
194	0x3ad65fde	0.0016355475
195	0xbd7aa2cd	-0.061190415
196	0x3d322c02	0.043499
197	0x3c3697ce	0.0111445915
198	0x3d38718b	0.045030158
199	0xbd2f8b8a	-0.042857684
200	0x3b89ceee	0.004205576
201	0x3cba4afd	0.022740835
202	0xbceb5207	-0.028725637
203	0xbd3c23af	-0.045932468
204	0xbcfdf1a9	-0.030999022
205	0x3da3bbfc	0.079948395
206	0x3c33e95e	0.010980932
207	0x3d84fb32	0.06493224
208	0xbd1f029f	-0.03882086
209	0xbd976cd1	-0.07393802
210	0xbdb8fda0	-0.0903275
211	0xbdab7528	-0.08371955
212	0x3d10df0a	0.035368957
213	0x3a391550	0.0007060366
214	0x3bbdaa99	0.005788159
215	0x3b7e54cb	0.0038807865
216	0x3cec7015	0.028862039
217	0xbd461d84	-0.048367992
218	0xbd28df9e	-0.041228883
219	0xbcdd3f98	-0.027007863
220	0x3d59809b	0.053101163
221	0x3d38c67a	0.045111157
222	0x3d9424b6	0.072335646
223	0x3d932cc2	0.07186271
224	0x3cc0d8b8	0.02354084
225	0x3d85783b	0.06517073
226	0xbd83f78f	-0.064437024
227	0xbd117de2	-0.03552044
228	0x3d63029a	0.055422403
229	0xbd8296a3	-0.06376388
230	0xbd69dfc8	-0.05709818
231	0xbddcb00d	-0.107757665
232	0x3d1c774c	0.038199708
233	0xbda15498	-0.07877463
234	0xbc552682	-0.013009669
235	0x3d9a90fa	0.07547183
236	0xbcf9b28b	-0.030480644
237	0xbb4bf20d	-0.0031119615
238	0xbd6c2cf2	-0.05766005
239	0xbb9d20fd	-0.0047951923
240	0x3c3e005f	0.011596768
241	0x3cede1ae	0.029038277
242	0xbcf3c214	-0.02975563
243	0xbd43d2d1	-0.047808472
244	0x3d59c4de	0.053166263
245	0x3caa211f	0.020767746
246	0xbbaa4a0e	-0.0051968163
247	0xbd8b6fef	-0.06808459
248	0xbd6950e8	-0.056961924
249	0x3b4e4616	0.003147488
250	0x3c229353	0.00992282
251	0x3cecd6f7	0.028911097
252	0xbbd8b85c	-0.006613774
253	0x3d535068	0.051590353
254	0xbcec603d	-0.028854484
255	0xbc86c31e	-0.016450461
