amostras/resultados/discrimation-flow-dataset/4/fgsm/PyTorchClassifier.model (torch, 206184 bytes, 22 tensors)

linear_relu_stack.0.weight f4 [64, 20]
0	0x3de458dd	0.11149762
1	0x3e432935	0.19058688
2	0xbe19fed9	-0.15038623
3	0xbc9e519d	-0.019326026
4	0x3d95a290	0.07306397
5	0xbf62f724	-0.88658357
6	0x3c642e54	0.013927061
7	0x3d9553e7	0.07291394
8	0x3e0874df	0.13325833
9	0x3cda51ca	0.026650328
10	0x3e4f89c8	0.20267403
11	0xbe0cadd6	-0.13738188
12	0xbeaaf000	-0.3338623
13	0xbe9417dc	-0.28924453
14	0xbe0b4c20	-0.13603258
15	0x3e9eb754	0.30999243
16	0xbe8b8cfe	-0.27256006
17	0xbd3867d8	-0.045020908
18	0xbebd4073	-0.36963233
19	0xbe35109c	-0.17682117
20	0x3f280b1b	0.65641946
21	0x3f18485c	0.5948541
22	0x3ed59293	0.4171339
23	0x3f7cc923	0.9874441
24	0xc0669ab9	-3.6031935
25	0x3ea204fd	0.3164443
26	0xbeb59d49	-0.35471562
27	0x3e62ac06	0.22135934
28	0x3f1353af	0.57549566
29	0xc0282243	-2.6270912
30	0xbfe03b32	-1.7518065
31	0xbef4a53e	-0.4778232
32	0x3fd5b561	1.6695977
33	0x3f8481d8	1.0352125
34	0xbdb6d4a8	-0.0892728
35	0xbfdd3c24	-1.7283978
36	0xbf261225	-0.64871436
37	0x3fbacb01	1.4593202
38	0x3f53f918	0.8280196
39	0xbe8558de	-0.26044363
40	0xbd49dc01	-0.049282078
41	0x3e2b38c7	0.16720878
42	0xbe06d4b1	-0.13167073
43	0x3e43b62b	0.1911246
44	0xbee662cc	-0.4499725
45	0xbf01e9d7	-0.50747436
46	0xbf8a865f	-1.0822257
47	0xbee69722	-0.4503718
48	0x3f2ab7af	0.6668653
49	0xbf319aa0	-0.69376564
50	0x3e9c7788	0.30559945
51	0xbf127de4	-0.57223344
52	0x3f60d6ef	0.8782796
53	0xbffaa173	-1.958052
54	0xbec3ad2a	-0.3821805
55	0x3ebe5c19	0.3717964
56	0xbf102228	-0.5630212
57	0x3f03d1e6	0.51492155
58	0xbfe29588	-1.7701883
59	0xbf01f9a7	-0.50771564
60	0xbdfc35a7	-0.12314921
61	0xbea298a0	-0.3175707
62	0xbf28fac2	-0.66007626
63	0xbf1c6dae	-0.6110486
64	0x3ded8efb	0.11599537
65	0xbead47d3	-0.3384386
66	0x3cbb9f91	0.022903236
67	0xbeb5fac9	-0.35542896
68	0x3e66b6d8	0.22530687
69	0xbda2f882	-0.07957555
70	0xbeb0d4ad	-0.3453726
71	0x400307bd	2.0473473
72	0x3f2cd422	0.6751119
73	0xbfd30696	-1.6486385
74	0x3d738d8c	0.05946116
75	0xbf25b090	-0.6472254
76	0x3fd8cd05	1.6937567
77	0x3f145663	0.57944316
78	0xbfbc8f60	-1.4731255
79	0x3d81b78a	0.063338354
80	0x3e55cab5	0.20878108
81	0xc09a5b18	-4.82362
82	0xbe7b71ca	-0.24555126
83	0x3e2b4b65	0.1672798
84	0xbdcfc880	-0.10145664
85	0x3ec88b2d	0.39168683
86	0xc1645222	-14.270052
87	0x3dd2365a	0.10264273
88	0x3e8f6d5b	0.2801312
89	0x3d7323f9	0.059360478
90	0xbf9bb314	-1.2164025
91	0x3f4ebf38	0.80760527
92	0xbe7f7d5f	-0.24950169
93	0x3e4e6054	0.20153934
94	0xbce67e2b	-0.028136333
95	0xbf991747	-1.1960229
96	0x3f4104fb	0.75398225
97	0xbea462b1	-0.32106546
98	0x3e968601	0.29399112
99	0x3e69d533	0.22835235
100	0xbed5ed94	-0.4178282
101	0x4057b205	3.3702404
102	0xbf6b9441	-0.9202309
103	0xc0c2140b	-6.0649467
104	0x3e90bd2f	0.28269336
105	0x3e9171ec	0.28407228
106	0xbeee0bd6	-0.46493405
107	0x3ec966c9	0.3933623
108	0x3ea2fc00	0.31832886
109	0xbeb58994	-0.35456526
110	0x41781ac3	15.506534
111	0xc191e89d	-18.23858
112	0xbf6efc18	-0.93353415
113	0xc1637ca7	-14.217933
114	0xbf847007	-1.0346688
115	0x417b6850	15.712967
116	0xc191743d	-18.181757
117	0xbf80cf33	-1.0063232
118	0xc165f53b	-14.372371
119	0xbf7278b5	-0.94715434
120	0x3d32f373	0.043689203
121	0x3cad3744	0.021144517
122	0x3e7e46f1	0.2483175
123	0xbe95a9a6	-0.29230994
124	0x3ddf30d5	0.10897986
125	0x3ec47852	0.38373047
126	0x3cdbbf97	0.026824756
127	0xbf19b717	-0.60045
128	0x3f15298b	0.58266515
129	0xbbf956cc	-0.007609224
130	0x3ff4f357	1.9136761
131	0xc1bc7139	-23.555285
132	0xc0e42038	-7.128933
133	0x3f4c85b9	0.79891545
134	0x3ebbdf90	0.36694002
135	0x3ffa83a1	1.957142
136	0xc1bde3b4	-23.736183
137	0xc0e8ab2d	-7.2708955
138	0x3f89894c	1.0745025
139	0x3e84e197	0.2595336
140	0x3e15e3d5	0.14637692
141	0x3e1b51e1	0.15167953
142	0xbe9acb75	-0.3023335
143	0x3e00bd25	0.12572153
144	0x3d667cfb	0.056271534
145	0xbf8bb46e	-1.0914438
146	0x3d35b404	0.04436113
147	0x3dda1c4e	0.1064993
148	0x3cb0d0c1	0.021583917
149	0x3bc48eb8	0.0059984587
150	0x3e99c275	0.3003117
151	0xbc6039ab	-0.013685624
152	0x3e1437dd	0.14474435
153	0xbc1858aa	-0.009298483
154	0xbc333d1c	-0.010939863
155	0x3c9f8875	0.019474247
156	0x3e6d1fd1	0.23156668
157	0xbe3ad9b5	-0.18247111
158	0xbed1c4c1	-0.40970424
159	0x3dce9e17	0.10088747
160	0xbdd57cca	-0.10424192
161	0xbb845fc7	-0.004039738
162	0xbec11360	-0.37710094
163	0xbe53aae0	-0.20670652
164	0xbe9e9dc4	-0.3097974
165	0xbec5d92e	-0.38642257
166	0xbe4fb9d1	-0.20285727
167	0x3e267a27	0.16257535
168	0x3e51f05e	0.20501849
169	0xbdf23d29	-0.118280716
170	0xbce3bfc2	-0.027801398
171	0x3f191e5f	0.5981197
172	0xbecee27c	-0.4040717
173	0xbea36636	-0.31913918
174	0x3f84699b	1.0344728
175	0xbdb35f52	-0.08758415
176	0x3f6c0d4d	0.92207795
177	0xbed669ff	-0.41877744
178	0xbe9f0c62	-0.31064135
179	0x3f8823da	1.0635941
180	0xbdf9833e	-0.121832356
181	0x3c29217f	0.0103229275
182	0xbf48ed82	-0.7848741
183	0x3f5b973d	0.85777646
184	0xbdb274e7	-0.087137036
185	0x3ea820d5	0.3283755
186	0xbe40f369	-0.18842854
187	0xbeb4447e	-0.35208505
188	0x3f0d2bb6	0.5514482
189	0xbde33a29	-0.110950775
190	0x3e3bf969	0.18356861
191	0x3de19f15	0.110166706
192	0x3eb9dfc3	0.3630353
193	0xbf1c9985	-0.6117175
194	0x3d30a290	0.04312378
195	0x3f07e98a	0.5309073
196	0xbdbb19c2	-0.09135772
197	0x3ecb24ca	0.39676505
198	0xbf301146	-0.6877636
199	0xbe6bfa2b	-0.2304465
200	0x3e3dad53	0.18523149
201	0xbe8380ee	-0.25684303
202	0x3ecaaff7	0.39587376
203	0xbe334f07	-0.17510615
204	0xbc912cce	-0.01772156
205	0xbf0a4c21	-0.54022413
206	0x3d37eb70	0.044902265
207	0xbcb0202b	-0.021499714
208	0x3d175fb4	0.036956504
209	0xbcbb42e9	-0.022859054
210	0x3e2e7cd9	0.17039813
211	0xbf41e805	-0.7574466
212	0x3d793e13	0.060850214
213	0x3e9a7ced	0.30173436
214	0x3ad17390	0.0015979875
215	0x3dd0d6a5	0.1019719
216	0xbf5cb665	-0.8621581
217	0xbde48edf	-0.11160063
218	0xbe041bce	-0.12901232
219	0xbe324dde	-0.17412516
220	0x3e61c5ab	0.2204806
221	0x3e8ec6fb	0.27886185
222	0x3e304d87	0.17217074
223	0xbe119e83	-0.14220624
224	0xbe16b5e7	-0.14717828
225	0xbeba824b	-0.3642753
226	0x3d45dfc6	0.04830911
227	0xbdbc4214	-0.09192291
228	0x3d869fb6	0.06573431
229	0xbdcf0b5d	-0.10109589
230	0xbdc0d5d7	-0.09415787
231	0xbef0c539	-0.4702547
232	0x3f1a7dd6	0.6034826
233	0xbe377471	-0.17915513
234	0x3cf5fee0	0.03002876
235	0xbd30f3b4	-0.043201163
236	0xbf431f85	-0.7621997
237	0x3eb976c3	0.3622342
238	0xbd909901	-0.07060433
239	0x3d89efca	0.06735189
240	0x3e902304	0.28151715
241	0xbf0af289	-0.5427633
242	0x3db93ef9	0.09045214
243	0x3eeb0d44	0.45908558
244	0x3d2c4a71	0.04206318
245	0x3f1018ff	0.5628814
246	0xbcb06a9d	-0.021535212
247	0xbf53b1d2	-0.8269321
248	0x3f95a679	1.1691428
249	0xbed67877	-0.41888782
250	0x400aae6f	2.1668966
251	0x401e644c	2.4748716
252	0xbf1a2089	-0.60205895
253	0xc103683e	-8.21295
254	0xbda4fa85	-0.08055595
255	0x401e0f0e	2.4696689

linear_relu_stack.0.bias f4 [64]
0	0xbe641333	-0.22272949
1	0xbe9d4782	-0.3071862
2	0xbf129e0a	-0.572724
3	0x3e19c658	0.15017068
4	0x3e87bb9d	0.26510325
5	0x3e6ee2c3	0.2332869
6	0x3ed031e9	0.40663078
7	0xbf326f2e	-0.69700897
8	0xbf64210f	-0.89112943
9	0x3f9f83cd	1.2462097
10	0xbf069b93	-0.5258114
11	0xbf30b946	-0.69032705
12	0x3d28a1f1	0.041170064
13	0x3f025754	0.509145
14	0x3c924274	0.017853953
15	0x3e82f031	0.25573877
16	0xbf30e756	-0.6910299
17	0x3cee5d6d	0.029097283
18	0xbf240183	-0.64064807
19	0xbec5ef8b	-0.3865932
20	0xbedeaecc	-0.43492734
21	0x3e8b4948	0.27204347
22	0xbf2445a9	-0.6416879
23	0xbed10731	-0.408258
24	0xbf21c8ba	-0.6319691
25	0xbf50e84e	-0.8160447
26	0xbec3e751	-0.38262418
27	0xbf483dcc	-0.78219295
28	0x3f2834a3	0.6570532
29	0x3e8984ab	0.2685903
30	0x3eb9a629	0.36259583
31	0x3f0e3a6e	0.55557907
32	0x3e922fbc	0.28552043
33	0x3f02f1df	0.51150316
34	0xbf3ca92e	-0.7369565
35	0xbec7c688	-0.39018655
36	0xbe445b55	-0.19175465
37	0xbe5ee600	-0.21767426
38	0x3e8e3cca	0.27780753
39	0xbeaba943	-0.33527574
40	0x3e76c198	0.24097288
41	0xbf152830	-0.58264446
42	0x3ec3f22a	0.38270694
43	0x3f360bfd	0.7111204
44	0xbe85a54e	-0.2610268
45	0xbd73a17c	-0.059480175
46	0xbef66794	-0.481259
47	0xbf1a28e7	-0.6021866
48	0xbeb91433	-0.36148223
49	0x3e2f47f7	0.17117296
50	0xbf0d1bd7	-0.55120605
51	0x3ee7ffce	0.4531235
52	0xbee55dca	-0.44798118
53	0xbedba093	-0.42895946
54	0x3f0e8b33	0.5568115
55	0xbed8abbd	-0.42318526
56	0xbf1b54c1	-0.606762
57	0x3d43dd97	0.047818746
58	0x3e65af7c	0.22430223
59	0xbe694e80	-0.22783852
60	0xbe82a548	-0.25516725
61	0x3f4aa950	0.791646
62	0xbcffbd44	-0.031218179
63	0x3ea8c7fe	0.32965082

linear_relu_stack.2.weight f4 [128, 64]
0	0x3ec9ffa2	0.39452845
1	0x3e70375b	0.23458616
2	0x3e447b3b	0.19187634
3	0xbedbbe92	-0.4291883
4	0x3f436417	0.763246
5	0x3db3f0cb	0.08786162
6	0xbec6e6dc	-0.38848007
7	0x3d267cfc	0.04064654
8	0xbe60819f	-0.21924447
9	0x3f5cc712	0.8624126
10	0xbdd86b8e	-0.105673894
11	0xbed2f7d7	-0.41204712
12	0x3f96cc04	1.1781011
13	0xbea63b90	-0.32467318
14	0xbf562c41	-0.83661276
15	0xc06539bf	-3.5816495
16	0xbece0eac	-0.4024557
17	0x397e25a0	0.00024237344
18	0xc00b72eb	-2.178889
19	0xbe50768f	-0.20357727
20	0xbf18594a	-0.59511244
21	0xbe1b42de	-0.15162227
22	0xbeb1e914	-0.34748137
23	0x3f317685	0.6932147
24	0xbef2f13d	-0.47449675
25	0x3ccf08c3	0.025272733
26	0x3e617e87	0.22020923
27	0x3d5a3739	0.05327532
28	0xbf8e5bd7	-1.1121777
29	0xbf8ac929	-1.0842639
30	0x3ece179b	0.40252385
31	0xbcbcb6c6	-0.023036372
32	0x3ebc6d2a	0.36802036
33	0xbeaca142	-0.3371678
34	0x3ea74504	0.32669842
35	0xbe45530b	-0.1926996
36	0x3e8e9f31	0.27855828
37	0x3ef009b8	0.46882415
38	0xbf70660f	-0.9390573
39	0xbee69027	-0.45031855
40	0xbf535771	-0.825553
41	0xbea0bfc7	-0.31396315
42	0x3e01bdad	0.12670012
43	0xbf2951c9	-0.6614042
44	0xbf303b1e	-0.68840206
45	0x3e25324d	0.1613247
46	0x3e551130	0.20807338
47	0x3cf6b27f	0.03011441
48	0xbea12588	-0.31473947
49	0x3d9084de	0.070565924
50	0xbe79ad0e	-0.24382421
51	0xbedff59d	-0.43742076
52	0xbe952950	-0.2913308
53	0xbf3de130	-0.74171734
54	0xbf947990	-1.1599598
55	0xbe1f7497	-0.15571819
56	0x3f354774	0.70812154
57	0x3de07424	0.10959652
58	0xbfa8f655	-1.3200175
59	0xbe5818a1	-0.21103145
60	0xbe5c5844	-0.21518046
61	0xbf0283f9	-0.50982624
62	0xbe978cfb	-0.29599747
63	0x3ea84dca	0.32871848
64	0x3e6a6044	0.22888285
65	0xbf25f09f	-0.64820284
66	0x3e64203e	0.22277924
67	0x3f25f890	0.648324
68	0xbf07de1f	-0.53073305
69	0x3fcb6ce7	1.5892609
70	0x3f1977b2	0.59948266
71	0x3f529891	0.8226405
72	0xbe425f91	-0.18981768
73	0x3f09f838	0.53894377
74	0xbd6fef21	-0.05857766
75	0x3ec26d7d	0.37974158
76	0x3fbfb0a7	1.4975785
77	0xbfbbc2dc	-1.4668841
78	0x3f027431	0.50958544
79	0xbfa8443c	-1.3145823
80	0xbe54eefe	-0.20794293
81	0xbebc5908	-0.36786675
82	0xbe9059f4	-0.2819363
83	0x3d65994f	0.05605441
84	0x3f2928cd	0.6607788
85	0x3e19ab5f	0.15006779
86	0xbea2d8ed	-0.31806126
87	0xbf0996ad	-0.5374554
88	0xbf7c814f	-0.9863481
89	0x3ee00e6a	0.43760997
90	0xbe11ae16	-0.14226565
91	0x3ed2ecd6	0.41196316
92	0xbec0b74b	-0.3763984
93	0xbfdb2ec9	-1.7123653
94	0xbead53b4	-0.33852923
95	0x3f85548b	1.0416425
96	0x3ee19ca1	0.4406481
97	0x3fc241fe	1.5176389
98	0xbe71f689	-0.23629202
99	0xbed76ece	-0.42076725
100	0x3d469025	0.04847731
101	0x3f192c83	0.59833544
102	0x3f821c3b	1.0164865
103	0x3f15cd1d	0.58516103
104	0x3e75acd2	0.23991707
105	0xbe902490	-0.28152895
106	0x3f122db3	0.5710098
107	0xbf1442b4	-0.5791428
108	0x3f3fa78e	0.74865043
109	0xbe917403	-0.28408822
110	0xbe53c144	-0.20679194
111	0x3e81dc59	0.25363424
112	0xbd9895f1	-0.07450474
113	0xbc87bab0	-0.016568512
114	0x3deafc6a	0.114739254
115	0x3e63c931	0.22244717
116	0xbead6209	-0.33863857
117	0xbf30079b	-0.68761605
118	0xbff3a41e	-1.903446
119	0xbfbadd2d	-1.4598747
120	0x3e78d2a1	0.24299099
121	0xbfe997aa	-1.8249409
122	0x3f13f1e1	0.5779095
123	0x3f59ad3d	0.85029966
124	0xbe244b8f	-0.16044448
125	0x3facf9ee	1.3513772
126	0xbe306e8c	-0.1722967
127	0xbe900403	-0.2812806
128	0xbf2beb39	-0.67155796
129	0xc000c5ed	-2.0120804
130	0xbf86d8f8	-1.0534964
131	0x3f312ae9	0.692061
132	0x3eb75269	0.3580506
133	0xbea0ae0f	-0.31382796
134	0x3f6a79dd	0.915922
135	0xbe4a7158	-0.197698
136	0xbf05b08b	-0.5222251
137	0xbe70285c	-0.23452896
138	0xbd184014	-0.037170485
139	0x3f433570	0.76253414
140	0x3e805a38	0.2506883
141	0x3ef9c2fa	0.48781568
142	0xbf0412a6	-0.51590955
143	0xc0280b6e	-2.6256976
144	0xbeba130e	-0.36342663
145	0x3f119a02	0.5687562
146	0xbffb2462	-1.9620478
147	0xbe3ea3db	-0.18617193
148	0xbed38275	-0.41310468
149	0x3f371188	0.71511126
150	0x3d976ff2	0.07394399
151	0x3ea07cc8	0.313452
152	0xbe0956aa	-0.13411966
153	0xbda4101f	-0.08010887
154	0xbf04e474	-0.5191109
155	0x3e907e85	0.28221527
156	0x3fc5b339	1.544532
157	0xbedda47e	-0.4328956
158	0xbf640278	-0.89066267
159	0xbf1339f4	-0.57510304
160	0x3fb82ab9	1.4388038
161	0xbf204f75	-0.6262124
162	0x3e61b182	0.2204037
163	0xbe37696d	-0.1791131
164	0xbe27844d	-0.16359062
165	0xbda8bf99	-0.08239669
166	0x3cf4201b	0.029800465
167	0xbf15284b	-0.5826461
168	0xbe673165	-0.22577436
169	0xbed96300	-0.42458344
170	0xbef8d0d8	-0.48596835
171	0xc023e790	-2.5610085
172	0xbf962cca	-1.1732419
173	0xbeb14c0d	-0.34628335
174	0xbdf62cb5	-0.12020246
175	0xbf8cda67	-1.1004151
176	0xbe1685b9	-0.14699449
177	0xbecc5784	-0.3991052
178	0x3cc67ec8	0.024230376
179	0x3f81c35a	1.0137742
180	0xbddb1681	-0.10697652
181	0xbed8d35d	-0.42348757
182	0xbfd6bdf5	-1.677672
183	0xbf90af1f	-1.1303443
184	0x3e97da4a	0.2965873
185	0xbfe31c61	-1.7743036
186	0x3f31b4f6	0.6941675
187	0xbf65a5ea	-0.8970629
188	0x3d11021f	0.035402413
189	0xbc931848	-0.017955914
190	0xbd8a0d1b	-0.06740781
191	0xbe560baa	-0.20902887
192	0x3ddfb475	0.10923091
193	0x3f7cafe7	0.98705906
194	0x3eba1ae8	0.36348653
195	0x3e0726dd	0.13198419
196	0x3c02fe9f	0.007995277
197	0x3fa56299	1.2920715
198	0x3e9e2f1b	0.30895314
199	0x3de18509	0.110117026
200	0x3e142bf8	0.14469898
201	0x3c177abc	0.009245571
202	0x3dde9f92	0.10870279
203	0x3e510147	0.20410644
204	0xbe50e8cd	-0.20401306
205	0x3c905526	0.017618727
206	0x3e54996a	0.20761648
207	0xc0103be5	-2.2536557
208	0xbe203b98	-0.15647733
209	0xbe338e6d	-0.175348
210	0x3e0a9500	0.13533401
211	0xbe701f82	-0.2344952
212	0x3e29d4ad	0.16585036
213	0x3e2527ef	0.16128515
214	0xbdac4a49	-0.08412606
215	0xbf80775e	-1.0036428
216	0x3e09a828	0.13443053
217	0x3e346c2a	0.17619386
218	0xbf7e0cf2	-0.992385
219	0x3c57184e	0.013128353
220	0xc018c2df	-2.386894
221	0x3e015e78	0.12633693
222	0x3f3b60a8	0.7319436
223	0x3d88930a	0.066686705
224	0xbf09f49f	-0.5388889
225	0xbf358c05	-0.7091678
226	0xbde983f9	-0.11402125
227	0xbe8a9438	-0.27066207
228	0xbe1dca1e	-0.15409133
229	0x3db3df77	0.08782857
230	0xbdf51134	-0.11966172
231	0xbd7cc34e	-0.061709695
232	0xbf16dfe7	-0.589354
233	0x3d02902b	0.03187577
234	0xbf0a0a36	-0.5392183
235	0xbf7cad7e	-0.9870223
236	0xbe7dbf41	-0.24779989
237	0x3ec5eaea	0.38655788
238	0xbb4d0f04	-0.0031289468
239	0x3ce8568d	0.028361583
240	0xbdc2e0f3	-0.09515562
241	0xbc877b4c	-0.016538285
242	0x3cd3b3cf	0.025842575
243	0xbe4da586	-0.20082673
244	0xbe045aec	-0.12925309
245	0xbedb37e7	-0.42816088
246	0xbf0ba0dc	-0.54542327
247	0x3ed77cd6	0.4208743
248	0xbe438366	-0.19093093
249	0x3eddaf3a	0.4329775
250	0x3f1e78ef	0.6190328
251	0x3c6ba340	0.014382184
252	0xbd63e334	-0.0556366
253	0xbe7673a3	-0.2406755
254	0xbe07ea88	-0.1327306
255	0xbe2963ba	-0.16541949

linear_relu_stack.2.bias f4 [128]
0	0xbe6ca6fa	-0.23110572
1	0xbe339594	-0.17537528
2	0x3e0e0402	0.13868716
3	0x3ea4242a	0.3205884
4	0x3d05c648	0.0326598
5	0x3e4b23d2	0.19837883
6	0xbdd78f8a	-0.10525425
7	0x3da08de3	0.07839563
8	0xbc848841	-0.016178252
9	0xbeb32cc3	-0.34995088
10	0xbd40c010	-0.047058165
11	0x3dc9ee7e	0.09859942
12	0xbeed7a81	-0.46382526
13	0x3e72e848	0.23721421
14	0x3e5c412a	0.21509233
15	0x3e6e3bd8	0.23265016
16	0xbf0fa8c9	-0.5611692
17	0x3dded299	0.10880012
18	0xbcd3a046	-0.02583326
19	0xbe2023b0	-0.15638614
20	0xbe1434b6	-0.14473233
21	0xbe491b8a	-0.19639412
22	0xbe764063	-0.24047999
23	0xbc95bf00	-0.018279552
24	0xbe3fa64c	-0.18715781
25	0xbebebe6a	-0.3725465
26	0xbec52d5c	-0.3851117
27	0xbddfeb2e	-0.10933529
28	0xbe0e1235	-0.13874133
29	0x3eb289ce	0.34870762
30	0x3f0cdc1d	0.55023366
31	0x3d28d15b	0.041215282
32	0xbea0f646	-0.31437892
33	0xbeece135	-0.4626557
34	0xbe29bea1	-0.16576625
35	0x3dbef860	0.093247175
36	0x3d554462	0.052067168
37	0x3e55a6a9	0.20864357
38	0xbe94586d	-0.28973714
39	0xbead4b4b	-0.33846506
40	0xbe0f03bf	-0.13966273
41	0xbdae676d	-0.08515821
42	0xbe6a3956	-0.22873434
43	0x3e456ff3	0.19280986
44	0x3c9f1197	0.019417567
45	0x3ece4705	0.4028856
46	0x3dc7764d	0.09739361
47	0xbdb8e0d0	-0.090272546
48	0x3df9739c	0.12180254
49	0x3e7f5896	0.24936137
50	0xbd76eef3	-0.060286473
51	0xbd97abe9	-0.07405836
52	0x3de1c884	0.110245734
53	0x3d081ea2	0.03323234
54	0x3dca3923	0.09874179
55	0x3e981539	0.29703692
56	0xbce8901a	-0.028389025
57	0x3df86361	0.1212833
58	0xbf4305a2	-0.7618047
59	0xbd7fc22d	-0.06244104
60	0x3ecf3c45	0.4047567
61	0x3e0238b8	0.12716949
62	0xbf06c0a1	-0.5263768
63	0x3dd63e61	0.104611166
64	0x3df7297f	0.120684616
65	0x3eeeb3f5	0.4662167
66	0x3ee64608	0.44975305
67	0xbd32aded	-0.0436229
68	0x3e693fcd	0.22778244
69	0xbd78180b	-0.060569804
70	0x3d9bf178	0.07614416
71	0x3dc6d088	0.09707743
72	0xbef9793c	-0.48725307
73	0x3e9860d0	0.29761362
74	0xbd2ade30	-0.0417158
75	0xbe3a4d0b	-0.18193452
76	0x3eb12dfb	0.34605393
77	0xbe24cd0e	-0.16093847
78	0xbdcb1d20	-0.099176645
79	0xbcf37c23	-0.029722279
80	0xbbc8e4d0	-0.006130792
81	0xbc3cdfc8	-0.011527963
82	0xbdb5db76	-0.088797495
83	0xbe131d3f	-0.14366625
84	0x3e962bd3	0.2933031
85	0xbe4155fc	-0.18880457
86	0xbe9b0484	-0.30276883
87	0xbeb3c32a	-0.35109836
88	0xbf2da836	-0.67834795
89	0xbe5f47ca	-0.21804729
90	0x3eb240d9	0.348151
91	0xbe035aab	-0.12827556
92	0x3e58b82a	0.21164003
93	0x3dd4d5b9	0.10392327
94	0x3d1118b0	0.035423934
95	0x3dd5a06a	0.10430987
96	0x3dd84cdf	0.10561537
97	0x3eb815a4	0.3595401
98	0xbf5479a2	-0.82998097
99	0x3f885c1f	1.0653113
100	0xbdc0144a	-0.0937887
101	0x3d66f3b9	0.056384776
102	0x3e310316	0.17286333
103	0x3e171796	0.14755091
104	0x3e5f4f94	0.218077
105	0xbc62504a	-0.013813088
106	0x3e598460	0.21241903
107	0x3eed0fbf	0.46301076
108	0xbe5a65f7	-0.21327959
109	0xbe3f1a4d	-0.18662377
110	0xbe0ae363	-0.13563304
111	0x3f0ed419	0.55792385
112	0xbe90b573	-0.28263435
113	0x3dbb5f3d	0.09149025
114	0x3e12b8c2	0.14328292
115	0x3e850210	0.25978136
116	0x3ec64449	0.38723972
117	0xbded7703	-0.11594965
118	0x3f59789a	0.8494965
119	0xbee7b8de	-0.4525823
120	0xbd472af0	-0.048624933
121	0x3eb25854	0.34833014
122	0x3e639ea7	0.2222849
123	0xbe147da1	-0.14501049
124	0xbdceec64	-0.10103682
125	0x3ecf4749	0.40484074
126	0xbe07cf4b	-0.1326267
127	0xbd3eba41	-0.046564344

linear_relu_stack.3.weight f4 [128]
0	0x3fefc8fd	1.8733212
1	0x3f88d9d6	1.0691478
2	0x3fa565f6	1.2921741
3	0x40320c49	2.7819998
4	0x3f1a3cb9	0.60248905
5	0x3d9371d8	0.07199448
6	0x3f5d5e0a	0.8647162
7	0x3fbf154d	1.4928375
8	0x3f4698b7	0.77576774
9	0x3fe1c134	1.7637086
10	0x3d46cd3f	0.04853558
11	0x40097635	2.1478398
12	0x403b0b94	2.9225817
13	0x400b5497	2.177038
14	0x3f3f1d6c	0.7465427
15	0x3f2e8e2d	0.68185693
16	0x3f89d5a5	1.0768324
17	0x3f909f42	1.1298602
18	0x3d9d7eaf	0.076901786
19	0x3f8051cb	1.0024961
20	0x3fc75700	1.5573425
21	0x3fbde3da	1.483516
22	0x401b4ec9	2.4266837
23	0x3f0150b8	0.5051379
24	0x3fca6abf	1.5813826
25	0x3fb2de13	1.3974022
26	0x3fbd9134	1.4809937
27	0x3df8675e	0.12129091
28	0x3f8e5a61	1.1121331
29	0x3fb21fc2	1.3915942
30	0x3f978a89	1.1839153
31	0x3e4d3e08	0.20043194
32	0x3fbf5885	1.4948889
33	0x3fcd86e4	1.605679
34	0x3ec68fd6	0.38781613
35	0x3ea74a72	0.32673985
36	0x3e4ffe6f	0.20311902
37	0x3ed75437	0.42056438
38	0x3fa49919	1.2859222
39	0x3f5faa6b	0.8736941
40	0x3f0a8aec	0.5411823
41	0x3f74d02b	0.9563014
42	0x3fc08678	1.5041037
43	0x3f3dade7	0.7409348
44	0x3de0756f	0.10959899
45	0x402f6bd0	2.7409554
46	0xbc4a1bf0	-0.012335762
47	0x3f9ed0f3	1.2407516
48	0x3f179052	0.5920459
49	0x3f5ba4b9	0.8579822
50	0x3fda1e06	1.7040412
51	0x3f66c9b7	0.9015154
52	0x3f8b1597	1.0865964
53	0x3fe31ca3	1.7743114
54	0x3f9af413	1.2105736
55	0x3f93c0cb	1.1543211
56	0x3fa65e74	1.2997575
57	0x3facd237	1.3501652
58	0x3fbf6fcd	1.4955994
59	0x3e805851	0.2506738
60	0x3fb2b977	1.3962849
61	0x3ece3106	0.40271777
62	0x40145adc	2.3180456
63	0x3f2df36f	0.67949575
64	0x3f9aef75	1.2104326
65	0x3f4630f3	0.7741844
66	0x3fa44431	1.283331
67	0x3fee80d7	1.8633069
68	0x3ccd4f6f	0.025062291
69	0x3f6745ee	0.9034108
70	0x3ee4ff18	0.4472587
71	0x3f802bf6	1.0013416
72	0x402b7636	2.67909
73	0x3ef428cc	0.47687376
74	0x3f20f6db	0.6287667
75	0x3ff5391c	1.9158053
76	0x3fb133d5	1.3843943
77	0x3d770b93	0.060313772
78	0x3f82edb0	1.0228786
79	0x3ddc7c5a	0.10765906
80	0x3fb68962	1.4260676
81	0x3f624e8a	0.8840109
82	0x3f48ce68	0.7843995
83	0x3fdb24e1	1.712063
84	0x3f94b749	1.1618434
85	0x3f9fdacd	1.2488648
86	0x3ff29082	1.895035
87	0x3fb51661	1.4147455
88	0x3fafc9f7	1.373351
89	0x3f818f43	1.0121845
90	0x3fbe0a58	1.4846907
91	0x3f8b6617	1.089053
92	0x3fa9cdf5	1.3265978
93	0x3fc4c229	1.5371753
94	0xb951cd30	-0.00020008232
95	0x3f5ef763	0.8709623
96	0x3f25eca2	0.648142
97	0x3fdd3ad6	1.728358
98	0x401e9b33	2.4782226
99	0x3fe4aab5	1.7864596
100	0x3ef50ce8	0.4786141
101	0x3f79b0d6	0.97535455
102	0x3f8a75e9	1.0817233
103	0x3f89b33f	1.0757827
104	0x3f9936b1	1.1969815
105	0x3f7e6635	0.99374706
106	0x3dc5d467	0.09659653
107	0x3f9f6655	1.2453104
108	0x3fb31f94	1.3994012
109	0x3fe8ff0e	1.8202837
110	0x3f4c2c1a	0.79754794
111	0x3f1f26d3	0.62168616
112	0x3e0d76bc	0.13814825
113	0x3faecb48	1.3655787
114	0x3f9762be	1.1827009
115	0x3fa2d98a	1.2722638
116	0x3fcb7dcd	1.5897766
117	0x3fd17f5f	1.6366996
118	0x3fa05afb	1.2527765
119	0x3f345f7e	0.7045821
120	0x40162d92	2.3465314
121	0x3fc42615	1.5324122
122	0x3efa8c38	0.48935103
123	0x3f31e66b	0.69492215
124	0x3f9d45be	1.2286909
125	0x4006ee78	2.108305
126	0x3d995047	0.07486015
127	0x3fb1221f	1.3838538

linear_relu_stack.3.bias f4 [128]
0	0xbedca9cc	-0.43098295
1	0xbf721a2b	-0.9457118
2	0xbfa2648c	-1.2686934
3	0x3e689e57	0.22716652
4	0xbf9beafe	-1.2181089
5	0xbe975dda	-0.2956379
6	0xc004abc5	-2.072984
7	0xbf0f359e	-0.5594119
8	0xbf6d794c	-0.9276321
9	0xbf131d7d	-0.5746687
10	0xbe9552fa	-0.2916487
11	0xbf4ac469	-0.7920595
12	0xbf507e1b	-0.8144242
13	0xbfc707a1	-1.5549203
14	0xbec07e79	-0.3759649
15	0xbd0e6e5b	-0.034773212
16	0x3d169ce2	0.03677071
17	0xbec8f07f	-0.39245984
18	0xbe86f203	-0.26356515
19	0xbfba4b4d	-1.455423
20	0xbe933938	-0.28754592
21	0xbf584369	-0.8447786
22	0xbed9f7f0	-0.42571974
23	0xbf58d2e1	-0.84696776
24	0xbfa8bffb	-1.3183588
25	0xbf89bd22	-1.0760844
26	0xbf6a0a67	-0.9142212
27	0xbf03277d	-0.5123213
28	0xbee65b03	-0.4499131
29	0xbf863b7a	-1.0486901
30	0xbf2d9f6a	-0.6782137
31	0xbdc312a5	-0.095250405
32	0xbf933b7f	-1.1502532
33	0xbf3618b3	-0.7113144
34	0xbe034570	-0.12819457
35	0xbec1cb19	-0.37850264
36	0xbef424db	-0.47684368
37	0xbf9b862f	-1.2150325
38	0xbe2c6106	-0.16833887
39	0xbf2b70d4	-0.6696904
40	0xbf9726c3	-1.1808704
41	0xbf18869e	-0.5958041
42	0xbf423689	-0.75864464
43	0xbe9c3f47	-0.30517027
44	0xbedbf24e	-0.429583
45	0xbfd77f5e	-1.6835744
46	0xbf09bec0	-0.53806686
47	0xbe960563	-0.29300985
48	0xbfab1443	-1.3365558
49	0xbef11468	-0.4708588
50	0xbfbce6dd	-1.4757954
51	0xbe4f8c66	-0.20268402
52	0xbf524c36	-0.8214754
53	0xbf4a3f0b	-0.79002446
54	0xbeef1164	-0.46692955
55	0xbeda6939	-0.42658404
56	0xbfb550f2	-1.4165328
57	0xbfb03523	-1.3766216
58	0xbfa04b88	-1.252305
59	0xbf834c30	-1.0257626
60	0xbefc2e8d	-0.49254265
61	0xbfbd9920	-1.4812355
62	0xbfb4165d	-1.4069325
63	0xbebe2fa7	-0.3714573
64	0xbf07ef0f	-0.5309915
65	0xbf753ac8	-0.9579282
66	0xbef67b2a	-0.48140842
67	0xbfaba8e9	-1.3410922
68	0x3ebb7212	0.36610466
69	0xbe6c6bd1	-0.23088004
70	0xbe91bae3	-0.28462896
71	0xbfbb31ae	-1.4624536
72	0xbee8a0a6	-0.45435065
73	0xbf2c5ebf	-0.6733207
74	0xbef09afa	-0.46993238
75	0xbfcc4b03	-1.5960392
76	0xbf1702cf	-0.5898866
77	0xbf4dd2b9	-0.8039966
78	0xbf3713f3	-0.71514815
79	0xbe86181c	-0.2619027
80	0xbef60746	-0.48052424
81	0xbee81701	-0.4533005
82	0xbf7587a3	-0.9591009
83	0xbfc6b236	-1.5523136
84	0xbdf6fd0c	-0.120599836
85	0xbdaf1a20	-0.08549905
86	0xbf956b11	-1.1673299
87	0xbf4e3faf	-0.80565923
88	0xbf5afb5d	-0.855398
89	0xbed559d7	-0.41670105
90	0xbf621ba3	-0.8832342
91	0xbf43feb0	-0.765605
92	0xbea4fba1	-0.32223228
93	0xbf988e0e	-1.1918352
94	0xbf57b6d8	-0.8426337
95	0xbf46cea0	-0.77659035
96	0xbe613f99	-0.21996917
97	0xbf9834ca	-1.189111
98	0xc0031924	-2.0484095
99	0xbf5c5797	-0.8607115
100	0xbf6dc085	-0.92871886
101	0xbfaf4524	-1.3692975
102	0xbf111003	-0.56665057
103	0xbf89ce38	-1.0766058
104	0xbf906169	-1.1279727
105	0xbf594614	-0.84872556
106	0xbe949e53	-0.29027042
107	0x3a0c7fce	0.00053596206
108	0xbfaf3b83	-1.3690037
109	0xbf48101a	-0.7814957
110	0xbf818e06	-1.0121467
111	0xbc94387e	-0.018093344
112	0xbf020ade	-0.5079783
113	0xbfddffe6	-1.7343719
114	0xbf8dbae6	-1.1072662
115	0xbf91fc1a	-1.140506
116	0xbe0482bb	-0.12940495
117	0xbf207560	-0.626791
118	0xbfae1747	-1.3600854
119	0xbf0df01a	-0.5544449
120	0xbf6c56ed	-0.9232014
121	0xbf022f28	-0.50853205
122	0xbf9b9112	-1.2153647
123	0xbf360a7e	-0.7110976
124	0xbf0ba5b6	-0.5454973
125	0xbfa82859	-1.3137313
126	0xbe41c2f0	-0.18922019
127	0xbf884c5b	-1.0648302

linear_relu_stack.3.running_mean f4 [128]
0	0xbff307ac	-1.8986716
1	0x4021d15a	2.5284028
2	0x3eca1db5	0.3947579
3	0xbfcc110d	-1.5942703
4	0x40248674	2.5707064
5	0xbf56c706	-0.83897436
6	0x3fb6a375	1.4268633
7	0xc03b3c48	-2.9255543
8	0xbf037d2a	-0.5136286
9	0xbf7a43e2	-0.9775983
10	0x3fe2c4c4	1.7716298
11	0x3e6f9826	0.23397884
12	0xbdb5ab0f	-0.088705175
13	0x3ee74796	0.45171803
14	0xbfa30258	-1.273509
15	0xc00c6042	-2.193375
16	0xc08a9ced	-4.331656
17	0xbe837ee7	-0.25682756
18	0x3e375b11	0.17905833
19	0xbf1d0a53	-0.6134388
20	0xc09a08cc	-4.813574
21	0xbfe8d12c	-1.8188834
22	0x404f09c5	3.2349713
23	0x3ffec70c	1.9904494
24	0x3f5f2a90	0.8717432
25	0xbcb32ae8	-0.021871045
26	0xbf9cf8c0	-1.2263412
27	0xc0ac56cf	-5.3855968
28	0xc0239275	-2.555814
29	0x408584a8	4.1724434
30	0x3f89d8d5	1.0769297
31	0xc01bd989	-2.4351523
32	0x3f38d7c0	0.7220421
33	0x3f35fdee	0.7109059
34	0x3f3380a4	0.70118165
35	0x3f0297e9	0.51013047
36	0xbe512a41	-0.20426275
37	0x3e27cdfc	0.1638717
38	0x3e8dddc0	0.27708244
39	0xbfe48550	-1.7853184
40	0x3e9be5ef	0.30448863
41	0x40276646	2.6156173
42	0xc0264154	-2.5977373
43	0xc0267b3f	-2.6012723
44	0xbe580e7e	-0.21099278
45	0x4003bfb4	2.0585756
46	0xc0075458	-2.114523
47	0xbfbdffa8	-1.4843645
48	0x4061420b	3.519656
49	0xc047bfa6	-3.1210723
50	0xbff15100	-1.8852844
51	0x404f35bd	3.237655
52	0xbfc5158c	-1.53972
53	0xbee8f090	-0.45496035
54	0x3e9173ea	0.28408748
55	0xbf345f99	-0.7045837
56	0x408f1d32	4.472314
57	0x402c121d	2.6886055
58	0xc11f92ba	-9.973322
59	0xbfb586a6	-1.4181716
60	0x3fd78c03	1.6839603
61	0x3fb9855a	1.4493821
62	0x3ffe191e	1.9851415
63	0x400ea42a	2.2287698
64	0x3fa70211	1.3047506
65	0xbfb6ec78	-1.4290915
66	0xbedeeff6	-0.4354245
67	0x3fb40e16	1.4066799
68	0x3e011fee	0.12609836
69	0x3faf9a2c	1.3718925
70	0xbfabda72	-1.3426039
71	0x40025196	2.0362296
72	0xbfd72fd9	-1.6811477
73	0x3fa12a46	1.2591026
74	0xbf806f24	-1.0033917
75	0x40006aaf	2.0065114
76	0xbf4459e7	-0.7669968
77	0x406dc37d	3.7150567
78	0x3f1044c2	0.56354916
79	0xbfa02ad3	-1.2513069
80	0x3f348d7f	0.70528406
81	0xc028c118	-2.6367855
82	0x40c7d67c	6.244932
83	0x3f6c5f26	0.92332685
84	0xc00888ab	-2.1333416
85	0x405b5ced	3.4275467
86	0xbfb779b4	-1.4334016
87	0xc07251ec	-3.78625
88	0xc0794070	-3.894558
89	0xc06f72a1	-3.7413714
90	0x40a645c4	5.1960163
91	0xc0248a1a	-2.570929
92	0xbfff0080	-1.9922028
93	0x3ed0062f	0.40629718
94	0x3cd8016e	0.02636787
95	0x3f3a7e68	0.7284913
96	0xbfdbe68f	-1.7179736
97	0xc0833f16	-4.101451
98	0xbdc0523f	-0.09390687
99	0x3f6554b5	0.8958238
100	0x3f49a8cc	0.7877319
101	0x3f27b530	0.65510845
102	0xbf94beca	-1.1620724
103	0x40620db3	3.5320861
104	0xc004d97c	-2.0757742
105	0xc02d7546	-2.7102828
106	0xbcb4bf68	-0.022063926
107	0xbff13bce	-1.8846376
108	0x400dbea8	2.2147617
109	0xc0428ceb	-3.039851
110	0xc05f9cac	-3.4939375
111	0xc045eef1	-3.0927088
112	0xbf90850a	-1.12906
113	0x3f47ce43	0.78049105
114	0xbf7b45c5	-0.98153335
115	0xc0423a34	-3.0348024
116	0x3e7b2327	0.24525128
117	0xc0a5cc71	-5.181206
118	0xbec442d3	-0.38332233
119	0xc08280d0	-4.078224
120	0x40403a68	3.0035648
121	0xc08a5dbc	-4.323942
122	0x3f5dcff0	0.8664541
123	0x3e300069	0.17187656
124	0xbfdb5eab	-1.7138265
125	0x3fd4ba96	1.6619442
126	0xbfc8b134	-1.5679078
127	0x3e791a28	0.24326384

linear_relu_stack.3.running_var f4 [128]
0	0x40120947	2.2818162
1	0x3fd45e26	1.6591232
2	0x401b3d93	2.4256332
3	0x3f94f293	1.1636528
4	0x40283968	2.6285038
5	0x3e983036	0.29724282
6	0x3e8ddbf3	0.2770687
7	0x3f733158	0.9499717
8	0x3f8f2ac0	1.1184921
9	0x3fac9c6f	1.348524
10	0x3facde1d	1.3505284
11	0x3fb2827c	1.3946071
12	0x40213163	2.5186393
13	0x3f2aff26	0.66795576
14	0x40111242	2.2667394
15	0x3f755338	0.95830107
16	0x3f51c6f4	0.81944203
17	0x3fe4e915	1.7883631
18	0x3edf0ed9	0.43566015
19	0x3ff82add	1.9388081
20	0x401283f2	2.2893033
21	0x3fb87ed1	1.4413701
22	0x3fb28c10	1.3948994
23	0x3fdd2293	1.7276176
24	0x3f8e42da	1.1114151
25	0x3efb272b	0.4905332
26	0x3fac7ac7	1.3474969
27	0x3f16de08	0.5893254
28	0x3f7a63e3	0.97808665
29	0x3f192edc	0.59837127
30	0x3f9ad9f2	1.2097762
31	0x3fd70734	1.6799073
32	0x3f65581f	0.8958759
33	0x3f94d0a7	1.1626176
34	0x3f7e7d93	0.9941036
35	0x3f4732ec	0.77812076
36	0x3ea1f7b5	0.31634298
37	0x3f451e0f	0.7699899
38	0x3fc39d7f	1.5282439
39	0x3f29ae3f	0.66281503
40	0x3f32704c	0.697026
41	0x3f84a2f5	1.036223
42	0x3f6dd0dd	0.92896825
43	0x3f102e4b	0.5632064
44	0x3f4006a4	0.7501013
45	0x3f07305a	0.52808154
46	0x3eb453a3	0.3522006
47	0x4022ec66	2.5456786
48	0x3f8aec19	1.0853301
49	0x3f5b4ed0	0.85667133
50	0x3f7b3086	0.98120916
51	0x3fc70b6e	1.5550363
52	0x3fa8e0b1	1.319357
53	0x403f6f03	2.9911506
54	0x40076e97	2.1161249
55	0x3f851719	1.0397674
56	0x3f6f1508	0.93391466
57	0x3f85c0e1	1.0449487
58	0x3f0b5120	0.5442066
59	0x3ef54756	0.47905988
60	0x3f962381	1.1729585
61	0x40167f7f	2.3515317
62	0x3f8effdd	1.1171833
63	0x3f4959d2	0.7865268
64	0x3fd165e5	1.6359221
65	0x3f307262	0.68924534
66	0x3f580383	0.8438036
67	0x3f69f340	0.91386795
68	0x3f4e1fd4	0.80517316
69	0x3f950e51	1.1644994
70	0x3f714a3e	0.9425391
71	0x3f86e320	1.0538063
72	0x40093546	2.1438766
73	0x3fd01fc3	1.6259693
74	0x3f1c67d9	0.6109596
75	0x3f8972cb	1.0738157
76	0x3f4abc08	0.7919316
77	0x3f6b8af4	0.920089
78	0x3f81afaf	1.0131739
79	0x3f97aaf4	1.1849046
80	0x3f5901fa	0.8476864
81	0x3f414c3e	0.7550696
82	0x3f5849fa	0.8448788
83	0x3fffcf57	1.998515
84	0x3fe7a2f1	1.8096601
85	0x3f99d13f	1.2016982
86	0x3f9e12be	1.234947
87	0x3fda5097	1.7055844
88	0x3fb7add0	1.4349918
89	0x3fc508fe	1.5393369
90	0x3f88ea00	1.0696411
91	0x3f8fca68	1.1233644
92	0x3fefde0e	1.8739641
93	0x4099e2b9	4.808926
94	0x3d4f70f7	0.05064484
95	0x3f9306ca	1.1486447
96	0x401abf02	2.4179082
97	0x400d0951	2.2036936
98	0x3f730eb4	0.9494431
99	0x3f864a9f	1.0491523
100	0x4011736a	2.2726693
101	0x3ebf26e7	0.37334368
102	0x3fe410fc	1.7817683
103	0x3fbb1188	1.4614725
104	0x3fb9dab7	1.4519871
105	0x3ffa7235	1.9566103
106	0x3ef4cb07	0.47811148
107	0x3f9fa6d8	1.2472792
108	0x40900146	4.5001554
109	0x3fe34310	1.7754841
110	0x3f8a936c	1.082624
111	0x3faecf7a	1.3657067
112	0x3f8e6626	1.1124923
113	0x3f3cee7e	0.7380141
114	0x3fcf019b	1.6172365
115	0x3f1fe636	0.6246065
116	0x400903f3	2.140866
117	0x40176703	2.3656623
118	0x3f67beab	0.9052531
119	0x3f69781b	0.9119889
120	0x40190565	2.3909543
121	0x3fe043fc	1.7520747
122	0x3f2653a5	0.6497138
123	0x3f2efd4d	0.68355256
124	0x3f20cfcd	0.6281708
125	0x3fcf7676	1.6208026
126	0x3ee4b49b	0.4466904
127	0x4034aeba	2.8231645

linear_relu_stack.5.weight f4 [256, 128]
0	0x3e60df76	0.21960244
1	0xbfe7ad41	-1.8099748
2	0xbe634853	-0.22195558
3	0xbf4987ba	-0.7872273
4	0xbf8f2af7	-1.1184987
5	0x3e868dbf	0.2628002
6	0x3ec9a647	0.39384672
7	0xbf642b17	-0.8912825
8	0xbfbeefad	-1.4916893
9	0x3fafaff6	1.3725574
10	0x3d639c6a	0.05556909
11	0x3dc09427	0.09403258
12	0xbf512d61	-0.8170987
13	0xbca182be	-0.019715663
14	0x3f0047ae	0.50109375
15	0x3ef7b356	0.4837901
16	0xbf3c6a98	-0.7360015
17	0x3e744bb3	0.23857002
18	0x3f0005a8	0.5000863
19	0x3e1ea8e6	0.15494117
20	0x3f8643ab	1.0489401
21	0x3e6e0e91	0.23247744
22	0x3f1e5f7b	0.6186444
23	0xbe692f02	-0.22771838
24	0xbe7860cd	-0.24255677
25	0xbf934d02	-1.1507876
26	0xbe5868ea	-0.21133772
27	0x3ef16268	0.4714539
28	0x3ed4cf14	0.41564238
29	0xbfab394b	-1.337686
30	0x3f804723	1.0021709
31	0x3e6cc269	0.23121037
32	0x3f8a5c15	1.0809351
33	0xbfdcc60b	-1.7247938
34	0xbfb2d83a	-1.3972237
35	0x3f192a4f	0.5983018
36	0xbf0990f6	-0.5373682
37	0x3e711948	0.235448
38	0xbfceda6e	-1.616041
39	0xbfa46ce3	-1.284573
40	0xbf0cbce2	-0.5497571
41	0xbffff219	-1.9995757
42	0x3d51998b	0.05117182
43	0x3f1b1724	0.60582185
44	0x3e397a5c	0.18113083
45	0xbf48d474	-0.7844918
46	0xbe839c6e	-0.25705284
47	0xbd122e5f	-0.035688754
48	0xbf98d22f	-1.1939143
49	0x3fc7e960	1.5618095
50	0x3effe43a	0.4997881
51	0xbffccfb8	-1.9750891
52	0x3ec7dbb8	0.3903482
53	0xbf6908db	-0.9102914
54	0x3e8e6582	0.2781182
55	0xbf14b943	-0.58095187
56	0xbf7f73de	-0.99786174
57	0xbfc95f53	-1.5732216
58	0x3ec12c69	0.37729195
59	0xbe903c72	-0.28171116
60	0xbe9f1d37	-0.31076977
61	0xbdd93e73	-0.10607614
62	0x3dbefa35	0.09325067
63	0x3f8be112	1.0928061
64	0xbf46b66e	-0.77622116
65	0x3e8c96a9	0.27458695
66	0x3f2c5c76	0.67328584
67	0xbf1b9695	-0.60776645
68	0xbea30adf	-0.3184423
69	0xbea24623	-0.31694135
70	0x3ea03233	0.312883
71	0xc03eac6c	-2.9792738
72	0xbf754889	-0.95813805
73	0xbf28806e	-0.6582097
74	0xbe3ebcfe	-0.18626782
75	0xc083491c	-4.1026745
76	0x3cd7a5dc	0.026324205
77	0x3f0fe59f	0.5620975
78	0x3df724c8	0.12067562
79	0xbefc4a90	-0.49275637
80	0x3f26a07c	0.6508863
81	0xbf13b05e	-0.5769099
82	0x3f627e93	0.88474387
83	0x3e8b946f	0.27261683
84	0x3d771c03	0.06032945
85	0xbe88cf2a	-0.26720554
86	0x3ddbc037	0.107300214
87	0xbf07f0d6	-0.5310186
88	0x3f7e4ca2	0.9933568
89	0xbe6bdb01	-0.23032762
90	0xbf571c03	-0.8402712
91	0xbfeb4726	-1.8381088
92	0x3f421c80	0.7582474
93	0xbe187b04	-0.14890677
94	0x3dfb6411	0.122749455
95	0xbe627775	-0.22115882
96	0x3eeaa7a2	0.4583102
97	0xbf309350	-0.6897478
98	0xbee7ca0f	-0.45271346
99	0x3fc5835b	1.5430712
100	0xbf362ee9	-0.7116533
101	0xbfd062fd	-1.6280209
102	0x3fea0f8e	1.8285997
103	0xbfbfbe20	-1.4979897
104	0x3f891240	1.0708694
105	0xbed3df7b	-0.4138144
106	0xbeb8c2f8	-0.3608625
107	0xbe2538d6	-0.16134962
108	0x3de52eef	0.111905925
109	0x3eae8a55	0.34089914
110	0x3f6cc239	0.9248386
111	0x3ecb0e53	0.39659366
112	0x3f3ccef8	0.7375331
113	0xc05ad728	-3.419382
114	0xbf7f832e	-0.9980954
115	0xbea54145	-0.3227636
116	0x3e839ebf	0.2570705
117	0x3efaf71b	0.49016652
118	0xbf6bef09	-0.92161614
119	0xbe3215b2	-0.17391089
120	0xbf8ac7e6	-1.0842254
121	0x3f839273	1.0279068
122	0x3f27696f	0.65395254
123	0xbfb07d4e	-1.378824
124	0xbed8dfb3	-0.4235817
125	0x3f709204	0.939728
126	0x3d828735	0.06373445
127	0xbecd8454	-0.4014002
128	0xbf0323a2	-0.51226246
129	0x3f438892	0.76380265
130	0x3f27e8c9	0.65589577
131	0xbf1a6d76	-0.60323274
132	0xbf492350	-0.7856951
133	0x3e487bf8	0.1957854
134	0xbf801fb7	-1.0009679
135	0x3f292289	0.6606832
136	0xbf113872	-0.56726754
137	0xbf56a464	-0.8384459
138	0x39beeb27	0.00036414826
139	0x3e8ebcf5	0.27878538
140	0x3e9fa53b	0.31180748
141	0x402b03eb	2.6721141
142	0xbef0f9d4	-0.47065604
143	0x3e1736bf	0.14766978
144	0xbf5de3a8	-0.866755
145	0xbeecccb9	-0.4624994
146	0xbc216a22	-0.009851964
147	0xbf5841ef	-0.84475607
148	0xbfbba229	-1.4658862
149	0x3f301300	0.6877899
150	0x3e1d6ec8	0.15374291
151	0xbea3ec11	-0.32016042
152	0x3f86fc5e	1.0545766
153	0xbe864a7f	-0.2622871
154	0x3eae8ebd	0.34093276
155	0x3f537499	0.8259979
156	0xbe5b038b	-0.2138807
157	0xbf6fecb3	-0.9372055
158	0x3ec2a4fe	0.38016504
159	0x3df5a731	0.1199478
160	0x3f73234c	0.94975734
161	0x4036b365	2.8546994
162	0x3e1d63f1	0.15370156
163	0xbf3bee9a	-0.7341095
164	0x3ed366b2	0.41289288
165	0xbea49532	-0.32145077
166	0x3f6a38d0	0.9149294
167	0x3e638d91	0.22221972
168	0xbde0bedd	-0.10973904
169	0xbd4ddf6e	-0.050261907
170	0x3fb9259c	1.4464602
171	0x3f76fe31	0.96481615
172	0xbe989755	-0.29802957
173	0xbeaceb84	-0.33773434
174	0x3e1e5217	0.15461002
175	0xbf441c3f	-0.766056
176	0x3f534697	0.82529587
177	0xbf4a2ecc	-0.78977656
178	0xbe41769f	-0.18892907
179	0x40009561	2.0091174
180	0xbe1c1d86	-0.15245637
181	0x3ea25b18	0.31710124
182	0xbf84adda	-1.0365555
183	0x3f465f7b	0.7748944
184	0xbf0488d7	-0.517713
185	0xbf18e4fa	-0.5972439
186	0x3e82f3ac	0.25576532
187	0xbd71c3e9	-0.059024725
188	0xbf4827a3	-0.7818548
189	0xbd9d241c	-0.07672903
190	0x3f08eb0f	0.5348367
191	0xbe17703a	-0.14788905
192	0xbf83fd42	-1.0311663
193	0xbd508c39	-0.050914977
194	0xbe69ee67	-0.2284485
195	0x4028cd3d	2.6375268
196	0xbd8e5836	-0.06950419
197	0x3c5fed40	0.013667405
198	0x3fb15ae8	1.3855867
199	0x3f2c1129	0.67213684
200	0xbf648a8f	-0.89273924
201	0xbf48358f	-0.78206724
202	0x3ff0834a	1.8790066
203	0x3fa16527	1.2608994
204	0x3e7e8ae0	0.24857664
205	0x3ea4b51e	0.3216943
206	0xbeb2fed3	-0.3496004
207	0x3e66de08	0.22545636
208	0xbf8a7570	-1.0817089
209	0x3fa665b8	1.2999792
210	0xbe446bee	-0.19181797
211	0xbe0c0524	-0.13673836
212	0x3f1f8f64	0.6232817
213	0xbf35f196	-0.71071756
214	0xbe9df3d3	-0.30850086
215	0xbf8045f3	-1.0021347
216	0xbf676b48	-0.90398073
217	0xbec151a2	-0.37757593
218	0xbfd0d8d9	-1.6316177
219	0x3f8b31fc	1.0874629
220	0xbf31df32	-0.69481194
221	0x3e31406e	0.17309734
222	0xbc71be66	-0.014754867
223	0xbeeeba5f	-0.46626565
224	0x3ea25ccd	0.31711426
225	0x3f8c8478	1.0977926
226	0xbea7c652	-0.32768494
227	0x3eae31ce	0.34022373
228	0xbf6755e5	-0.9036544
229	0xbee54ce5	-0.44785228
230	0x3d62cde8	0.05537215
231	0xbe0e8e96	-0.1392158
232	0xbe946434	-0.289827
233	0x3e98b7b5	0.29827657
234	0x3f34615c	0.7046106
235	0x3e81210b	0.25220522
236	0xbc37e6f3	-0.011224496
237	0xbf357564	-0.7088225
238	0xbf1167e6	-0.5679916
239	0x3f018664	0.5059569
240	0xbf9caa07	-1.2239388
241	0x3f3475bc	0.7049215
242	0x3e39016b	0.18066947
243	0x3e0d1320	0.13776827
244	0xbd5c14d2	-0.053730793
245	0xbf08b1d8	-0.5339637
246	0xbf8022b9	-1.0010597
247	0x3fc37e4c	1.5272918
248	0xbff842ac	-1.9395347
249	0xbf24b168	-0.643332
250	0xc01bea1f	-2.4361646
251	0x3d962edb	0.07333156
252	0x3e87b5fb	0.26506028
253	0xbedbbc9f	-0.42917344
254	0x3f2d7484	0.67755914
255	0xbe78857e	-0.24269673

linear_relu_stack.5.bias f4 [256]
0	0x3c86cc3c	0.016454808
1	0x3d3549b1	0.04425973
2	0xbcdce12a	-0.026962835
3	0xbe06da5f	-0.1316924
4	0x3c8086dd	0.015689308
5	0xbd8397ca	-0.06425436
6	0xbd808434	-0.06275216
7	0x3b5e2b4d	0.003390032
8	0xbd61561d	-0.055013765
9	0xbd0b4aa2	-0.034006722
10	0xbc6ed3a0	-0.0145768225
11	0x3da0d908	0.078538954
12	0x3cddd616	0.027079623
13	0x3c751017	0.014957449
14	0xbc9260be	-0.017868396
15	0x3d118359	0.035525654
16	0xbd93ea8c	-0.07222471
17	0x3bf69f25	0.0075262957
18	0xbd5ab65b	-0.053396564
19	0xbc49e1de	-0.012321917
20	0xba2a8561	-0.00065048604
21	0xbd702ae0	-0.05863464
22	0x3d96b7ff	0.07359313
23	0xbc9695a0	-0.018381894
24	0x3870d7b9	5.7421366e-05
25	0x3db7f13a	0.08981557
26	0xbd54271e	-0.051795118
27	0xbd25deaf	-0.04049557
28	0xbd677ba2	-0.05651439
29	0x3d733193	0.05937345
30	0x3d543f53	0.051818203
31	0xbd16d579	-0.036824677
32	0x3d59562f	0.053060707
33	0xbd7eb785	-0.062186737
34	0xbd94f3e1	-0.07273079
35	0x3d883134	0.0665001
36	0x3c9fc1b5	0.019501546
37	0xbc3aa56a	-0.011391977
38	0xbc4fa645	-0.012673919
39	0x3d55bc72	0.05218167
40	0x3c96fc9e	0.018431004
41	0x3c80297e	0.015644785
42	0xbd76437f	-0.060122963
43	0x3cb27ae8	0.021787122
44	0xbd39a3c5	-0.0453222
45	0xbd1b6a7d	-0.037943352
46	0xbc29cea9	-0.010364213
47	0xbd545300	-0.051836967
48	0xbb2218af	-0.002473395
49	0xbcf72194	-0.030167378
50	0xbcd257fc	-0.02567672
51	0xbd9f73d2	-0.07785763
52	0xbc3fe875	-0.011713137
53	0xbd8035ee	-0.06260286
54	0xbda17603	-0.07883837
55	0x39f41225	0.00046552825
56	0x3cf4c711	0.029880079
57	0x3ca8d9e0	0.020611703
58	0x3d44f28a	0.048082866
59	0x3cc83dda	0.024443556
60	0xbd93fa86	-0.07225518
61	0x3ba0b707	0.004904631
62	0xbd19b3cf	-0.037524994
63	0xbd76b806	-0.060234092
64	0x3d9680bd	0.07348774
65	0x3c52bad7	0.012861929
66	0xbdb99035	-0.090607084
67	0xbc7387f8	-0.01486396
68	0xbd868fc0	-0.06570387
69	0x3cfb3990	0.030667096
70	0x3d07e9d1	0.03318197
71	0xbd8ada86	-0.06779961
72	0x3d37a89c	0.044838533
73	0xbc37255f	-0.011178344
74	0x3d34c11c	0.044129476
75	0xbcbc4da4	-0.02298624
76	0x3c8a4489	0.016878383
77	0x3d81db45	0.063406505
78	0x3da20430	0.07910955
79	0x3d002620	0.03128636
80	0xbc201406	-0.009770399
81	0xbc67e155	-0.014152844
82	0xbc1cbdc5	-0.009566729
83	0x3d7ddf83	0.061980736
84	0xbcb76a01	-0.022389414
85	0xbd1b5ca1	-0.037930135
86	0xbc877258	-0.016534016
87	0xbaa5ae03	-0.001264036
88	0xbd554e19	-0.052076433
89	0x3db5a766	0.08869819
90	0x3ce939a5	0.02846987
91	0x3da715c7	0.081584506
92	0x3c783a21	0.015150578
93	0x3d137591	0.036000792
94	0x3c6dc177	0.014511458
95	0xbdaf913a	-0.08572622
96	0x3d3a9c04	0.045558944
97	0x3cff94d4	0.031198896
98	0xbb3d2870	-0.0028863214
99	0xbda6d2d3	-0.0814568
100	0x3c326b7d	0.010889885
101	0x3c889078	0.01667045
102	0x3d87e70f	0.06635868
103	0x3b150ab1	0.0022741968
104	0x3d77243c	0.06033729
105	0xbd441c15	-0.047878344
106	0xbd8d82cd	-0.06909714
107	0x3bb76774	0.0055970494
108	0x3d97fcd7	0.07421272
109	0xbd14904f	-0.036270436
110	0x3dae9a3d	0.08525512
111	0xbd7a8026	-0.061157368
112	0xbc911c4c	-0.017713688
113	0x3c88969a	0.016673375
114	0x3d88c784	0.066786796
115	0xbdec6c55	-0.115441
116	0xbdb0778d	-0.086165525
117	0xbd1e13d9	-0.038593147
118	0x3d387322	0.045031674
119	0xbd82ddbb	-0.06389948
120	0x3dd41209	0.103550024
121	0x3d5a1059	0.053238247
122	0xbc95ff39	-0.018310176
123	0xbb98ab68	-0.004659105
124	0xbc3f1863	-0.011663529
125	0xbd9b58b1	-0.07585276
126	0x3d944fc1	0.07241774
127	0x3d049e9c	0.032377824
128	0x3da4fe0f	0.0805627
129	0xbd569af4	-0.05239387
130	0xbdad265c	-0.08454582
131	0x3d712730	0.058875263
132	0x3d7664c7	0.060154703
133	0xbcef40f8	-0.029205784
134	0x3d56bf09	0.05242828
135	0x3d3eb4c6	0.046559118
136	0x3c1877b7	0.009305886
137	0x3c818326	0.015809607
138	0x3d26ecfb	0.040753346
139	0x3d17689b	0.036964994
140	0xbd90cc7d	-0.07070253
141	0xbbd2dd5c	-0.0064350795
142	0x3d195caa	0.037441887
143	0xbcee7a2a	-0.029110987
144	0xbc9b074a	-0.018924374
145	0x3d439166	0.047746085
146	0xbd90d9be	-0.07072781
147	0x3d413b1c	0.04717551
148	0x3d903de6	0.07043056
149	0x3dc17dc5	0.09447817
150	0x3d69ccaf	0.057079967
151	0xbd266eb6	-0.040632926
152	0xbd7e0d9d	-0.0620247
153	0x3d59772a	0.05309216
154	0x3dbccab0	0.09218347
155	0x3db6c62f	0.08924519
156	0xbd6aa790	-0.057288706
157	0xbd902b4c	-0.07039508
158	0x3d7b0eea	0.06129352
159	0x3d4cc5cc	0.04999332
160	0x3c8896ac	0.016673408
161	0x3c667454	0.014065821
162	0xbc38065a	-0.011231983
163	0xbd44c179	-0.048036072
164	0xbdbd19e9	-0.092334576
165	0xbc2be069	-0.010490515
166	0x3d676207	0.05648997
167	0xbad013e9	-0.0015875074
168	0xbd276596	-0.040868364
169	0xbc8c19a0	-0.017102063
170	0x3cd63fc3	0.02615345
171	0xbd67c6b9	-0.056586
172	0xbb8c8039	-0.0042877463
173	0xbc9ea6dc	-0.019366674
174	0x3d4c17f7	0.049827542
175	0xbd882f71	-0.06649674
176	0x3bcde337	0.0062831896
177	0x3c97eac2	0.018544558
178	0xbdaa1f23	-0.0830672
179	0xbd5138cc	-0.051079556
180	0xbd6bc49e	-0.057560556
181	0x3d71fbbf	0.059077974
182	0x3d6d9175	0.058000047
183	0x3d37e6dc	0.0448979
184	0xbd97bcde	-0.074090704
185	0x3d413746	0.047171853
186	0x3b9a6e44	0.0047128517
187	0xbd9d8486	-0.076912925
188	0x3cdefcfd	0.027220244
189	0x3d7f98be	0.062401526
190	0x3d1c92d1	0.038225953
191	0x3dc526b6	0.09626524
192	0x3c76d56b	0.015065531
193	0xbd73a19a	-0.059480287
194	0x3e2b8e0d	0.16753407
195	0x3d9b99ee	0.07597719
196	0x3dccd104	0.10000804
197	0x3d4af043	0.049545538
198	0xbda79013	-0.08181777
199	0xbd7cfc72	-0.061764188
200	0x3d5c1831	0.05373401
201	0x3d9496c1	0.072553165
202	0x3cc6c90f	0.024265794
203	0x3d9788ad	0.07399116
204	0xbdaf507b	-0.08560272
205	0x3d8053e9	0.062660046
206	0xbcb4247c	-0.021990053
207	0xbd337c2f	-0.043819603
208	0xbd22c815	-0.039741594
209	0xbc12199e	-0.00891724
210	0x3cb29cd1	0.021803292
211	0xbd48833f	-0.04895329
212	0x3beef419	0.0072922823
213	0x3d8e9930	0.06962812
214	0x3d1cccb4	0.038281158
215	0x3b5c6cfc	0.0033634296
216	0xbd374838	-0.044746608
217	0x3c7b4586	0.0153364
218	0x3c1f7707	0.009732968
219	0xbbe02e3e	-0.00684145
220	0x3d46a388	0.0484958
221	0xbc3d1b8e	-0.011542214
222	0xbd003552	-0.03130085
223	0x3d42d5e7	0.047567274
224	0x3c67bc49	0.014144012
225	0xbd0978af	-0.03356236
226	0xbd552fe4	-0.052047625
227	0x3d20ffd0	0.03930646
228	0xbd8a9738	-0.06767124
229	0xbd6fa71a	-0.05850897
230	0xbd750e12	-0.05982787
231	0xbd3bbfe2	-0.04583729
232	0x3d905b81	0.07048703
233	0x3d52e051	0.051483456
234	0xbcf028e6	-0.029316377
235	0xbccd1cc1	-0.025038125
236	0xbc182350	-0.009285763
237	0xbbad2424	-0.0052838493
238	0xbce8ed7d	-0.028433556
239	0x3d86bf05	0.06579403
240	0xbd81941e	-0.06327079
241	0xbd0562de	-0.03256499
242	0xbcdd1bbd	-0.026990766
243	0x3d8efac2	0.06981422
244	0x3a1df9a2	0.0006026273
245	0xbd88ef69	-0.06686289
246	0x3cbe21c6	0.023209464
247	0x3d5345d7	0.051580276
248	0xbd689a17	-0.056787577
249	0xbd9c8494	-0.07642475
250	0x3daa61af	0.08319413
251	0x3bc58ad2	0.0060285116
252	0x3c88f18b	0.01671674
253	0x3cde6cf5	0.027151564
254	0x3cc23aac	0.023709618
255	0x3d4c07e7	0.049812224
