amostras/resultados/discrimation-flow-dataset/10/fgsm/PyTorchClassifier.model (torch, 206376 bytes, 22 tensors)

linear_relu_stack.0.weight f4 [64, 20]
000000 7f 56 a8 3e 60 00 c1 bf 91 f6 b1 3e 0e 33 c4 3e
       0.3287849 -1.507824 0.34758428 0.38320202
000010 36 67 24 be 9b f2 1f c0 5f 0d f1 bc 03 63 01 be
       -0.16054997 -2.4991825 -0.029425321 -0.12635426
000020 95 eb 67 3e 38 8a f7 bd eb d7 d2 bf 62 92 f6 3f
       0.22648461 -0.1208691 -1.6472143 1.9263422
000030 f6 ed 48 c0 86 69 13 c0 a0 d9 6b 3f f1 c7 f1 bf
       -3.139524 -2.3033156 0.92128944 -1.8889142
000040 c5 a3 fa 3f f1 9d 43 c0 53 51 23 c0 30 2b 49 3f
       1.9581228 -3.056515 -2.5518386 0.78581524
000050 ed d8 b2 40 ac 69 8f 40 a9 13 a4 be c1 e7 fb 3f
       5.58898 4.4816494 -0.3204625 1.9680101
000060 c7 1c e8 c0 ac 65 db be 26 38 df 3f 5a e2 b0 3e
       -7.253513 -0.42851007 1.743901 0.34547693
000070 87 6d 9e 3f 09 b5 be 3f 7a 96 49 c0 d1 59 23 c1
       1.2377175 1.4898998 -3.1498094 -10.209428
000080 54 5c fe c1 d8 06 3e c1 88 24 0c 40 b8 b1 41 c0
       -31.795082 -11.876671 2.1897297 -3.026472
000090 36 0f 29 c1 36 9d fd c1 8c d1 41 c1 88 22 ea 3f
       -10.566214 -31.701763 -12.113659 1.8291788
0000a0 89 29 11 c0 5b 52 ce bf bf d0 75 be ad a5 c6 be
       -2.26816 -1.6118883 -0.24005412 -0.38798276
0000b0 b8 c7 2b bf c7 20 a7 bf 46 5e e9 3f c8 6f a2 bf
       -0.6710162 -1.3056878 1.8231895 -1.2690363
0000c0 04 d5 5a bd 78 3b 1f bf f0 bb c7 bf 66 48 ae 3f
       -0.053425804 -0.6220012 -1.5604229 1.3615844
0000d0 d2 e1 70 bf 9e 80 be c0 a7 24 0d 40 96 6b db bf
       -0.94094574 -5.9532003 2.205362 -1.7142208
0000e0 c5 89 b2 3f 9e 76 88 bf 2e 1e c2 c0 27 6c 04 40
       1.3948294 -1.0661199 -6.066184 2.069101
0000f0 21 d9 fe 40 58 fe 56 bf 51 fd 2e 3e 0f 31 6b 3e
       7.964005 -0.8398185 0.1708882 0.22967933
000100 14 cb cf bd ab f0 3a be 55 64 e2 3d 6d 82 b2 be
       -0.10146156 -0.1825587 0.11054293 -0.34865132
000110 ba f1 e0 3e 41 c7 17 be 5b e7 c9 bf 77 ea 8b be
       0.43934423 -0.14822103 -1.5773729 -0.2732732
000120 7e c1 e8 c1 d9 e2 fd 40 70 3d 94 3f 96 d2 bc bf
       -29.094479 7.9339414 1.1581249 -1.4751766
000130 af 0b c5 be 36 cb e6 c1 4b 0e 00 41 5f 33 8a 3f
       -0.38485476 -28.849224 8.0034895 1.0796927
000140 ec 76 22 3f 67 f6 ae be c2 93 80 3e 82 03 8f bd
       0.6346271 -0.34172365 0.2511273 -0.06983091
000150 2a 46 96 bb f4 a6 b6 be f6 e9 bb bc f5 c9 a5 3d
       -0.004586001 -0.3567425 -0.02293871 0.08095161
000160 56 36 96 3d 00 fb df bb 6e 5b 50 3e f7 82 40 bf
       0.073345825 -0.0068353415 0.20347378 -0.75199836
000170 c6 a3 16 bd ce 34 59 be 2e 03 59 3d a1 37 01 be
       -0.03677728 -0.2121155 0.052981548 -0.12618877
000180 e0 f3 28 bf bd ba 7f 3e 01 0a 9e be 38 ec be 3e
       -0.65997124 0.24973579 -0.30867007 0.37289596
000190 5e 78 61 40 94 b7 2c bd fe e9 e2 be 9e 15 99 be
       3.5229716 -0.04216726 -0.44319147 -0.29899305
0001a0 53 61 83 3f 0f af 9e 3f ee cc 0b be 56 fa 5d 3e
       1.0264076 1.2397174 -0.13652393 0.21677527
0001b0 d2 75 c9 bb f7 9c 4d 3e e3 6f 3d 40 df 21 c3 41
       -0.0061480785 0.20079409 2.959954 24.391539
0001c0 4f ac 42 c2 fd c9 94 c2 5b 0e c5 c1 7f 2f 4d 40
       -48.66827 -74.39451 -24.63201 3.206024
0001d0 1a 84 c1 41 57 64 42 c2 09 d0 94 c2 91 34 c6 c1
       24.189503 -48.59799 -74.40632 -24.775667
0001e0 d2 9b cf 40 b7 ba b4 3f 81 b9 b8 bf 7c d5 e7 3f
       6.487771 1.4119481 -1.4431611 1.8112025
0001f0 49 d1 9d c0 09 81 02 40 4e eb bf bd c1 82 56 3f
       -4.9317975 2.0391257 -0.09371053 0.83793265
000200 7b 2e 27 3e 2b 23 09 bf 35 b0 16 c0 56 25 50 c0
       0.16326325 -0.5356929 -2.3545048 -3.2522788
000210 7e 55 d4 be 4f 4d 55 40 b9 58 0b c1 4c b9 0d c0
       -0.41471475 3.3328435 -8.709161 -2.2144346
000220 f8 fa 5f c0 6d 70 73 be 38 af 59 40 dc 1c 09 c1
       -3.499693 -0.23773356 3.4013195 -8.569546
000230 55 73 98 c1 e6 f6 cf bd d8 c6 c2 bf 3d d6 56 3f
       -19.056314 -0.10154514 -1.5216932 0.8392065
000240 aa de 3f be 04 97 ae 40 11 57 99 3f ca ef 45 bf
       -0.18737283 5.4559345 1.1979696 -0.77319014
000250 bd 87 a2 3f e5 54 92 bf 25 44 ba be 83 c1 83 bf
       1.2697674 -1.1432158 -0.36380115 -1.029343
000260 12 49 99 bf 89 af 06 40 ae 61 ff bc 90 9c 00 bf
       -1.1975424 2.1044638 -0.031174507 -0.50238895
000270 f1 1d 92 bf 89 ae 84 bf 7a 9e 17 40 a4 73 5b be
       -1.1415387 -1.0365764 2.3690476 -0.21430832
000280 09 20 69 c1 11 3f 91 bd 33 78 cb 3f a9 83 d6 be
       -14.570321 -0.07092107 1.5896057 -0.41897324
000290 b6 c2 bd be 44 19 d4 c0 35 8f bb 3e 58 fc 13 c0
       -0.37062615 -6.628084 0.36632696 -2.3122768
0002a0 da ee 0c 40 96 54 28 be d8 82 4e c0 86 ff c7 be
       2.2020783 -0.16438517 -3.226736 -0.39062136
0002b0 dc c9 b5 40 9e eb 5c c0 0d a9 e5 bf 9a f2 60 c0
       5.680891 -3.451881 -1.7942215 -3.5148072
0002c0 91 89 c6 be 0d 85 b8 40 1a a6 71 c0 31 6b f9 bf
       -0.3877683 5.7662416 -3.775763 -1.9485837
0002d0 a4 2b c9 bf 5c d7 9b bf 89 e0 8b be dc 6c 28 3e
       -1.5716443 -1.2175097 -0.27319744 0.16447777
0002e0 87 fe 7d be b7 97 a3 3f d9 bc 00 c0 20 1c be 3f
       -0.24804126 1.2780675 -2.0115263 1.4852333
0002f0 b8 5a 8e c0 e3 dd 99 3e 8e 78 87 c0 33 66 12 c0
       -4.448574 0.300521 -4.233466 -2.2874877
000300 06 df 99 40 0b 35 14 40 7e 48 c3 bf 10 45 84 c0
       4.8084745 2.3157375 -1.5256498 -4.1334305
000310 54 ba 16 c0 14 0a 98 40 97 26 09 40 eb 49 c4 bf
       -2.3551226 4.7512302 2.1429803 -1.5335058
000320 f0 97 f0 be e7 57 bc bf 80 84 1e 3d d1 4e f2 3e
       -0.4699092 -1.4714326 0.03870058 0.47325757
000330 ad f4 ab bd cd f8 6b c0 f2 b0 4f bf 5c e6 37 3e
       -0.083962776 -3.6870606 -0.8112937 0.17958969
000340 50 4f 88 3f cb 1a 17 bf 00 0f 69 c0 70 1c 43 bf
       1.0649204 -0.5902526 -3.6415405 -0.7621527
000350 fc a0 7e c0 08 e0 fb be 4c 1a 88 3f e8 5c 75 c0
       -3.9785757 -0.4919436 1.0633025 -3.8337955
000360 42 58 8f bf 88 1a 80 c0 ee de 60 bf d6 f4 8e 3f
       -1.1198809 -4.0032387 -0.87840164 1.1168468
000370 57 a1 a1 bf 9f 44 8a bf 77 6f 5a bf 2d 89 2e 40
       -1.2627362 -1.0802191 -0.8532633 2.7271225
000380 68 17 c5 bf 9b 7b 69 bf cf 27 42 c0 8d 09 a0 3e
       -1.5397768 -0.9120423 -3.0336797 0.31257287
000390 ff 5b a7 3f 47 11 b0 3e fc 9a 7f c0 a0 c2 12 3f
       1.307495 0.34388182 -3.9938345 0.57328224
0003a0 bd 0c 1a 40 63 42 7c 3f 3b af 0f 3f 38 06 76 c0
       2.4070275 0.985388 0.56126755 -3.8441296
0003b0 36 65 ac 3e ad ba 08 40 e3 22 3c 3f 3f ef c5 3e
       0.33670968 2.1363938 0.7349073 0.38659093
0003c0 a5 5a cc 3f b9 de db 3e 8f 4b c0 be 18 7f 90 3d
       1.5965163 0.4294336 -0.37557647 0.07055491
0003d0 68 75 86 3c 98 a1 67 c0 03 7f 45 be 6e cb 68 3e
       0.016413406 -3.619238 -0.19286732 0.22733852
0003e0 d3 0f fd bd 87 de 83 3d 30 06 3d bf d9 99 e8 be
       -0.12356534 0.06438928 -0.73837566 -0.45429876
0003f0 58 1e 8c bf 55 e6 ec 3f 01 98 c3 bc bc 6f 4a bf
       -1.094676 1.8507792 -0.023876192 -0.79076743

linear_relu_stack.0.bias f4 [64]
000000 81 94 af bf 1a eb de bf 38 d7 ee bf 6f c8 11 40
       -1.3717195 -1.7415497 -1.865943 2.2778585
000010 bc db a8 bf 11 52 ad 3e cc 25 a8 3f 9c 32 a2 bf
       -1.3192058 0.33851674 1.3136535 -1.2671695
000020 84 5b 0f c0 49 5c 13 3f 90 0a 15 c0 c6 d2 18 bf
       -2.2399607 0.5756269 -2.3287697 -0.59696615
000030 77 c8 b4 bf c2 77 ee bf 42 38 c1 3f f5 b5 f7 bf
       -1.4123677 -1.8630297 1.5095294 -1.9352404
000040 b0 df 5a 3f d6 53 e4 bf e6 2c 33 3f 4e 56 d1 bf
       0.8549757 -1.7838085 0.69990385 -1.6354463
000050 d0 c8 ba bf 19 b5 ef bf 09 4a d1 3e 3f be 01 40
       -1.4592533 -1.8727142 0.40876797 2.0272367
000060 09 ab c6 bf b6 19 fc bf e5 d7 2b 40 96 a4 8c bf
       -1.5520946 -1.9695346 2.6850522 -1.0987728
000070 7d 65 d0 bf 63 2a 13 3f 45 d7 1a 40 b5 42 7c 3f
       -1.6280972 0.5748655 2.419389 0.98539287
000080 7c 67 fc bf f4 ad d3 3e 04 41 80 bf a9 c5 aa 3f
       -1.9719081 0.41343653 -1.0019841 1.3341571
000090 aa c1 7e bf 43 1c 14 c0 81 89 fc 3e 73 ea bf 3f
       -0.9951426 -2.314225 0.49323657 1.4993423
0000a0 fd 05 f3 3f c1 b4 a1 be b2 c9 98 3f 05 0b bf 3f
       1.8986202 -0.31583217 1.1936553 1.4925238
0000b0 cf c8 23 3f c4 84 d1 bf 0b 01 44 c0 ed 71 00 3f
       0.63978285 -1.6368642 -3.0625637 0.50173837
0000c0 ce d2 e2 bf 5c 07 a9 bf 73 cb 1d c0 5f 81 83 3f
       -1.7720582 -1.3205371 -2.4655426 1.0273856
0000d0 6a 8a 1b c0 3b 2a 53 bf 61 a3 87 3f 5c 4f 59 bf
       -2.4303231 -0.82486314 1.0596734 -0.8488672
0000e0 a7 68 44 c0 b2 e9 ab 3f 06 7e 04 3e 88 d7 02 3f
       -3.0688875 1.3430693 0.12938699 0.51110125
0000f0 a2 50 0b c0 03 f2 d2 3e 4b 74 e0 be df 23 05 c0
       -2.1767964 0.41200265 -0.43838724 -2.0803144

linear_relu_stack.2.weight f4 [128, 64]
000000 25 61 20 40 6c 27 de 3e bd 94 8c 3e 98 7a 22 40
       2.5059292 0.43389452 0.27457228 2.5387325
000010 8b 11 b9 3e 69 0f 00 c0 1c 4f 79 3f cf 80 98 3f
       0.36146197 -2.0009406 0.97386336 1.1914309
000020 77 23 44 40 eb 07 e4 3f 40 e5 05 40 ac 31 e2 3f
       3.0646646 1.7814916 2.0921173 1.7671409
000030 00 21 a2 bd 64 3d 85 bf de 87 31 3f fd 27 5a bf
       -0.079164505 -1.040936 0.6934794 -0.8521727
000040 4e c9 ac c0 78 76 7e 3f 33 ce b3 3f c8 14 9c be
       -5.3995733 0.9939952 1.4047302 -0.30484605
000050 83 48 b0 bf 1e 52 47 3f 65 ce 6e bf 8a ff eb bf
       -1.3772129 0.77859676 -0.93283683 -1.8437359
000060 60 6a 40 bf 3d bd 57 c0 10 33 9e bd 88 af 78 3f
       -0.75162315 -3.3709252 -0.07724583 0.9714284
000070 55 45 a0 be 24 25 52 c0 49 aa 02 40 9b f0 a1 40
       -0.31302896 -3.283517 2.0416434 5.060621
000080 9a 45 11 3f 61 e4 90 c0 83 74 2f 3f 51 81 a1 bf
       0.5674683 -4.5278783 0.6853716 -1.2617589
000090 53 aa 12 3f 57 27 85 be ba b5 15 c0 6e 0c b4 c0
       0.57291144 -0.26006576 -2.3392167 -5.6265173
0000a0 2a f2 38 3f 7b 1e 82 bf 4c 54 1b bf 1c 4c 23 bf
       0.72244513 -1.0165552 -0.606755 -0.6378801
0000b0 30 ff 83 bf 5b 8a f1 3d 50 1a 26 40 d3 8c 0a bf
       -1.0312252 0.11793967 2.595356 -0.5412113
0000c0 91 61 77 bf cc 9d 35 bf e1 44 e4 be cd 06 48 be
       -0.9663325 -0.70943904 -0.445838 -0.19533844
0000d0 30 8d 95 3f 6d c8 ad bf 21 20 b0 bf 53 a1 6e 3e
       1.1683712 -1.357679 -1.3759805 0.23303728
0000e0 00 76 d7 bf 1e d6 d8 bd 62 85 c2 c0 73 a7 0c 40
       -1.6832886 -0.105877146 -6.078782 2.1977203
0000f0 50 d2 81 3f de f5 98 40 8c ef 21 3d 5e c0 eb 3e
       1.0142307 4.780013 0.03953509 0.46045202
000100 1b 75 3b 3f ce d2 be c0 9c 67 1a 40 55 71 ec 3e
       0.73225564 -5.963233 2.4125738 0.46180215
000110 49 e4 f7 3c 2c 86 78 c0 ee aa 99 3f e9 77 20 bf
       0.030260222 -3.8831892 1.2005289 -0.6268297
000120 97 55 90 bf 3a 42 7d bf 3a f7 95 3f 29 59 28 bf
       -1.127612 -0.9892918 1.1716073 -0.6576105
000130 b8 9c 0d 3f 53 17 6a 3e 4c df 96 bf df 07 27 3f
       0.5531726 0.2286046 -1.1786895 0.65246385
000140 ef 63 63 bf 8e 32 99 3d c2 5b f7 bf 4b ca cc be
       -0.8882436 0.07480346 -1.9324877 -0.39998087
000150 76 19 54 bd 62 92 70 3e da 96 ec bf fb a8 6b 3d
       -0.051782094 0.2349334 -1.8483536 0.0575342
000160 8d a9 8b 3e 59 ed 00 40 58 81 72 bf a7 85 b1 3f
       0.27277794 2.0144866 -0.9472861 1.3868912
000170 46 f2 a1 be c7 ff ee 3f b2 97 07 be 90 b7 48 3f
       -0.31630152 1.8671807 -0.13241461 0.78405094
000180 3f 40 d7 3f 9d fc 2a 3e da 18 26 c0 9d dc ce c0
       1.6816481 0.16697927 -2.5952668 -6.4644303
000190 73 a8 16 3f 5c b1 3d 3e 17 19 88 40 53 52 1f be
       0.58850783 0.18524688 4.2530627 -0.15558748
0001a0 b8 ab 3e be c3 92 e6 bf 30 69 13 bf ea 7d 2c 40
       -0.18620193 -1.8013538 -0.5758238 2.6951852
0001b0 5b 7e 43 40 ae 8d 92 be 99 34 c9 bf e8 c2 9b c0
       3.0545871 -0.28623718 -1.5719177 -4.8675423
0001c0 0b 85 ba 3f a8 e0 56 3f 16 c4 20 bf ee 16 d0 c0
       1.4571851 0.8393655 -0.62799203 -6.502799
0001d0 23 14 d3 3e bb 15 3c 3e 21 5c 3c bf 20 14 8b 3f
       0.412263 0.18367665 -0.7357808 1.0865517
0001e0 6f 55 e3 bf 4b d5 36 be 7c e9 11 40 7c d4 38 40
       -1.7760447 -0.17854802 2.2798758 2.887969
0001f0 82 a9 2d be 44 a9 93 ba 98 ae c2 3f ec 25 e2 be
       -0.16959193 -0.0011265655 1.5209532 -0.44169557
000200 aa a7 bf be fa a7 31 c0 07 0c a1 3f 95 92 a3 3f
       -0.37432605 -2.7758775 1.2581795 1.2779108
000210 8b 51 e0 3e 83 7e 19 c0 bc 67 43 3f ff ee 22 40
       0.43812212 -2.3983467 0.7633016 2.5458372
000220 42 3e 8c c0 56 25 e8 3f c9 b4 8a 3f c8 19 08 c0
       -4.3826 1.8136394 1.0836421 -2.1265736
000230 f4 0a 08 bf 82 0f 37 c0 6f 9b b3 bf 96 09 1d 3f
       -0.53141713 -2.8603215 -1.403181 0.6134275
000240 a0 41 99 bf 76 17 da 3e 46 d3 6e be 5f e8 38 c0
       -1.1973152 0.42596024 -0.23322782 -2.8891828
000250 34 42 f9 be b4 00 ee bf 13 fd 7d 3f e3 da 3f bf
       -0.4868332 -1.8593965 0.99214286 -0.7494337
000260 12 71 b4 3d c6 a2 23 c0 e6 37 88 c0 c3 89 ff 3f
       0.08810629 -2.55681 -4.2568235 1.9963917
000270 bd fa a1 bf 3a 9b 7d c0 d0 c9 e2 3c 40 96 9f c0
       -1.2654644 -3.9625993 0.027684122 -4.987091
000280 42 d6 23 bf e7 17 1f 40 b7 8f ee 3f 7f 73 f4 3f
       -0.63998806 2.485834 1.8637608 1.9097747
000290 d1 99 33 c0 3c ce 23 bf 13 25 89 40 77 29 9e 3f
       -2.8062632 -0.63986564 4.2857757 1.2356404
0002a0 89 7d ab bf 6b bd db bf b8 ae 21 3f e3 ed c2 bf
       -1.3397685 -1.7167181 0.63157225 -1.5228847
0002b0 7c 56 fa bf 4c 17 84 bf 0f 4e 97 3f 6e 04 58 40
       -1.9557643 -1.031961 1.1820697 3.3752704
0002c0 2d 4b 0b c0 c0 14 dc 3f fe e2 dd 3d 79 13 1b 3f
       -2.1764634 1.7193832 0.10834311 0.6057659
0002d0 83 9f 32 bf 6c fb 15 c0 c5 81 d6 3f 8f 15 f6 3e
       -0.69774646 -2.3434706 1.6758353 0.48063323
0002e0 b3 31 84 c0 c4 f0 02 bf 3e da 1c c0 e5 0a ed 3f
       -4.131067 -0.5114863 -2.4508204 1.851895
0002f0 78 95 0a bf a9 f9 d4 3c 41 7f b4 3f 7a bd ed bf
       -0.5413432 0.025997953 1.4101335 -1.8573449
000300 ae 63 19 bf ff 19 70 c0 0e cf 7b 3d e0 57 ff bd
       -0.59917724 -3.7515867 0.06147676 -0.12467933
000310 2e f1 d3 bd a8 e6 91 be 54 a7 5f 40 e6 09 02 bf
       -0.10348736 -0.2849629 3.494588 -0.50796354
000320 0e a8 03 3f 73 92 0e 40 58 fb c9 be 1f 1c 9f bf
       0.51428306 2.2276886 -0.39449573 -1.2430457
000330 f3 6d 0b bf f7 01 9b bf ef b9 87 3f 08 d1 fc 3d
       -0.54464644 -1.2109975 1.0603617 0.12344557
000340 52 70 10 40 6a 6f 79 be 69 3c 4b c0 a8 e8 e6 be
       2.2568555 -0.24358907 -3.1755621 -0.45099378
000350 92 bc 48 3e 3f 64 35 3c 80 63 64 3e e8 56 84 be
       0.19603184 0.011071264 0.22303581 -0.25847554
000360 37 df 55 be 1b 40 1b 40 7b 57 db be dc 98 7b bf
       -0.20885931 2.4257877 -0.4284018 -0.9828012
000370 c8 82 ec bd ef 6e bf bf 15 32 9e be 23 26 49 c0
       -0.11548382 -1.4955729 -0.30897585 -3.1429527
000380 fa 2a 22 3e 92 35 16 c0 bd 8f 47 40 31 c0 94 40
       0.15836707 -2.3470197 3.118148 4.648461
000390 64 58 62 3f f5 53 85 be 3b fd 07 c0 bd 5a d7 3e
       0.88416123 -0.26040617 -2.124831 0.42061415
0003a0 76 56 87 c0 55 29 04 bf e6 7d 6d 3e 31 59 29 40
       -4.2293043 -0.5162557 0.23192558 2.6460688
0003b0 b6 db 0f bf 7e b5 27 be 3e 72 3e 3f b6 65 6d bf
       -0.5619463 -0.16377828 0.7439307 -0.92733324
0003c0 4d 00 90 3f e6 c1 6c be d4 96 66 3e 9b e9 26 40
       1.1250092 -0.23120841 0.22518474 2.6080081
0003d0 2e db 11 bd 1b ea aa bf 8b 98 16 bf 47 00 b1 bf
       -0.035609417 -1.3352693 -0.5882651 -1.382821
0003e0 66 c2 a4 be b5 4d 4e 3f 90 ca bc bf fa e7 ee 3a
       -0.32179564 0.8058732 -1.4749317 0.0018227093
0003f0 23 09 ec 3d 67 57 39 bf 84 83 89 40 c6 15 94 be
       0.1152518 -0.7239899 4.297304 -0.28922862

linear_relu_stack.2.bias f4 [128]
000000 52 59 74 be 71 51 30 bd 01 b1 9d be 62 b3 34 bf
       -0.23862198 -0.04304642 -0.30799106 -0.70586216
000010 bf b1 31 bd 88 4c a5 3e ff 77 2b 3e d1 ea f9 be
       -0.043382403 0.3228495 0.16744994 -0.48811963
000020 8d cf 2b 3f ab 3d a6 bc 23 0b 11 3f ae 72 a4 bd
       0.6711357 -0.020293077 0.5665762 -0.08029686
000030 55 1e 1d bf 4a 22 10 3f 8d e7 ef be ad 42 bf 3e
       -0.6137441 0.5630232 -0.46856347 0.37355557
000040 43 66 ba 3e 36 47 44 3e 28 84 07 bf a0 b8 b6 3e
       0.36406144 0.1916779 -0.5293603 0.35687733
000050 1e 49 04 bd 7c 6c 9a 3d 64 f2 b3 be 9a 56 48 3e
       -0.032296292 0.07540223 -0.35145867 0.19564286
000060 a0 90 18 3f 6d 99 0e be 6d f7 bb bd 65 f4 a2 3e
       0.5959568 -0.13925715 -0.09178052 0.31827083
000070 a3 77 9a be 7c 35 24 3e 56 8f 94 bd 0f c0 7c 3e
       -0.301694 0.16036028 -0.07253902 0.2468264
000080 b6 be 08 bf 91 78 15 be 63 ef a7 3e e3 c3 12 3f
       -0.53416 -0.14596774 0.32799825 0.5733015
000090 2d 20 6e be c0 0c a1 3f bf fb ed bd dd 19 4f bf
       -0.23254462 1.2582016 -0.116202824 -0.8089884
0000a0 35 25 28 3e 1d b9 b7 3e 57 e7 89 3e 4c 0c ea be
       0.16420443 0.35883418 0.2693431 -0.45712507
0000b0 91 9d 05 be 1b 72 05 3f d3 b2 87 3e 28 33 32 3f
       -0.13048388 0.52127236 0.2650362 0.6960931
0000c0 d6 0b 91 bf 36 d7 c9 3e c4 9b c9 bd 9b 5d e0 be
       -1.1331737 0.39422005 -0.09844163 -0.43821415
0000d0 5e fb 48 3d 75 42 54 bf 1e 6a 2f bf 59 6e 6e 3e
       0.049067847 -0.82913905 -0.68521297 0.23284282
0000e0 4d 51 9b 3f a0 da 3b 3e ad 6d c4 bd e1 a7 7d be
       1.2134186 0.18345118 -0.095912315 -0.24771072
0000f0 76 61 b4 3e 44 2f 35 3e 7d fa e5 3e 33 89 56 be
       0.35230607 0.17693812 0.4491767 -0.20950775
000100 f0 37 a1 3c 65 a3 97 3e 49 1b 40 3e 7c 8d d1 be
       0.019679993 0.29616848 0.18760408 -0.40928257
000110 59 a3 9e bc 4d 0c 1b 3e bd 48 28 3e 5a 35 77 3f
       -0.019365 0.15141411 0.16433997 0.96565783
000120 92 57 79 be 89 5b 49 be 9e 97 66 3f af fc 8d bf
       -0.24349812 -0.19663824 0.900751 -1.1092738
000130 bc 20 b2 3e 65 fe 45 be 7a 1f 59 3e 6e fa be bd
       0.347906 -0.19335325 0.21203414 -0.093251094
000140 22 37 a0 3e 6d 18 45 bf 8c c0 f5 bd d1 d5 80 3d
       0.31292063 -0.76990396 -0.11999616 0.06290782
000150 2f b5 37 3d 85 a2 36 3e 3f 51 14 bf 60 fe f3 be
       0.044850525 0.17835434 -0.5793647 -0.4765501
000160 91 99 63 3d 53 ee a7 bd a8 f3 f2 be 0e 57 af 3d
       0.055566374 -0.081997536 -0.4745152 0.08561526
000170 19 89 0a be 1a 47 58 be 0a 5e 96 be 35 cb f0 bd
       -0.13528861 -0.21120873 -0.2936862 -0.11757509
000180 1a 7d 33 3e bc 51 49 3f 29 f1 8d bf 0a fb 7f 3e
       0.17528191 0.7864034 -1.1089221 0.24998108
000190 ef c1 96 be 3a a6 77 3c e6 3a 60 3e 2e 5c 83 3f
       -0.29444835 0.015115315 0.21897468 1.0262506
0001a0 27 18 fe 3c 62 21 e6 bd 4b 91 b7 3e b9 dc 98 be
       0.031017376 -0.11236836 0.35853037 -0.29855898
0001b0 13 88 59 3e 26 04 a3 bd f2 ec f3 3d 72 7a 39 3e
       0.21243314 -0.079597756 0.11910428 0.18113115
0001c0 35 17 56 bd f4 b3 ea be f9 fe 83 be 6f 38 23 3f
       -0.052268226 -0.45840418 -0.25780466 0.63757986
0001d0 be d2 9d be fc c7 58 3e fb a8 a1 bc 89 eb 07 bf
       -0.30824846 0.21170038 -0.019733896 -0.53093773
0001e0 06 6e 52 bf b2 97 53 be d6 66 c9 be 5f 9a d2 be
       -0.8219913 -0.20663336 -0.3933627 -0.411334
0001f0 2e 4a d5 3e 6f d3 a1 be 54 82 8f be 75 39 b4 3e
       0.41658157 -0.31606624 -0.2802912 0.35200086

linear_relu_stack.3.weight f4 [128]
000000 d4 a0 e3 3f 79 40 26 40 13 8c 02 40 bf 90 42 40
       1.7783456 2.597685 2.0397995 3.0400846
000010 d0 04 2a 40 53 da 44 40 7a a7 1a 40 27 57 6b 40
       2.6565437 3.0758255 2.416472 3.6771944
000020 9a 10 2d 40 24 10 ae 3f 7a b6 f8 3f 4f 4e 40 40
       2.7041383 1.3598676 1.9430687 3.0047796
000030 61 80 06 40 31 7a f5 3f 22 b4 19 40 d4 99 14 40
       2.1015856 1.9177915 2.4016194 2.321889
000040 ed c3 1f 40 b7 52 1d 40 5b 04 7e 40 e8 42 0d 40
       2.4963334 2.4581735 3.9690158 2.2072086
000050 1b d0 92 3f 8c cf 88 40 50 06 19 40 e9 76 17 40
       1.1469759 4.2753353 2.3910103 2.3666327
000060 1a a6 4d 40 36 b0 9e 3f 64 3b 45 40 05 8a 99 3d
       3.213263 1.2397525 3.08175 0.07497028
000070 84 29 40 40 11 68 4a 40 4c 50 29 40 4a 35 0e 40
       3.002534 3.1626017 2.645526 2.2220025
000080 9e 16 0f 40 b8 e8 2d 40 7a 06 c7 3f b8 92 bd 3f
       2.2357554 2.717329 1.5548851 1.48104
000090 cb ce 76 40 b9 df c8 40 3d de 03 40 91 28 bc 3f
       3.8563716 6.27731 2.0604393 1.469988
0000a0 67 c1 b0 3f 9b 6e f4 3f 6d f5 19 40 95 0f 4c 40
       1.3809022 1.9096254 2.4056046 3.188451
0000b0 0c 52 0f 40 b8 17 ef 3f 14 bf 88 40 51 0f 0a 40
       2.2393827 1.8679113 4.273325 2.1571848
0000c0 2c 4b 1f 40 59 58 45 40 19 65 52 40 19 84 32 40
       2.4889631 3.0835173 3.2874205 2.7893126
0000d0 8e 87 43 40 67 bb 13 40 ca ff fe 3f 3b ae aa 3f
       3.0551486 2.3083131 1.9921811 1.3334421
0000e0 f0 fa a5 40 d8 14 4c 40 6b 20 17 40 cc 9f 07 40
       5.186882 3.1887722 2.3613536 2.1191282
0000f0 04 ea 56 40 7e 6e a6 3b 96 05 ae 40 df 3d 12 40
       3.3580332 0.0050790897 5.438182 2.2850263
000100 1c ad 33 40 c0 81 60 bd e8 13 03 40 3c c7 0e 40
       2.8074408 -0.05481124 2.04809 2.2309103
000110 29 05 3c be 7d 51 14 40 cf 33 01 40 11 35 89 40
       -0.18361343 2.3174736 2.0187871 4.287728
000120 a4 dd 12 40 58 3d f7 3f a4 65 60 40 cc e4 2b 40
       2.2947779 1.9315596 3.5062037 2.6858397
000130 51 26 2a 40 80 90 52 40 16 f7 51 40 11 2d fe 3f
       2.6585886 3.2900696 3.280706 1.9857503
000140 62 d6 85 40 c3 33 da 40 90 da 74 bd e5 be 39 40
       4.18242 6.8188186 -0.05977875 2.9022763
000150 91 51 d7 3d 62 2a fb 3f d0 0a 21 40 d2 29 0a 40
       0.105136044 1.9622309 2.516285 2.1588025
000160 02 5f 89 40 d5 ed 1b 40 ae 45 d6 3f 24 59 00 41
       4.2928476 2.436391 1.6740015 8.021763
000170 f9 99 3b 40 e8 cc f0 3f 9c f7 17 40 bf f2 8e 40
       2.9312727 1.8812532 2.3744879 4.467132
000180 4b a7 1f 40 69 4f 04 40 f3 7c 05 40 a3 24 38 40
       2.4945858 2.0673468 2.0857513 2.8772361
000190 2b 3b 04 40 b5 ba 0c 3f 35 e3 73 40 75 a1 84 40
       2.0661113 0.5497239 3.8107426 4.144709
0001a0 c7 8a a9 3d 44 c3 a0 3f 12 ff c4 3f 00 c3 6e 40
       0.08278423 1.255959 1.5390341 3.7306519
0001b0 a8 43 05 40 45 10 26 40 04 2f 07 40 6d de bf 3f
       2.0822544 2.594743 2.1122446 1.4989754
0001c0 54 b9 b0 3f fb fb 77 40 16 cc 12 40 63 4b 3d 40
       1.3806558 3.8747547 2.2937064 2.9577262
0001d0 76 0e 13 40 5d 2d c7 40 c7 f1 1a bd 50 24 3c 40
       2.2977576 6.2242875 -0.037828233 2.9397163
0001e0 b0 18 6a 40 c4 4e 24 40 e6 51 34 40 f5 c6 b1 3f
       3.6577568 2.5673075 2.8174987 1.3888842
0001f0 18 fa 42 40 f1 09 29 40 d9 00 24 40 e7 69 be 3f
       3.0465145 2.6412318 2.5625517 1.4876069

linear_relu_stack.3.bias f4 [128]
000000 91 8d b8 bf 16 82 4c bf f7 92 d2 bf 1c e2 5f bf
       -1.4418203 -0.79885995 -1.64511 -0.8745439
000010 9a ad f9 be db 7a 80 bf 4a 92 2a bf 9d 37 0a c0
       -0.4876526 -1.0037493 -0.6662947 -2.1596444
000020 04 a5 a5 bf 0d 9d 0f c0 f8 a0 ba bf bf 26 b6 bf
       -1.2940984 -2.2439606 -1.4580374 -1.4230574
000030 de f9 a6 3e d5 b1 e3 bf 2f 79 d1 bf f3 a0 d4 bf
       0.3261251 -1.7788645 -1.6365107 -1.6611618
000040 8b e7 97 bf 4f 72 b9 bf b8 bc f9 bf 19 e8 e7 bf
       -1.1867536 -1.4488009 -1.9510717 -1.8117706
000050 25 d4 03 bf 7f a7 33 c0 d7 f9 bb bf 81 df a5 bf
       -0.5149558 -2.8070982 -1.468562 -1.2958833
000060 5d 1e 7e bf 12 39 b1 bf d9 7f 0f c0 52 06 f8 bf
       -0.9926508 -1.3845541 -2.2421782 -1.9376929
000070 84 a0 18 c0 bd ec d5 be ec 9e b2 bf ec 2a aa bf
       -2.384797 -0.4178218 -1.3954749 -1.3294349
000080 71 0e 0a c0 70 4c b6 bf d7 87 eb bf 0b 58 b4 bf
       -2.1571314 -1.4242077 -1.840083 -1.4089369
000090 dd 6d 38 c0 27 bf 04 c0 35 ca b4 bf dd ab 06 c0
       -2.8817055 -2.074167 -1.4124209 -2.1042397
0000a0 62 12 e5 3d b9 73 c3 bf 4c cf 68 bf 9f f1 be bf
       0.11185147 -1.5269691 -0.9094131 -1.4917487
0000b0 55 85 0f c0 ef 13 22 c0 8d 8a e5 bf 73 d3 3d bf
       -2.242513 -2.5324667 -1.7932907 -0.7415077
0000c0 fb 65 75 bd 89 45 d0 bf 56 00 28 bf 6c 72 89 bf
       -0.05991171 -1.627122 -0.6562551 -1.0738044
0000d0 8d de f7 bf 49 28 8c bf 8b 3c 86 be 2f 0e b6 bf
       -1.9364792 -1.0949794 -0.26218066 -1.4223078
0000e0 d4 05 31 c0 ae c3 d3 bf 96 85 52 bf cd 1f 0c c0
       -2.7659807 -1.6544092 -0.82235086 -2.189441
0000f0 dd 84 05 c0 c5 0a 7b bf 8a c6 6a c0 2f 05 78 bf
       -2.0862343 -0.9806331 -3.6683679 -0.9688291
000100 e2 77 09 c0 b9 d4 91 bf 70 ff bd bf df ac f1 bf
       -2.147942 -1.1393043 -1.4843578 -1.8880881
000110 c3 66 8b bf 4e c6 cf bf eb 11 6f bf 78 a6 c8 bf
       -1.0890735 -1.6232393 -0.93386716 -1.5675802
000120 6a 93 22 c0 d0 47 e8 bf 14 ba ab bf 9a 2b 83 bf
       -2.5402474 -1.8146915 -1.3416162 -1.0247681
000130 17 0e a5 bf 40 46 5f bf db 9e a3 bf 8a ed 90 be
       -1.2894925 -0.8721657 -1.2782854 -0.28306228
000140 b0 b9 01 c0 cd 06 12 c0 9b e5 ae bf 75 1e 89 bf
       -2.0269585 -2.281665 -1.366382 -1.071242
000150 32 e5 ed bf d3 a0 12 3e 40 a2 6b bf ff da ee bf
       -1.858557 0.14319162 -0.9204445 -1.8660582
000160 46 07 24 c0 f5 a4 c1 bf 1b 88 16 c0 37 26 92 c0
       -2.562944 -1.5128466 -2.3520572 -4.567165
000170 84 a5 42 bf 78 4f 70 bf 5a 21 1d bf 71 4d 08 c0
       -0.76033807 -0.9387126 -0.61379015 -2.1297266
000180 d9 33 ad bf 29 a7 88 bf e1 e1 6c bd d3 52 da bf
       -1.3531448 -1.0676013 -0.057832602 -1.7056526
000190 0f d9 f2 bf 0e 30 70 be f0 a4 b1 bf d5 6a 5d bf
       -1.8972491 -0.23455831 -1.387846 -0.8649114
0001a0 de 8a a1 bf 29 6c ce bd 60 a4 5c bf 8a 8e 01 c0
       -1.2620504 -0.10079224 -0.86188316 -2.024325
0001b0 ab b9 61 bf c6 c7 d0 bf 21 9d 4f bf c9 04 97 bf
       -0.8817393 -1.6310966 -0.81099135 -1.1798335
0001c0 ef fd c9 bf f0 59 25 c0 b2 96 aa bf a1 c6 64 bf
       -1.5780619 -2.5836143 -1.3327239 -0.89365584
0001d0 81 34 53 bf b3 56 37 c0 04 fd 0a c0 65 1c 60 be
       -0.8250199 -2.8646667 -2.1716928 -0.21885832
0001e0 a8 52 93 bf 4c f5 b3 bf ed be b8 bf cc 92 0a c0
       -1.15096 -1.4059234 -1.4433266 -2.1652098
0001f0 f0 30 13 c0 95 0d 1d c0 80 fc c9 bf 9d e8 a1 bf
       -2.299862 -2.453954 -1.5780182 -1.2649113

linear_relu_stack.3.running_mean f4 [128]
000000 87 60 ab c1 ee 03 8f c0 da 5a cc c0 6c 12 1d bf
       -21.422132 -4.4692297 -6.3860903 -0.61356235
000010 83 51 a6 bf 94 a4 da 41 a1 00 fa bf 31 03 89 41
       -1.2993625 27.33036 -1.9531442 17.126558
000020 af b6 39 c1 e9 e9 d8 bf 40 3d b9 c1 8c 89 01 be
       -11.6071005 -1.6946384 -23.154907 -0.12650126
000030 47 ba a0 c0 bb 52 fc c0 6b 60 68 c1 90 11 4b 41
       -5.022739 -7.885099 -14.52354 12.691788
000040 dc 9f 83 c1 c5 80 19 3f ad 23 5a 40 06 f9 da c0
       -16.453056 0.5996211 3.4084275 -6.8428984
000050 a4 c7 39 c1 6a 8d 97 3f bc e1 89 bf f6 72 10 41
       -11.61124 1.1840031 -1.0772014 9.028067
000060 41 a6 e4 40 38 75 87 c0 ca 67 07 41 33 2b 0b c1
       7.1452947 -4.233059 8.462839 -8.698047
000070 69 f7 f1 c0 59 80 b7 c1 9e 4d 50 c0 6b 50 ae 40
       -7.5614514 -22.93767 -3.2547374 5.4473166
000080 21 5e 7e 40 68 f0 81 c0 f3 b9 15 41 f0 ae 48 41
       3.9744952 -4.0605965 9.357898 12.542709
000090 c1 7c c5 40 41 27 b7 3e c6 4b 13 3d 8f 72 2b 41
       6.1714787 0.35772136 0.035960935 10.715468
0000a0 d8 e0 05 bf e4 f7 bf 41 e8 af 5e 40 20 10 31 c0
       -0.5229621 23.99604 3.4794865 -2.7666092
0000b0 60 02 0c c0 d5 98 05 c1 e8 39 d8 c0 0b d8 ee c0
       -2.187645 -8.3498125 -6.7570686 -7.4638724
0000c0 eb 6c 19 c1 b7 45 d1 c0 76 b9 29 c1 94 d7 0a 41
       -9.589091 -6.53976 -10.607779 8.677631
0000d0 97 ba a9 40 53 26 7c bf e8 5d af c0 32 f9 97 c1
       5.304027 -0.9849598 -5.480213 -18.996677
0000e0 b4 5b 8c c0 f0 72 9c 40 c2 89 f9 c0 42 79 ae c0
       -4.386194 4.8890305 -7.798066 -5.452302
0000f0 da c3 bd 3e 8a c5 5d 40 12 7a 02 41 7b 6d 51 40
       0.37063485 3.4651818 8.154802 3.2723072
000100 35 bf bd 3f 6f 94 f1 40 0a b4 0a c1 4b c6 28 c1
       1.4823977 7.5493693 -8.668955 -10.548411
000110 89 31 ad 40 ac 96 b6 3f bc 91 89 3f 64 62 a0 3f
       5.412297 1.4264731 1.07476 1.2530026
000120 77 65 61 41 85 15 03 c0 91 7a 86 41 5b a4 cf 3f
       14.087272 -2.0481884 16.809847 1.6222032
000130 ac 13 25 41 9e 83 38 c0 88 f6 a6 c1 62 6f 42 40
       10.317303 -2.8830333 -20.870377 3.0380483
000140 f9 7b 64 c1 c9 ea 24 c0 22 26 05 c0 97 e8 7b 40
       -14.280267 -2.5768301 -2.0804524 3.9360712
000150 d1 a0 2f c0 59 e1 81 c1 ce ad 81 40 df c4 83 c1
       -2.7441905 -16.235033 4.0524664 -16.471128
000160 1e 84 1d 41 08 cd 11 41 85 f8 0c bf dc d6 eb 40
       9.844755 9.112556 -0.5506671 7.369978
000170 f7 d0 85 c1 7c 11 76 c1 8a cd 02 c2 ca e1 e0 3f
       -16.727034 -15.379269 -32.70072 1.7568905
000180 62 b4 9a c1 7a 5f 45 3f 85 fb 8e c0 5d df 3d c1
       -19.338078 0.7709881 -4.468203 -11.867032
000190 e2 0e 6f c1 cc 53 15 41 03 1f f6 bf 31 14 10 c1
       -14.9411335 9.332958 -1.9228214 -9.00493
0001a0 3c d4 fa 3f 9a e6 e1 c0 54 71 24 bf fa 99 4a c0
       1.9596019 -7.0593996 -0.64235425 -3.165648
0001b0 f5 e3 11 41 8f a0 93 40 9f bb 3f c1 28 25 8d bf
       9.118154 4.6133494 -11.983306 -1.1026964
0001c0 3c d1 34 40 2a e3 49 41 ba 4c c2 bf d9 5d 2b 40
       2.8252707 12.61796 -1.5179665 2.677603
0001d0 c2 61 15 bf 5a 20 f4 40 94 95 01 40 a0 96 54 c1
       -0.5835229 7.628949 2.0247545 -13.286774
0001e0 e3 06 89 40 35 c2 0d c0 b4 a0 a8 c0 37 61 3d c0
       4.2820907 -2.2149785 -5.269617 -2.9590585
0001f0 6b 75 44 c0 4d 3c 7d 41 38 c4 e6 40 43 df 15 40
       -3.0696666 15.827222 7.2114525 2.3417518

linear_relu_stack.3.running_var f4 [128]
000000 eb 7a 35 42 4a ce 5c 41 d4 49 5e 41 b6 75 e4 40
       45.370037 13.800364 13.893024 7.139369
000010 0a 7d 61 41 e1 11 e8 41 e6 18 9d 41 32 b3 d5 41
       14.093027 29.00873 19.637157 26.712498
000020 82 1f a3 41 81 7d 0b 42 fb fb e7 41 a7 e6 00 41
       20.390385 34.872562 28.998037 8.056312
000030 1b a7 de 41 92 52 b8 41 63 90 9f 41 87 41 91 41
       27.831594 23.040318 19.945501 18.156996
000040 32 55 07 42 04 b5 8c 41 01 b7 9d 41 fa ef 46 41
       33.8332 17.588387 19.714357 12.433588
000050 00 bc 5b 41 b1 51 a9 41 53 da e7 41 b5 bb d9 41
       13.733398 21.164888 28.981604 27.216654
000060 b7 14 89 41 80 82 b8 41 07 23 ec 41 94 d4 60 42
       17.135115 23.06372 29.517103 56.207596
000070 b2 e0 00 42 30 2d 2b 42 81 70 6f 41 28 64 4e 42
       32.21943 42.79413 14.964967 51.59781
000080 86 29 1c 42 ba 70 2a 42 54 99 e3 41 b2 83 4c 42
       39.04055 42.610085 28.449867 51.12861
000090 31 b5 8c 41 b8 25 ca 40 ce 06 c9 41 3a d5 b3 41
       17.588472 6.3171043 25.128323 22.479115
0000a0 a9 cc 8e 41 58 cc 9d 41 9c 55 b0 42 19 bb 87 41
       17.849932 19.724777 88.167206 16.966356
0000b0 16 fd 8c 41 bd 48 10 42 98 1a fc 40 be 86 b7 41
       17.623577 36.071033 7.8782463 22.940792
0000c0 35 0c 8b 41 ec f9 86 41 76 44 df 41 ab 87 03 42
       17.38096 16.872032 27.908428 32.88249
0000d0 d1 05 59 42 a3 8e 88 41 0f a9 6b 41 04 5c 74 41
       54.25568 17.069647 14.728774 15.272465
0000e0 40 68 7d 41 2d 98 09 42 ef 84 d4 41 86 d5 01 41
       15.837952 34.39861 26.564909 8.11463
0000f0 bc 5f 98 41 36 a1 90 41 22 de 8a 41 87 f3 88 42
       19.046745 18.078716 17.358463 68.47564
000100 d2 62 34 41 77 5e 96 41 35 bb 43 41 2c 7e d5 41
       11.274126 18.796125 12.233205 26.686607
000110 e4 75 a4 41 34 47 ef 41 f5 6a 61 41 c5 0a 0c 42
       20.557564 29.909767 14.088613 35.010517
000120 da 05 a3 41 62 a9 a2 41 62 9d bc 41 49 64 55 41
       20.377857 20.332706 23.576847 13.336984
000130 ef 26 2e 42 b4 44 b1 41 f7 22 ce 41 f5 fb de 41
       43.53802 22.158546 25.767073 27.873026
000140 a1 65 b4 41 76 f8 cd 41 a6 3a a3 41 d1 a8 9f 41
       22.549623 25.746319 20.403637 19.95743
000150 8d b1 e2 42 2b e3 1e 42 00 4f 36 41 71 6e 4e 41
       113.34678 39.721844 11.394287 12.901963
000160 b9 cb 81 41 31 f7 54 41 c5 11 4f 41 b7 c3 a7 41
       16.224474 13.310349 12.941838 20.970564
000170 8e 35 ba 41 63 74 98 41 a4 34 31 42 af 8d 3e 41
       23.27615 19.05683 44.301407 11.909591
000180 75 ea b2 41 60 8d a5 41 a1 89 95 41 a7 a8 b5 41
       22.364481 20.69403 18.692202 22.70735
000190 00 cf ac 41 57 ea 9f 41 88 8d c0 40 91 31 73 41
       21.601074 19.989424 6.017277 15.199601
0001a0 2d ad e1 41 f9 99 fb 41 21 5f e9 41 16 fc 68 41
       28.209558 31.450182 29.17145 14.561544
0001b0 99 ac 8b 41 7d 6c d1 41 da 1e 10 42 28 4d 11 42
       17.459276 26.177973 36.03013 36.325348
0001c0 0b d6 b9 41 8f 0e dc 41 1c f7 02 42 da f0 95 41
       23.229513 27.507109 32.741318 18.742603
0001d0 98 77 8d 41 6d 4e a0 41 71 33 dc 41 a1 1b 6d 41
       17.683395 20.038294 27.525118 14.819245
0001e0 84 3b 59 41 2b bf 79 41 bf 0b 38 41 80 53 97 41
       13.57703 15.609172 11.502868 18.915771
0001f0 b9 e4 1e 41 b1 17 cc 41 63 fb 6a 42 19 6b 74 41
       9.9308405 25.511568 58.745495 15.276147

linear_relu_stack.5.weight f4 [256, 128]
000000 bd ba dd 3f cb 03 18 3f 48 21 2c 3f 1d 06 84 bf
       1.7322613 0.5938079 0.67238283 -1.0314366
000010 cf 6d 61 40 a0 b2 f2 3a 72 4b 7f 3f dc 72 73 3f
       3.5223272 0.0018516369 0.99724495 0.95097136
000020 38 83 72 c0 81 e7 d6 3f 0c 46 43 40 16 99 1f bf
       -3.789259 1.6789399 3.0511503 -0.62342966
000030 64 4c 87 40 bd 33 80 40 18 a1 90 bf da 19 51 c0
       4.228075 4.0063157 -1.1299162 -3.2672029
000040 39 58 80 bc 25 b0 1b bf e8 80 43 c0 11 7d a9 bf
       -0.015667068 -0.6081565 -3.0547428 -1.3241292
000050 9b 00 c8 3e 70 8e 23 40 51 71 3c c0 95 7f 51 3f
       0.39062962 2.5555687 -2.9444163 0.818353
000060 39 c0 21 40 5b 4e 57 c0 e4 11 df 3f 7a 4e ad bf
       2.5273573 -3.3641574 1.7427335 -1.3539574
000070 a5 09 52 40 40 00 b7 bf 27 03 4e bf b6 6d bc bf
       3.2818387 -1.4296951 -0.8047356 -1.4720981
000080 fd 21 27 40 db 47 b1 3f 90 41 f8 bf 42 eb 20 40
       2.6114495 1.3850054 -1.9395008 2.514359
000090 8f 2b 83 3f da 96 5f bf 28 2d c1 bf 51 34 df c0
       1.0247668 -0.87339556 -1.5091906 -6.9751363
0000a0 d6 dc e1 3f 72 8a 19 c0 33 e4 b7 3f 36 09 3c 3f
       1.7645519 -2.399075 1.4366516 0.73451555
0000b0 1c cb 67 c0 3a 7e c4 3f 92 5a 38 3f 6f 47 5d 40
       -3.6217718 1.5351021 0.720132 3.457485
0000c0 8d 3d 16 3b 13 31 a8 c0 c7 6b 80 be 0a 4e 24 40
       0.002292487 -5.2559905 -0.25082228 2.5672631
0000d0 5a da 9a 3f 1e 8d cb bd 97 20 21 40 f9 b9 06 bf
       1.2097886 -0.09939025 2.5176141 -0.5262752
0000e0 ae b2 5a c0 25 80 2f 3e f0 df 73 3f 62 13 fa bf
       -3.4171557 0.17138727 0.95263577 -1.9537165
0000f0 c0 af 36 3f 2f 61 24 bf 70 f1 98 be 46 08 1f 3f
       0.71361923 -0.6421079 -0.29871702 0.62122
000100 70 7a 69 c0 b3 a5 76 bf 7e 49 f5 3f 3c 25 1f c0
       -3.648098 -0.96346587 1.9163053 -2.4866476
000110 23 1a 77 3d d7 08 eb 3f 6f 11 21 40 47 49 ec 40
       0.06032766 1.8362073 2.516689 7.383945
000120 60 64 46 bf bf 52 01 c0 da ae d4 be bc 99 9d 3f
       -0.7749691 -2.0206754 -0.4153965 1.2312541
000130 98 58 81 bf b6 23 81 40 62 ef de bf 7f ab 98 40
       -1.0105162 4.0356092 -1.7416804 4.7709346
000140 4f 49 12 3f 5c e2 25 40 57 35 0a bf cb 18 e8 bd
       0.5714311 2.5919409 -0.5398764 -0.11332854
000150 0c 48 e1 3f 73 60 2b bf cb 13 d1 3f 7b df 1b c0
       1.7600112 -0.66944045 1.6334165 -2.4355152
000160 ca 78 3e 40 de e9 3b c0 e3 bb a1 3f e9 62 12 41
       2.9761224 -2.9361491 1.2635463 9.149148
000170 60 3a b3 bf 1e a0 9a bd 31 45 0e 40 51 59 99 bd
       -1.400219 -0.07550071 2.222973 -0.07487739
000180 57 51 8b bf 70 5d b1 be eb 8c 31 40 5a 6b 1e c0
       -1.0884198 -0.346416 2.774226 -2.4753022
000190 00 22 3f c0 9d 29 89 3f 06 84 15 c0 13 71 93 be
       -2.9864502 1.0715824 -2.336183 -0.28797206
0001a0 da 6b c7 be b4 2f 28 c0 60 60 99 3d 5f 69 1c 3f
       -0.38949472 -2.6279116 0.07489085 0.61098284
0001b0 80 da 46 40 8b ca 14 3f 69 66 1d bf 46 00 19 c0
       3.1070862 0.58121556 -0.6148439 -2.3906417
0001c0 d9 60 2c 3f 57 6c 10 3f 5c 97 ab 3e 51 8f a8 be
       0.6733528 0.56415313 0.33513916 -0.32921842
0001d0 a1 c6 bf 3f c7 d0 04 40 93 f2 a0 3e b8 7b ca 3f
       1.4982492 2.0752428 0.3143507 1.5819006
0001e0 bc 3d 54 40 0d c4 0d c0 14 f3 34 c0 ec aa e6 3f
       3.316268 -2.215091 -2.8273363 1.8020911
0001f0 33 17 0b be de 7b 95 3e bf bf a7 3f 9b e9 b4 3f
       -0.13583069 0.29196066 1.3105391 1.4133791
000200 27 f6 03 3c 57 60 3c 3f 26 52 9a bf a6 8a fa bf
       0.008054293 0.735845 -1.205632 -1.9573562
000210 ad eb 07 3f 72 b0 59 40 ac 1b 3c bd a7 5f bd c0
       0.5309399 3.4013944 -0.045924827 -5.9179263
000220 5f 0a e6 3f 0a 75 1e bf 8c 7d 8b be a4 2d 35 3d
       1.7971915 -0.6189734 -0.27244222 0.04423298
000230 4e 92 8d 3f c8 43 3f c0 5d 97 18 40 e8 ed 99 3e
       1.1060274 -2.988512 2.3842385 0.3006432
000240 dc 94 6b bf 41 0e 93 bf 30 4f a9 c0 be 8c 2e bf
       -0.92024016 -1.1488725 -5.2909164 -0.68183506
000250 04 7a 75 c0 79 84 b9 be d1 0c b9 3f 3d 97 30 40
       -3.8355722 -0.3623388 1.4457036 2.7592309
000260 14 fb 0b c0 0b d1 43 3f 12 46 e0 3f 49 31 32 bf
       -2.1871996 0.7649085 1.7521384 -0.69606453
000270 fa e9 8a c0 a7 8f 3e c0 88 94 03 c0 cf e8 c3 3f
       -4.3410616 -2.9775178 -2.0559406 1.5305423
000280 d9 d3 3a bf 60 48 47 40 06 65 49 3f 76 64 2d 3e
       -0.72979504 3.1137924 0.78669775 0.16932854
000290 de 95 77 40 fa 8b 4e c0 1e 45 cd 3f 08 c2 6d c0
       3.8685222 -3.2272935 1.6036718 -3.7149677
0002a0 03 53 18 40 8b 79 22 c0 d6 80 02 40 56 e6 32 c0
       2.3800666 -2.5386684 2.0391135 -2.7953086
0002b0 0d de 2a 40 f8 21 62 c0 72 ab c5 3f d6 05 e2 3f
       2.669803 -3.5333233 1.5442946 1.7658031
0002c0 49 07 17 c0 15 36 67 be 4f bf 97 40 01 66 4a bf
       -2.3598197 -0.22579224 4.742103 -0.79061896
0002d0 82 97 ea 3f df 23 ae bf 8c d4 0c bf 60 bb 15 c0
       1.8327487 -1.3604697 -0.5501182 -2.3395615
0002e0 49 62 3a c0 86 13 33 c0 29 fc 0f 40 b5 31 a5 bf
       -2.9122488 -2.7980666 2.2497656 -1.2905794
0002f0 05 55 76 3e 1b 76 3a be 41 4c 33 40 0c 7e 1e c0
       0.2405587 -0.18209116 2.8015292 -2.4764433
000300 96 67 a1 3f 53 15 a2 3e b6 19 e7 3e 08 8b 38 40
       1.2609737 0.31656894 0.45136803 2.8834858
000310 41 39 2c be 29 30 7c be c8 b7 06 c0 4a 08 41 3f
       -0.16818716 -0.24627747 -2.104967 0.75403273
000320 88 39 b1 3f c5 f1 ab 3f 16 4d a2 bf e0 9b 39 bf
       1.3845682 1.3433157 -1.2679775 -0.7250347
000330 7e 1a 87 bf b6 2d 28 c0 ee 5a 62 3f bc 6b 0a 40
       -1.055496 -2.62779 0.8842 2.1628256
000340 e8 8b e3 3f c9 52 62 bd bc d4 bd be 61 cb f3 3e
       1.7777071 -0.05525473 -0.37076366 0.47616103
000350 5c f5 8e 3f 78 d9 c2 40 aa 66 c4 3e 2a 38 1b c0
       1.1168628 6.0890465 0.38359576 -2.425303
000360 31 8e 15 c0 96 92 fa bf b7 71 17 3f 84 bf 33 c0
       -2.3368037 -1.9575984 0.5915789 -2.8085642
000370 5e f8 33 3f 87 67 41 3f 95 8c 7b 3f b4 12 0f 40
       0.70300853 0.75548595 0.98261386 2.2355165
000380 9c d6 9e c0 83 b9 b6 bf 04 74 03 3f 9d 4a b0 3f
       -4.9636974 -1.4275364 0.513489 1.377277
000390 2c aa 34 40 3c d8 a3 40 22 6a b0 be 0c 37 86 bf
       2.8228865 5.120146 -0.34455973 -1.0485549
0003a0 77 60 04 3e 58 00 4f 40 52 ad 65 bf a2 ef 6e 3e
       0.12927423 3.234396 -0.8971759 0.233336
0003b0 cc a7 bb 3e 86 e8 3f c0 52 81 54 3f e5 10 e1 3f
       0.36651456 -2.998567 0.8300983 1.7583281
0003c0 2d 03 35 40 9b 99 a6 be 4e 29 31 c0 1b 95 89 3e
       2.8283188 -0.32539067 -2.768146 0.2687157
0003d0 df 56 0f 40 25 97 0e c1 33 1c 1e 3f f5 84 f2 bf
       2.2396772 -8.9119005 0.6176178 -1.8946825
0003e0 c2 cc 2b bf d4 62 8b 40 7c 2f 63 3d 3f a2 e9 bf
       -0.6710931 4.355814 0.055465207 -1.8252639
0003f0 8e 76 12 3f 44 a1 ae c0 79 39 1e 40 ef c4 dc bd
       0.5721215 -5.4571857 2.4722579 -0.107797496

linear_relu_stack.5.bias f4 [256]
000000 6b 17 90 bd 3b 52 f2 3c fe 8b 8b 3d be 4b 30 3d
       -0.070357166 0.029580226 0.06813811 0.043040983
000010 23 fc 62 3d 7f 4b 78 3d 71 5d bd bd c9 43 50 3d
       0.055416238 0.060618874 -0.09246338 0.050845895
000020 aa 4e ac 3c af 8f d0 38 b2 3f 23 bb 37 f3 03 3e
       0.021033604 9.944976e-05 -0.0024909792 0.12885748
000030 0c 08 45 bc e5 63 98 3b e1 9f a2 bc f9 16 b6 bd
       -0.012025844 0.00465058 -0.019851627 -0.088911004
000040 7e 6f 57 3c d9 43 7d 3d 0a bd 09 bc 59 c7 4e bc
       0.01314914 0.061832283 -0.008406887 -0.01262077
000050 22 79 d8 3d 18 cf 8b bd 08 ad 59 bd 67 63 f8 3c
       0.10569979 -0.068266094 -0.05314353 0.030320836
000060 cd f4 69 3d 8e 82 14 3d 67 6a 73 3b 42 2a 99 bd
       0.057118226 0.03625732 0.0037142278 -0.07478763
000070 83 06 94 bd 59 87 87 3d 63 80 e7 3a b6 d2 9f 3d
       -0.072278045 0.066176124 0.0017662164 0.07803862
000080 11 c3 9b 3d 48 53 9b 3d 71 9d cb 3c f2 99 4e bd
       0.07605565 0.07584244 0.024855347 -0.050439782
000090 03 7f 90 3c 69 48 52 bd d7 2b 73 3c 9c 78 8a 3d
       0.017638689 -0.051338587 0.014841995 0.06761286
0000a0 75 8a ad 3c c1 8e a6 bd 87 06 d4 bd 69 31 a4 3c
       0.021184186 -0.08132697 -0.103528075 0.020043092
0000b0 a0 40 1c 3d 25 0d 4d 3d 13 e4 8d 3d a7 02 c7 3d
       0.03814757 0.050061364 0.06928267 0.09717303
0000c0 04 7e e5 37 19 d9 6f bd 0f 5e ab 3c 51 d6 59 3d
       2.7357608e-05 -0.05855665 0.020918874 0.053182904
0000d0 68 f1 72 bd 75 2d 3d 3d 81 ba 4d bd 49 a1 bd 3c
       -0.059312254 0.04618593 -0.050226692 0.023148196
0000e0 b8 65 9f 3d 59 de 1a 3d 38 51 24 3c 3e 8c cf bd
       0.07783073 0.037809703 0.01002913 -0.10134171
0000f0 8b a3 b3 bc 73 55 a7 bd 41 c7 2a 3c b8 d4 5c 3d
       -0.02192857 -0.08170595 0.010423482 0.053913802
000100 ed e0 8d 3d 13 5b 71 3d 36 1f a0 3c 87 5d 9b bd
       0.06927667 0.058924746 0.019546133 -0.07586198
000110 61 99 5b bc 3d 91 26 3d 5e c7 39 3d 2f 7b c4 bd
       -0.013403268 0.040665854 0.045356147 -0.09593808
000120 22 44 08 3c ab 4e ac 3d d9 04 b8 3d ce df f8 bd
       0.008317025 0.08413442 0.089852996 -0.12152062
000130 e1 5f 53 3d b1 29 a1 bd f3 5b 97 bd 86 ac a9 3d
       0.05160511 -0.0786928 -0.07390585 0.08284859
000140 58 cb 39 3c d0 98 3c bd 5e e7 be 3d 1c 22 08 3d
       0.011339985 -0.04604417 0.093214735 0.033235654
000150 90 24 1e 3d 7b c9 51 bd 12 07 c9 3c f3 b3 98 bd
       0.038609087 -0.051217537 0.024539504 -0.074561976
000160 52 80 c4 3d ff 4b 8a bb c3 0e dd bb c4 83 6e 3c
       0.09594788 -0.004220485 -0.0067461445 0.014557783
000170 11 79 7c 3d e8 1d ff 3c a8 32 a7 3d 77 c0 5e 3d
       0.061638895 0.03114219 0.08163959 0.054382768
000180 8b de a7 3d f6 84 86 3d 02 c5 8f bd f7 af 8c 3c
       0.081967436 0.06568329 -0.07019998 0.01717375
000190 73 ce d5 3d 8a 48 dd bd 8d 91 ec 3c 00 a4 98 3d
       0.10439768 -0.10804851 0.028877998 0.074531555
0001a0 8f 19 91 bd 53 11 8b bb 1b 96 98 3c 94 c1 88 bd
       -0.07084953 -0.0042440086 0.018626263 -0.06677547
0001b0 04 0c 2e 3d 17 c7 ca 3d 8d 03 65 bd 90 ae 97 bb
       0.042491928 0.099012546 -0.05591159 -0.004628964
0001c0 ca f3 a2 3d e0 a6 8d bd 5a 5d 4a bd c4 03 8e bc
       0.07956655 -0.069165945 -0.049405433 -0.01733578
0001d0 c0 ea 00 3d 25 5a d3 bd bd 75 10 3d 90 86 9e 3d
       0.031473875 -0.10319928 0.035268534 0.077405095
0001e0 2a ed 07 bc 6e e2 28 bd 67 c1 da 3c 5a 32 1b bc
       -0.00829629 -0.041231565 0.02670355 -0.009472454
0001f0 08 cd 98 bd d6 30 16 3d c5 26 57 bd 41 8b 0c 3e
       -0.074609816 0.036667667 -0.052527208 0.13724996
000200 6e bb 84 3d c9 54 c7 3b bb c9 e0 3b 83 83 0a be
       0.06481062 0.006083105 0.0068599856 -0.1352673
000210 91 26 8d 3d c1 e0 2a 3d 98 73 e2 3d ec ae 43 3d
       0.068921216 0.04171825 0.11057204 0.04777424
000220 61 62 83 3d 2c 64 6a 3c b1 02 7f 3d 13 06 22 3d
       0.06415249 0.014306109 0.062258426 0.039556574
000230 91 1e b2 3d f5 2c 19 3c 27 bc dd 3b 62 93 c1 3c
       0.08697236 0.0093490975 0.0067668143 0.023629848
000240 17 0a 90 bc d3 08 4c bd ab f6 c1 3d cd 6f 03 bd
       -0.017582936 -0.049813103 0.09470876 -0.032089043
000250 b2 2f b0 bd c4 ff a3 3d 37 f4 73 3d 09 0b df bc
       -0.08602847 0.08007768 0.059559073 -0.027226942
000260 05 78 5a 3d 46 b1 61 b9 01 d0 2b bd 51 db f5 3b
       0.053337116 -0.00021523712 -0.041946415 0.007502951
000270 1b 00 8a b9 3b d7 85 ba 49 e0 24 bd b6 a7 bc 3d
       -0.0002632149 -0.0010211238 -0.040252957 0.09211676
000280 8b 5f 7a bb 29 51 94 3d 63 ff 0c bd ae 47 49 3c
       -0.003820392 0.072420426 -0.034423243 0.012285156
000290 22 87 31 3d e6 2c 93 3d cf d7 63 3d 92 a3 b9 3b
       0.043341763 0.07186298 0.055625733 0.005665251
0002a0 8a 8a b7 bb 47 b8 0c 3d b2 9d 66 3b 28 1b 63 bd
       -0.005601232 0.034355428 0.0035189209 -0.05544582
0002b0 39 20 8b 3d 54 08 34 bd 39 4f ab bd 53 98 8c bd
       0.06793255 -0.043953255 -0.0836472 -0.06864991
0002c0 20 ab d4 bc 83 55 82 bd 9c 4a 9e bc 89 ea a6 3c
       -0.025960505 -0.06363966 -0.019322686 0.020375507
0002d0 18 6f 70 3b 16 29 fe bc 6d 55 86 3d e9 86 3f bc
       0.003668731 -0.03102545 0.065592624 -0.01168988
0002e0 ac 24 92 bc 4c 31 02 bd a0 8e a6 3c 4e a6 7c 3c
       -0.017839752 -0.031785294 0.02033168 0.0154205095
0002f0 cf b5 52 bd 7e 0b 39 3d 00 2b 24 3b 7e b9 ae 3d
       -0.051442917 0.045176975 0.0025050044 0.085314736
000300 23 76 ca bd 4e f9 ed 3c 65 04 65 bc be cd 01 3d
       -0.09885814 0.029049542 -0.0139780985 0.03169035
000310 a3 38 95 bd eb b3 80 bd 07 c9 d0 3a cc 48 2c bc
       -0.07286193 -0.06284317 0.0015929051 -0.010515403
000320 38 e2 b5 bd 56 78 42 bd 63 da b5 bd 5a 28 29 bd
       -0.088810384 -0.047478043 -0.088795446 -0.041298248
000330 f1 42 22 bb 61 a2 48 bd ad 02 9c 3d 97 61 29 3c
       -0.0024759138 -0.04898298 0.07617698 0.010338209
000340 6e 91 a9 3d ad f0 ad bb 61 39 19 3d ca a5 80 bd
       0.08279692 -0.005308232 0.037408236 -0.06281622
000350 b8 c9 75 3d 07 65 bd 3d 0a 2f 3e 3d 6f 51 02 bd
       0.060006827 0.09247785 0.04643158 -0.031815942
000360 43 e9 92 bd ed 9e e0 bd a7 15 59 3d 40 10 60 b9
       -0.071733974 -0.10967813 0.052999165 -0.00021368358
000370 24 fe 11 3c 5b 52 ad 3c 9a 4a 5a bd 02 26 a7 bc
       0.0089106895 0.021157434 -0.0532938 -0.020403866
000380 57 86 ef bd af 40 95 3d 59 88 5a 3d 07 57 37 3c
       -0.11695545 0.07287728 0.053352688 0.0111901825
000390 b3 a8 39 3d 26 63 47 bc f6 fe 67 bd 53 af 9d bd
       0.0453269 -0.012169635 -0.056639634 -0.07699456
0003a0 14 d4 b0 3d 74 ef 89 3d 25 ee d0 bc 8e 24 bb 3b
       0.08634201 0.06735125 -0.025504181 0.005711145
0003b0 cd c3 2c 3c 27 dc b7 bc a5 a3 44 3d d9 f2 ba 3d
       0.010544729 -0.022443844 0.048007626 0.09128351
0003c0 a2 13 08 3d 88 25 4e bb 1f c4 cb bc b3 21 93 bd
       0.03322185 -0.0031455476 -0.024873791 -0.07184162
0003d0 1f 41 62 3d 35 58 3e bd 82 34 5b bd 70 1a 94 bd
       0.055237886 -0.04647084 -0.053516872 -0.07231605
0003e0 b4 d9 c2 3a 64 ee c6 3c f3 de 30 3d 0c d0 95 3d
       0.0014865906 0.024283595 0.04318137 0.073150724
0003f0 bb f3 1f bc 0e bd fa bc 73 66 71 bd 70 5b e7 bd
       -0.0097627 -0.030607726 -0.058935594 -0.11296737
